Models/cnn_lstm_model_stream_Nstream_Nstride_0,74.pth (torch, 408328 bytes, 8 tensors)

conv1.weight f4 [64, 8, 3]
-0.14997722 -0.080292545 -0.16760729 0.12001358 -0.11927951 -0.18426588 -0.12975216 0.050249077
-0.004492729 0.23765299 0.12024494 0.35079786 0.08115282 -0.0823858 0.08247383 -0.079995535
-0.021083415 -0.04336016 -0.15718421 -0.22020757 0.01137201 0.0827298 -0.050252967 0.2453448
-0.1797814 0.04535147 -0.031802975 -0.06160376 -0.2063023 -0.04042144 -0.18087992 0.06445059
0.07773188 0.29828918 0.2709699 0.07163814 -0.042312797 0.07733067 0.15770717 -0.060661834
0.26290458 -0.17096806 0.007987073 0.021665674 0.12409103 0.1707978 -0.120970964 0.013011031
-0.14769156 0.017961882 -0.019177511 0.18343736 0.14622125 -0.12298943 -0.21678135 0.19951774
-0.096162 -0.13561714 0.13918154 0.036732085 -0.100138694 -0.029149465 -0.04132818 0.1851115
-0.1566892 -0.098583594 0.18013589 -0.21116014 0.09501387 0.13794202 0.21169555 -0.007143114
-0.18986575 0.16914624 0.038171586 0.16840945 0.12767865 0.10318361 0.1727927 -0.11513086
0.1992341 0.16316725 0.19706593 -0.005907281 0.19100407 -0.18943721 0.061407223 0.068802394
-0.08574916 -0.29609522 0.14933302 -0.19410515 -0.058071755 -0.16747463 -0.034013104 0.024405342
0.042307734 -0.19633117 -0.21165928 0.18048707 0.25370038 -0.035159897 0.3441767 0.2524214
0.05356987 -0.2667399 -0.010067822 -0.022525832 -0.18312034 -0.09970859 0.08471152 -0.09451611
0.09900297 -0.0497851 -0.22089353 0.030194694 -0.22722785 -0.0930385 -0.048357707 -0.19307758
-0.17252207 -0.12682922 0.06316367 -0.009379057 0.16577016 0.14472255 0.023453234 0.07058226
-0.21645685 0.017958134 -0.07947888 -0.18041499 -0.16127536 -0.27925524 -0.182378 0.060869258
-0.01523559 -0.08631393 -0.04222688 -0.13238837 0.1885007 0.16557762 0.0045194724 0.13421844
-0.055116877 0.18046771 0.21059732 0.23755349 0.06450916 0.30005273 0.2304695 -0.13746236
0.008963975 0.07386596 0.070687205 0.22240801 0.18838651 -0.11590799 0.13842323 -0.21679671
0.06621738 -0.12839657 0.16195442 0.18921533 -0.06355276 -0.15324928 -0.111721195 0.0048508896
0.116960794 0.06468525 -0.1549534 0.115983844 -0.21898316 -0.2612609 0.09739599 0.0431167
0.26770166 -0.20091346 -0.2989271 -0.007941364 -0.048640855 0.053745724 0.15675679 -0.083472654
-0.1984033 0.13760947 0.13936594 0.10963918 -0.110349774 -0.11808582 0.17304987 -0.068939805
-0.038532805 0.13375127 0.08734439 -0.14060631 0.15000048 0.13678966 -0.00991907 -0.030808587
0.1661376 0.10601079 0.17854308 0.020436669 0.017483123 0.10881814 0.17570738 0.0373272
0.109485805 -0.004172291 0.10816392 0.028195592 0.130227 -0.0758592 0.08349004 -0.060050197
0.11103066 0.07065322 0.16234612 0.039912224 0.09488203 -0.1985438 -0.16774024 -0.12104005
0.12057401 -0.18631016 -0.28892967 -0.22318491 -0.19501258 0.12167876 -0.2811688 0.30815294
0.11457551 0.22440204 0.086525016 -0.23821242 -0.16692887 0.024914611 -0.05656462 -0.033404183
-0.14927755 0.14342432 0.16458142 -0.19690204 0.06129421 -0.050365098 0.07365702 -0.05490834
0.10814528 0.21675295 0.26685604 0.30363762 -0.029317688 0.2046835 0.13455994 -0.17085472
00000000: a193 19be 6b70 a4bd 3fa1 2bbe aec9 f53d
00000010: d148 f4bd 32b0 3cbe c0dd 04be fad1 4d3d
00000020: be37 93bb 4e5b 733e fb42 f63d c79b b33e
00000030: 7333 a63d e3b9 a8bd 0ae8 a83d b3d4 a3bd
00000040: 20b7 acbc 6c9a 31bd e6f4 20be 187e 61be
00000050: ab51 3a3c 3e6e a93d 0ed6 4dbd ab3b 7b3e
00000060: 9e18 38be 77c2 393d d643 02bd 3954 7cbd
00000070: e940 53be f490 25bd 9638 39be acfe 833d
00000080: e431 9f3d 5cb9 983e 91bc 8a3e 04b7 923d
00000090: 2f50 2dbd 8b5f 9e3d fd7d 213e 8b78 78bd
000000a0: 6e9b 863e 4012 2fbe 36dc 023c 367c b13c
000000b0: 7023 fe3d 9ee5 2e3e a0bf f7bd 382c 553c
000000c0: 753c 17be cc24 933c 281a 9dbc 01d7 3b3e
000000d0: 06bb 153e e2e1 fbbd eefb 5dbe 614e 4c3e
000000e0: 95f0 c4bd 38df 0abe 9b85 0e3e 6274 163d
000000f0: 8415 cdbd dcca eebc bd47 29bd de8d 3d3e
00000100: 2273 20be 32e6 c9bd 8b75 383e 5d3a 58be
00000110: a296 c23d ac40 0d3e b8c6 583e c910 eabb
00000120: 2b6c 42be ac34 2d3e cf59 1c3d 8773 2c3e
00000130: 31be 023e ee51 d33d 92f0 303e bac9 ebbd
00000140: 0604 4c3e 5115 273e a7cb 493e dd91 c1bb
00000150: 9296 433e d4fb 41be 2486 7b3d 45e8 8c3d
00000160: 419d afbd cb99 97be c1ea 183e 80c3 46be
00000170: a6dc 6dbd 787e 2bbe 5351 0bbd b6ed c73c
00000180: e04a 2d3d 0a0b 49be 36bd 58be 9ad1 383e
00000190: 04e5 813e d303 10bd ee37 b03e 613d 813e
000001a0: 146c 5b3d 2292 88be 82f3 24bc 1888 b8bc
000001b0: e683 3bbe 0434 ccbd 3c7d ad3d aa91 c1bd
000001c0: 12c2 ca3d 76eb 4bbd ea31 62be dd5a f73c
000001d0: 6bae 68be f88a bebd bb12 46bd 21b6 45be
000001e0: a0a9 30be 85df 01be f45b 813d 9eaa 19bc
000001f0: a7bf 293e 2632 143e ff20 c03c 6f8d 903d
00000200: dda6 5dbe f01c 933c d3c5 a2bd b5be 38be
00000210: 5e25 25be 8bfa 8ebe 4cc1 3abe 0b52 793d
00000220: b29e 79bc 5cc5 b0bd 18f6 2cbd d190 07be
00000230: 5406 413e 2e8d 293e 1518 943b 8f70 093e
00000240: 3cc2 61bd 87cc 383e d3a6 573e 3941 733e
00000250: 611d 843d 83a0 993e 3200 6c3e efc2 0cbe
00000260: a3dd 123c 0947 973d 74c4 903d edbe 633e
00000270: 65e8 403e 2b61 edbd d2be 0d3e f5ff 5dbe
00000280: fa9c 873d 647a 03be 61d7 253e aac1 413e
00000290: f327 82bd 61ed 1cbe 15ce e4bd 36f4 9e3b
000002a0: 2489 ef3d b379 843d 1bac 1ebe f088 ed3d
000002b0: 1f3d 60be fdc3 85be 8c77 c73d 239b 303d
000002c0: 3110 893e 42bc 4dbe f90c 99be 7f1c 02bc
000002d0: a23b 47bd 7a24 5c3d da84 203e b6f3 aabd
000002e0: 3c2a 4bbe 7fe9 0c3e f2b5 0e3e 828a e03d
000002f0: 10ff e1bd fad6 f1bd fc33 313e 5030 8dbd
00000300: 93d4 1dbd 18f6 083e 9ee1 b23d 1afb 0fbe
00000310: ba99 193e 9712 0c3e 9883 22bc 4a62 fcbc
00000320: fa1f 2a3e 2f1c d93d ffd3 363e cd6a a73c
00000330: c438 8f3c 0cdc de3d a3ec 333e 68e4 183d
00000340: 183a e03d b7b7 88bb 0c85 dd3d 71fa e63c
00000350: 3a5a 053e 115c 9bbd d3fc aa3d 32f7 75bd
00000360: 0b64 e33d a3b2 903d 103e 263e 007b 233d
00000370: 8251 c23d 114f 4bbe 19c4 2bbe d9e3 f7bd
00000380: 82ef f63d 17c8 3ebe 97ee 93be 968a 64be
00000390: 61b1 47be b732 f93d 5bf5 8fbe 39c6 9d3e
000003a0: 91a6 ea3d a6c9 653e 0734 b13d f5ed 73be
000003b0: 67ef 2abe ba19 cc3c 4eb0 67bd d3d2 08bd
000003c0: 37dc 18be d3dd 123e 0888 283e b0a0 49be
000003d0: a30f 7b3d a24b 4ebd 7ed9 963d 91e7 60bd
000003e0: 467b dd3d 7cf4 5d3e 5ba1 883e 6476 9b3e
000003f0: a62b f0bc 8d98 513e 15ca 093e 8af4 2ebe

conv1.bias f4 [64]
0.1668113 0.01952505 -0.0528009 -0.23652296 0.06564002 -0.15726382 -0.17651606 -0.03967123
-0.08464611 -0.13972956 0.17090882 -0.15659331 -0.025550038 0.11317072 -0.08811432 0.020205257
0.03322915 -0.16210905 0.09422088 0.13167007 0.14025308 0.012475648 -0.04477605 -0.1613363
0.019908398 0.119502604 -0.052913036 -0.05183291 0.106470376 -0.13740318 0.048873622 0.100089125
-0.13042594 -0.017146016 0.048394646 0.14423989 -0.06713782 -0.23007543 0.012850213 -0.04953096
-0.027292723 0.058486536 -0.02717835 -0.107082285 0.034783743 0.0098410845 -0.16730537 0.10744014
-0.06283923 -0.083310254 -0.24805282 -0.03510913 0.00041925212 0.024621455 -0.07730995 -0.08036404
0.08062396 -0.00350737 -0.18496944 -0.1263481 0.029598316 -0.076923825 0.029290684 -0.2545935
00000000: 95d0 2a3e fff2 9f3c c245 58bd 1333 72be
00000010: 466e 863d c409 21be a0c0 34be 4d7e 22bd
00000020: f15a adbd 4415 0fbe b902 2f3e ff59 20be
00000030: 504e d1bc 0dc6 e73d 4875 b4bd 7f85 a53c
00000040: 4a1b 083d eaff 25be e0f6 c03d 85d4 063e
00000050: 819e 0f3e a966 4c3c 1767 37bd 5835 25be
00000060: f016 a33c c8bd f43d 57bb 58bd bf4e 54bd
00000070: 240d da3d 6bb3 0cbe b52f 483d 87fb cc3d
00000080: 618e 05be cd75 8cbc 7739 463d 9fb3 133e
00000090: 8e7f 89bd e598 6bbe b389 523c fae0 4abd
000000a0: fd94 dfbc 948f 6f3d 22a5 debc f54d dbbd
000000b0: 6679 0e3d 803c 213c 1952 2bbe 9309 dc3d
000000c0: dbb1 80bd 919e aabd 8f01 7ebe 97ce 0fbd
000000d0: 11cf db39 efb2 c93c ae54 9ebd e795 a4bd
000000e0: 2d1e a53d e7db 65bb a168 3dbe 6561 01be
000000f0: 2b78 f23c 3d8a 9dbd 04f3 ef3c 145a 82be

lstm.weight_ih_l0 f4 [512, 64]
-0.10321579 -0.028265418 -0.00020278293 -0.10552274 0.01508858 0.041809294 -0.046023097 0.040077217
-0.108064406 -0.10507274 -0.010247098 0.023927882 0.003692781 -0.098950416 -0.023993498 -0.12142088
0.043910135 -0.11814813 0.047078222 -0.06593235 -0.058053516 0.003874832 -0.024960853 -0.07221916
-0.021110278 -0.04098137 0.016755493 -0.03520984 0.041899335 -0.04798584 -0.11595344 -0.022035602
-0.081793584 0.025501857 0.07387384 -0.108950056 -0.11259673 -0.08151237 0.005902148 -0.103727005
-0.07421867 -0.044631675 -0.0036620745 -0.0677231 -0.07336889 -0.0047597205 -0.024770021 -0.020578189
-0.115560845 0.014327014 -0.037228156 -0.022110706 -0.09052312 -0.02691825 -0.07386756 -0.0395605
0.026705354 -0.017883355 -0.061645646 -0.05788131 0.00474926 -0.037609067 -0.076645255 -0.11033141
0.21708852 -0.014986253 0.051092986 -0.0052916766 -0.13665304 0.115335874 -0.05836678 -0.21624504
-0.09305194 -0.022205396 0.022929607 -0.097249046 -0.0013593024 0.022103397 -0.1731865 -0.032293413
0.046973776 -0.15533662 0.06262885 0.02584593 -0.009298174 -0.13297953 -0.007795725 0.08288143
0.08789011 -0.021257976 -0.19394462 0.06502228 0.0067620026 -0.05220456 -0.15128131 0.03389696
0.070921004 -0.017054271 -0.14304833 -0.05709962 0.06438471 -0.18572286 -0.17328224 0.06989481
0.057829153 -0.039313145 -0.16446549 -0.09339041 -0.014097773 -0.026101794 -0.10552548 -0.031053208
-0.041299563 -0.090526655 -0.16938855 -0.15398139 -0.067401625 -0.05091757 -0.14216931 0.039895
-0.03854102 -0.0716819 -0.24729976 0.07275668 -0.15481004 0.02601746 -0.11166979 -0.0041603455
0.047656428 0.011432159 -0.10575419 0.16075917 0.10172146 -0.070302844 -0.056268003 -0.0015882618
-0.03429104 -0.13567291 0.020342574 -0.03733954 -0.03235065 -0.041255873 0.03600429 -0.01963132
0.02390948 -0.08773531 0.025983907 0.047382545 -0.12964708 0.079239875 -0.033026863 0.11734802
-0.14612353 0.026858484 -0.034300376 -0.119241945 0.072263256 0.06743461 -0.036547516 0.15765314
-0.026046857 0.041945208 -0.060924727 -0.04369758 0.0028959196 -0.08542108 -0.0053806556 -0.084750354
0.003941713 0.09270171 0.03843471 0.008802651 -0.009738114 0.02168991 0.0009665982 0.040878594
-0.029053276 -0.111375466 -0.061075896 -0.11807032 -0.10867583 -0.045717184 0.031987928 0.0021393227
-0.12547559 0.08869256 -0.10222421 0.040339757 0.008497519 -0.03130936 -0.05683114 -0.15008287
-0.04124353 0.017553713 0.14569482 -0.13105187 -0.14198671 0.10996619 -0.4410889 -0.06278355
-0.13233268 -0.1685036 0.31942508 -0.026245309 -0.17871809 -0.15068413 0.033338554 -0.27984837
-0.12814687 -0.35042715 -0.1954971 -0.067016914 -0.09739994 -0.1272492 -0.20877309 0.039202582
0.024703125 0.048418686 -0.17551419 0.65431637 -0.20326488 -0.0817236 -0.0068925 0.06572217
0.22066218 -0.20065454 -0.0049055684 -0.07471802 -0.025346495 -0.30886912 -0.1038896 -0.03673601
-0.062071048 -0.12918638 0.034095053 0.006299134 0.019114511 -0.0426909 -0.0362346 -0.11713011
-0.032541573 -0.23124783 -0.1748383 0.11356335 -0.05369515 -0.22606002 -0.20180249 -0.36389393
0.1089867 0.091020085 -0.15285765 0.0554689 -0.24399288 -0.3600092 0.059336763 0.082674965
00000000: cd62 d3bd e18c e7bc 21a2 54b9 4e1c d8bd
00000010: 1736 773c 3940 2b3d b782 3cbd 0228 243d
00000020: df50 ddbd 6030 d7bd 72e3 27bc 6804 c43c
00000030: 9602 723b 84a6 cabd 038e c4bc 83ab f8bd
00000040: 1ddb 333d a6f7 f1bd 18d5 403d 8a07 87bd
00000050: 86c9 6dbd e5f0 7d3b b47a ccbc a4e7 93bd
00000060: 76ef acbc 15dc 27bd d142 893c 3138 10bd
00000070: a39e 2b3d cd8c 44bd ff78 edbd 0284 b4bc
00000080: 6583 a7bd 45e9 d03c 2b4b 973d 3521 dfbd
00000090: 1d99 e6bd f5ef a6bd ce66 c13b d36e d4bd
000000a0: f5ff 97bd b4cf 36bd 6aff 6fbb 69b2 8abd
000000b0: 6e42 96bd 6ef7 9bbb 80ea cabc 9793 a8bc
000000c0: 2aab ecbd dabb 6a3c 8d7c 18bd 8321 b5bc
000000d0: 2f64 b9bd a983 dcbc e047 97bd 310a 22bd
000000e0: 30c5 da3c 1d80 92bc 2580 7cbd f414 6dbd
000000f0: ae9f 9b3b f70b 1abd 30f8 9cbd 6ff5 e1bd
00000100: 744c 5e3e e788 75bc e146 513d cd65 adbb
00000110: c6ee 0bbe 3735 ec3d 0112 6fbd 576f 5dbe
00000120: 0492 bebd 17e8 b5bc dfd6 bb3c 822a c7bd
00000130: 9f2a b2ba 2f12 b53c cd57 31be 1946 04bd
00000140: 9367 403d 9010 1fbe 8e43 803d d8ba d33c
00000150: 5e57 18bc c92b 08be 4873 ffbb bdbd a93d
00000160: bbff b33d 3525 aebc 6b99 46be 672a 853d
00000170: ca93 dd3b 73d4 55bd 7de9 1abe 8ad7 0a3d
00000180: 083f 913d 66b5 8bbc 437b 12be 4be1 69bd
00000190: 21dc 833d 222e 3ebe e670 31be 0325 8f3d
000001a0: 43de 6c3d d206 21bd a469 28be 7943 bfbd
000001b0: 58fa 66bc 6ed3 d5bc be1d d8bd 4c63 febc
000001c0: bb29 29bd 0a66 b9bd 3174 2dbe 4cad 1dbe
000001d0: dd09 8abd f18e 50bd d594 11be f168 233d
000001e0: 30dd 1dbd f6cd 92bd 263c 7dbe 7401 953d
000001f0: 8686 1ebe 9122 d53c 22b3 e4bd 8253 88bb
00000200: 6333 433d f34d 3b3c a795 d8bd 0d9e 243e
00000210: 5753 d03d f0fa 8fbd 4779 66bd 392d d0ba
00000220: c374 0cbd d7ed 0abe 78a5 a63c 58f1 18bd
00000230: 1d82 04bd ebfb 28bd 3c79 133d ddd1 a0bc
00000240: d0dd c33c 92ae b3bd 34dc d43c 3314 423d
00000250: 34c2 04be 8448 a23d 2d47 07bd 2954 f03d
00000260: 68a1 15be 5306 dc3c 8d7e 0cbd 1f35 f4bd
00000270: c2fe 933d 281b 8a3d d9b2 15bd d36f 213e
00000280: 3860 d5bc bdce 2b3d 358c 79bd 3cfc 32bd
00000290: 78c9 3d3b 3ff1 aebd 3650 b0bb 9891 adbd
000002a0: 7c29 813b 65da bd3d b76d 1d3d ff38 103c
000002b0: 9c8c 1fbc 0aaf b13c 4f63 7d3a 5070 273d
000002c0: 2301 eebc d218 e4bd b82a 7abd dace f1bd
000002d0: 6f91 debd f141 3bbd c605 033d e133 0c3b
000002e0: ac7c 00be 72a4 b53d ed5a d1bd 4d3b 253d
000002f0: 2e39 0b3c 3e3e 00bd c5c7 68bd 53af 19be
00000300: faee 28bd cecc 8f3c 0631 153e 7632 06be
00000310: f764 11be f435 e13d 68d6 e1be a994 80bd
00000320: 3882 07be 358c 2cbe af8b a33e 6700 d7bc
00000330: e001 37be f14c 1abe 028e 083d 4948 8fbe
00000340: ef38 03be 306b b3be 6430 48be 2a40 89bd
00000350: 9f79 c7bd 9d4d 02be 9dc8 55be e392 203d
00000360: 355e ca3c ac52 463d feb9 33be 4781 273f
00000370: ab24 50be b45e a7bd 7bda e1bb 5899 863d
00000380: 44f5 613e 6278 4dbe e4be a0bb c305 99bd
00000390: 74a3 cfbc 1824 9ebe 12c4 d4bd 8078 16bd
000003a0: 363e 7ebd 6f49 04be 41a7 0b3d f768 ce3b
000003b0: 0996 9c3c a7dc 2ebd bb6a 14bd e9e1 efbd
000003c0: 504a 05bd 3bcc 6cbe d008 33be e793 e83d
000003d0: 72ef 5bbd 477c 67be 50a5 4ebe 4e50 babe
000003e0: 6b34 df3d bd68 ba3d b786 1cbe 5b33 633d
000003f0: 45d9 79be 2053 b8be 1b0b 733d 7e51 a93d

lstm.weight_hh_l0 f4 [512, 128]
0.08455708 -0.076459646 -0.06338999 0.057017867 0.091064475 -0.0046794293 0.06160501 0.0108808745
0.04443475 0.08002951 -0.028725408 -0.07170646 -0.12568827 -0.015728623 -0.02991613 -0.033994675
0.050899632 0.057639606 0.09219732 0.015677935 -0.037993375 -0.08196044 0.030234275 0.119350195
-0.075140655 -0.04820562 -0.0655335 -0.013399086 0.048359357 -0.014860268 0.024820922 0.040342856
0.14620212 0.01761101 0.080639616 -0.07836779 -0.074925356 0.011035026 0.098763175 0.10891819
-0.08710217 0.07173811 0.0065827146 0.048654735 0.036788356 0.039772745 -0.047147337 0.05977621
0.110519335 -0.059186045 -0.00014543926 -0.081566095 0.031354383 -0.012339699 -0.019170528 0.0887701
0.11202717 0.043837227 -0.05652868 0.081406824 0.16953301 -0.07906804 0.19931549 -0.15866451
0.03018135 -0.10295022 -0.058210887 0.037404418 0.028557055 0.016995672 -0.025202569 -0.046931818
-0.14174698 -0.108795755 0.044295937 0.020037685 0.02667751 -0.04755696 0.15142168 0.12546898
0.031228859 -0.055998027 -0.04196863 0.123413205 -0.052246448 0.041222714 0.03990776 0.063825205
0.007695655 -0.047628947 0.07229494 0.0006251281 0.12863418 0.06840954 -0.06801336 0.07492361
-0.0127275875 0.042804047 0.014332998 0.15674502 -0.050888915 0.088183254 0.16094297 -0.032615505
0.08857809 0.033430804 0.03616593 -0.024509963 0.1017572 0.053347096 0.013604434 -0.07436715
0.019176774 0.12460977 0.03557116 -0.06979523 0.0058400375 -0.008585449 0.007843487 0.07279228
-0.14455804 -0.073773466 0.082339235 0.08367652 0.030821787 0.05558241 -0.05582839 0.07847537
-0.10327406 -0.080963 -0.0849131 0.03958452 -0.023520177 -0.039184336 0.065006085 0.034607083
-0.01163111 0.07360093 -0.11184593 0.059424974 0.010130934 0.018768435 0.06786973 -0.049812157
-0.14683451 -0.0010359784 -0.045498606 -0.11829063 0.15851593 -0.18528901 -0.11120326 0.0043876823
-0.024928095 -0.13154624 -0.056862988 -0.014790408 0.013163172 -0.014630009 0.12896466 -0.049733765
0.10751702 -0.058929387 0.026100246 -0.048944607 -0.01883906 -0.08472861 -0.008484339 0.014793801
-0.16626902 0.0364576 -0.0036440573 0.095419094 0.097658165 0.04866501 0.06223173 0.053592447
0.04966936 0.10073627 -0.038176704 0.04193553 0.047032356 0.13196172 0.07757307 -0.101000935
0.0019145225 0.12571971 -0.03553546 0.09399741 0.047934037 -0.05602462 0.031181065 -0.0122978585
0.03947258 -0.07644343 0.08836472 -0.09238393 0.04411304 -0.029301234 0.05629902 0.007204161
-0.022773596 -0.006125911 0.035133563 -0.06921453 -0.07337055 0.098556645 -0.022157138 0.08350389
0.040693507 -0.042424925 -0.0063503827 0.005353656 0.054129213 0.02819542 -0.064354025 -0.104677334
-0.06058564 -0.08216931 -0.038690872 0.027826838 0.1259613 -0.07195763 0.03966485 -0.0051108217
-0.0037520109 0.07654675 -0.0063898875 0.056618482 0.03347301 0.13563456 0.01538173 -0.015600611
-0.03488309 -0.019077417 -0.07553334 -0.047805358 0.056232464 -0.020815695 0.023576707 0.035100278
-0.051583894 -0.05798413 0.08658903 -0.012603487 0.09424046 0.023618523 -0.041565858 0.052287254
-0.08568204 -0.022537837 0.100117795 -0.11127293 -0.0026600854 0.1108856 -0.013396013 -0.029429158
00000000: 432c ad3d e096 9cbd 9cd2 81bd 918b 693d
00000010: 0380 ba3d e655 99bb 8955 7c3d b245 323c
00000020: 3601 363d 83e6 a33d 8c51 ebbc d6da 92bd
00000030: 6db4 00be 50d9 80bc ac12 f5bc 003e 0bbd
00000040: 227c 503d 8217 6c3d f3d1 bc3d 036f 803c
00000050: f19e 1bbd e0da a7bd dfad f73c e06d f43d
00000060: 58e3 99bd 4273 45bd 6d36 86bd d787 5bbc
00000070: 7614 463d 7b78 73bc 3f55 cb3c 8d3e 253d
00000080: 02b6 153e f744 903c 6226 a53d 4b7f a0bd
00000090: 7772 99bd 41cc 343c 5944 ca3d 8010 df3d
000000a0: 9f62 b2bd 6eeb 923d d0b3 d73b 304a 473d
000000b0: 63af 163d bfe8 223d 911d 41bd e6d7 743d
000000c0: f657 e23d 116d 72bd 0e81 18b9 200c a7bd
000000d0: 746d 003d 732c 4abc 830b 9dbc 19cd b53d
000000e0: 806e e53d aa8e 333d 9e8a 67bd 9fb8 a63d
000000f0: 109a 2d3e 6dee a1bd 5c19 4c3e f378 22be
00000100: e13e f73c 91d7 d2bd 8a6e 6ebd 6035 193d
00000110: 7cf0 e93c 823a 8b3c 9e75 cebc 943b 40bd
00000120: 1f26 11be 4fd0 debd a86f 353d 1226 a43c
00000130: cb8a da3c 16cb 42bd 490e 1b3e f17a 003e
00000140: aad3 ff3c 305e 65bd 4ce7 2bbd 10c0 fc3d
00000150: 5f00 56bd 26d9 283d 5276 233d cab6 823d
00000160: d52b fc3b 9216 43bd 5f0f 943d a3df 233a
00000170: aeb8 033e 4d1a 8c3d 974a 8bbd 8d71 993d
00000180: 5f87 50bc 4c53 2f3d f3d4 6a3c c481 203e
00000190: e570 50bd 6c99 b43d 3cce 243e d697 05bd
000001a0: 6e68 b53d bdee 083d ba22 143d 1ec9 c8bc
000001b0: 1466 d03d 7c82 5a3d 22e5 5e3c ce4d 98bd
000001c0: 9c18 9d3c 6833 ff3d 11b3 113d cdf0 8ebd
000001d0: c95d bf3b fca9 0cbc f881 003c 1e14 953d
000001e0: 0607 14be 8b16 97bd 79a1 a83d 985e ab3d
000001f0: f97d fc3c 62aa 633d 4fac 64bd b2b7 a03d
00000200: 5a81 d3bd eecf a5bd ebe6 adbd 6123 223d
00000210: 63ad c0bc c17f 20bd e921 853d 28c0 0d3d
00000220: 6990 3ebc 16bc 963d 7b0f e5bd 9a67 733d
00000230: 38fc 253c 43c0 993c 49ff 8a3d d507 4cbd
00000240: c95b 16be abc9 87ba bf5c 3abd 5c42 f2bd
00000250: 0052 223e 67bc 3dbe 89be e3bd 8cc6 8f3b
00000260: 0136 ccbc 0fb4 06be 2ae9 68bd 7853 72bc
00000270: 58aa 573c b5b2 6fbc 500f 043e a2b5 4bbd
00000280: e231 dc3d f15f 71bd 2fd0 d53c 247a 48bd
00000290: 5f54 9abc 3286 adbd e601 0bbc b361 723c
000002a0: 6d42 2abe 9054 153d 23d1 6ebb 166b c33d
000002b0: 0101 c83d f654 473d b3e6 7e3d c183 5b3d
000002c0: 1972 4b3d d14e ce3d 2d5f 1cbd 97c4 2b3d
000002d0: 00a5 403d f920 073e a1de 9e3d 94d9 cebd
000002e0: b7f0 fa3a abbc 003e a18d 11bd b781 c03d
000002f0: 7b56 443d 127a 65bd 6f6f ff3c f57c 49bc
00000300: 00ae 213d 5f8e 9cbd 90f8 b43d c933 bdbd
00000310: e0af 343d 2409 f0bc cd99 663d e210 ec3b
00000320: b18f babc debb c8bb 36e8 0f3d 59c0 8dbd
00000330: 4d43 96bd 11d8 c93d e382 b5bc 1604 ab3d
00000340: 3cae 263d c2c5 2dbd df16 d0bb b96d af3b
00000350: 98b6 5d3d 15fa e63c 0bcc 83bd 1261 d6bd
00000360: a628 78bd 6248 a8bd 527a 1ebd 1cf5 e33c
00000370: 00fc 003e 865e 93bd 9c77 223d ae78 a7bb
00000380: 4ce4 75bb 8bc4 9c3d 4362 d1bb c8e8 673d
00000390: ff1a 093d c9e3 0a3e a703 7c3c b599 7fbc
000003a0: 92e1 0ebd 3e48 9cbc 39b1 9abd 8dcf 43bd
000003b0: 0354 663d ad85 aabc f023 c13c 4fc5 0f3d
000003c0: a249 53bd c480 6dbd 9755 b13d db7e 4ebc
000003d0: 2401 c13d a27b c13c f640 2abd 292b 563d
000003e0: 117a afbd 45a1 b8bc 8f0a cd3d 10e3 e3bd
000003f0: d454 2ebb fd17 e33d f37a 5bbc 6b15 f1bc

lstm.bias_ih_l0 f4 [512]
-0.0042337268 -0.008443749 -0.08730017 -0.11877234 -0.004833719 -0.046134487 -0.025594685 0.08362535
-0.13100548 -0.045034405 -0.11073197 0.011898812 0.016193934 -0.17341924 -0.0033909208 0.011530115
0.017079806 -0.092254296 -0.078774534 -0.10331325 0.0074624205 0.023647927 -0.10124527 -0.12752095
0.03491035 0.016942674 -0.04483886 -0.09503606 0.003808594 0.010838735 -0.09450082 -0.027410224
-0.07876199 -0.06017731 0.02140187 0.01737252 -0.029365048 0.0020450002 -0.020765893 -0.062961854
-0.016951123 -0.05854289 -0.012784818 -0.11368791 -0.015219942 -0.04369548 -0.02564707 -0.05501193
-0.115048125 -0.01834719 0.017154766 -0.10265029 -0.06200533 -0.07302269 -0.14079207 0.0014878148
-0.021530412 -0.027447427 0.0022429363 0.011638878 0.063397914 0.05109899 -0.07159183 -0.0041360483
0.08270788 -0.085413426 -0.115497656 0.023155697 -0.033198774 -0.09789718 -0.06375201 0.016042983
0.06299748 -0.11821633 -0.05220222 0.0090633975 -0.036635336 -0.09194004 0.068209395 0.06377999
0.009686439 0.03708456 -0.019951664 -0.013301719 -0.079359226 -0.018535892 0.024430642 -0.10623261
-0.04527143 -0.061613865 0.08251805 -0.06443437 -0.023914753 -0.029846814 -0.059291277 -0.14095847
0.09607399 0.04482338 0.041600447 -0.01974549 -0.09671955 -0.06902791 -0.08857311 0.0034801571
0.0030704807 -0.09219841 -0.07305157 -0.067110114 0.023973973 -0.07014992 -0.056050748 -0.034156013
-0.0020613228 -0.1737973 -0.008168704 -0.06856576 -0.020821707 -0.046438955 -0.084340736 -0.05963899
-0.12541665 -0.03590684 -0.03166202 0.012178071 -0.10140636 -0.094671704 -0.09862728 -0.037345562
-0.055397592 -0.0126307495 -0.10960003 0.13931313 -0.09470213 -0.10133353 -0.041440412 0.087006725
0.054774348 0.11101289 0.121572345 -0.09694499 -0.05728547 0.054685354 -0.068977624 0.07404038
0.046070762 0.072212644 0.09791787 0.086161464 -0.0042968625 -0.031308006 -0.049546737 -0.053363677
0.034078903 0.02946761 0.040556565 0.04347615 -0.10055841 0.052882824 -0.124028705 0.046751313
0.14045843 0.013773613 0.010217025 0.036681797 -0.08057541 -0.063129455 -8.205725e-05 -0.04169909
-0.017406039 0.16672082 0.18563557 0.010194338 -0.046808682 -0.06686614 0.044797696 0.06881715
0.024926532 -0.06424992 -0.10065958 0.063111834 -0.04560114 -0.056734383 -0.013318496 0.019509403
-0.060726047 0.05646508 0.18303353 -0.075478785 0.1667418 -0.045499712 0.07037442 -0.027032116
0.10988508 0.0030377887 -0.03714753 -0.08904675 0.04417911 -0.052822392 -0.13235399 0.05067738
0.023428693 -0.06057973 0.008369603 0.13475737 0.019306965 0.05470541 -0.0018729094 0.011614057
0.018924274 0.09382135 0.073293574 -0.0856391 -0.058384314 0.024481297 -0.11718993 0.028365627
-0.09300495 -0.05468147 -0.010197254 0.014976436 -0.08269758 -0.056873977 0.029462049 -0.06853298
0.03698632 0.14394489 0.066791944 0.047535744 -0.0945381 0.1548486 0.036885988 0.051032178
0.17495446 -0.07569387 -0.0033569748 -0.07776156 -0.0012306384 -0.101937436 -0.0097679505 0.06913255
-0.029165654 -0.08944209 -0.059577703 0.02288826 0.09561068 -0.03446138 -0.026806759 -0.095101975
-0.07649092 -0.03460121 -0.026169399 -0.09533824 0.21217011 -0.026049761 -0.13887236 0.040126044
00000000: 13bb 8abb a657 0abc 6eca b2bd ea3e f3bd
00000010: 2d64 9ebb 84f7 3cbd f2ab d1bc c443 ab3d
00000020: 4d26 06be ff75 38bd 71c7 e2bd 3cf3 423c
00000030: 24a9 843c d094 31be 363a 5ebb cfe8 3c3c
00000040: f3ea 8b3c d2ef bcbd 8b54 a1bd e695 d3bd
00000050: 5287 f43b 4cb9 c13c ae59 cfbd da94 02be
00000060: 28fe 0e3d 5dcb 8a3c f4a8 37bd 44a2 c2bd
00000070: 9b99 793b f394 313c a589 c1bd 688b e0bc
00000080: f74d a1bd 7c7c 76bd f952 af3c d150 8e3c
00000090: f88e f0bc 6905 063b 3c1d aabc 25f2 80bd
000000a0: 15dd 8abc abca 6fbd 6a77 51bc 35d5 e8bd
000000b0: 105d 79bc 08fa 32bd ce19 d2bc 3154 61bd
000000c0: 5a9e ebbd d94c 96bc 2788 8c3c 513a d2bd
000000d0: 4df9 7dbd ec8c 95bd cc2b 10be c802 c33a
000000e0: 8c60 b0bc 6dd9 e0bc 3afe 123b feb0 3e3c
000000f0: c4d6 813d 2d4d 513d bd9e 92bd b087 87bb
00000100: c062 a93d 3ced aebd 098a ecbd 04b1 bd3c
00000110: 70fb 07bd 517e c8bd 6a90 82bd 936c 833c
00000120: d304 813d 671b f2bd ffd1 55bd a57e 143c
00000130: ef0e 16bd 0f4b bcbd 5eb1 8b3d 159f 823d
00000140: dfb3 1e3c fbe5 173d ac71 a3bc 74ef 59bc
00000150: 1787 a2bd 95d8 97bc c522 c83c 7c90 d9bd
00000160: 896e 39bd d25e 7cbd 39ff a83d 2bf6 83bd
00000170: dfe8 c3bc 4e81 f4bc 69db 72bd 6b57 10be
00000180: 71c2 c43d b898 373d 3b65 2a3d 4bc1 a1bc
00000190: e614 c6bd 815e 8dbd d265 b5bd 5913 643b
000001a0: 1e3a 493b 85d2 bcbd 109c 95bd 0771 89bd
000001b0: 1165 c43c c3aa 8fbd 7895 65bd 2de7 0bbd
000001c0: 4217 07bb ebf7 31be 07d6 05bc 356c 8cbd
000001d0: 4992 aabc c636 3ebd d6ba acbd 0348 74bd
000001e0: 396d 00be 0d13 13bd 09b0 01bd 8886 473c
000001f0: 23ae cfbd 3de3 c1bd 19fd c9bd a9f7 18bd
00000200: 96e8 62bd 34f1 4ebc fb75 e0bd 1aa8 0e3e
00000210: 31f3 c1bd f487 cfbd 6cbd 29bd 9530 b23d
00000220: 115b 603d ba5a e33d ecfa f83d 188b c6bd
00000230: 2ba4 6abd c0fd 5f3d 2444 8dbd 7ca2 973d
00000240: b2b4 3c3d 39e4 933d 2a89 c83d 6c75 b03d
00000250: b2cc 8cbb d33c 00bd 85f1 4abd df93 5abd
00000260: 5296 0b3d 0f66 f13c a41e 263d 0c14 323d
00000270: 91f1 cdbd a99b 583d c302 febd 4e7e 3f3d
00000280: 56d4 0f3e b8aa 613c 4f65 273c a73f 163d
00000290: b804 a5bd 044a 81bd 2716 acb8 aacc 2abd
000002a0: 1c97 8ebc ddb8 2a3e 4017 3e3e 2706 273c
000002b0: 76ba 3fbd 1df1 88bd ca7d 373d 02f0 8c3d
000002c0: ba32 cc3c 7695 83bd 9c26 cebd c740 813d
000002d0: 43c8 3abd 5062 68bd d235 5abc 2fd2 9f3c
000002e0: e0bb 78bd ed47 673d 246d 3b3e 9f94 9abd
000002f0: 5dbe 2a3e e85d 3abd 7720 903d 7572 ddbc
00000300: 6e0b e13d a315 473b 0228 18bd 245e b6bd
00000310: 28f5 343d 4b5c 58bd ce87 07be 1693 4f3d
00000320: 88ed bf3c 7322 78bd a920 093c d6fd 093e
00000330: a429 9e3c c812 603d 697c f5ba e348 3e3c
00000340: 1407 9b3c 6825 c03d f11a 963d 8d63 afbd
00000350: 6424 6fbd 008d c83c 4601 f0bd 085f e83c
00000360: 6179 bebd adf9 5fbd 6212 27bc ba5f 753c
00000370: 595d a9bd b0f4 68bd 655a f13c 055b 8cbd
00000380: f87e 173d 4a66 133e 37ca 883d d7b4 423d
00000390: 319d c1bd a290 1e3e c315 173d 1e07 513d
000003a0: 4327 333e 6305 9bbd b100 5cbb 7441 9fbd
000003b0: 5f4d a1ba 93c4 d0bd c109 20bc 5e95 8d3d
000003c0: cfec eebc 6a2d b7bd c007 74bd 2980 bb3c
000003d0: 88cf c33d 6027 0dbd d999 dbbc d3c4 c2bd
000003e0: 45a7 9cbd 00ba 0dbd 3561 d6bc b240 c3bd
000003f0: 1f43 593e 4f66 d5bc 8e34 0ebe 355b 243d

lstm.bias_hh_l0 f4 [512]
-0.02878111 -0.09252628 0.054315798 -0.15955047 -0.0075693335 -0.03829595 0.028452523 0.003885347
-0.029417418 -0.015808603 -0.06260291 -0.11298036 -0.067055196 -0.17467713 -0.10409208 0.03856702
0.009643624 -0.09393053 -0.01893611 -0.10280181 0.043541674 0.030535426 -0.10212834 0.008320887
-0.036496148 -0.028504955 0.0045004473 -0.008444487 -0.039079256 0.02120552 -0.04408921 -0.011058608
-0.06702533 -0.016311951 0.101666786 -0.043039173 -0.14612578 -0.025874032 -0.05037726 -0.04144886
0.023432778 -0.10747056 0.048300184 -0.14403439 -0.004036778 -0.0953161 -0.05713048 0.033933815
-0.06465852 0.05060604 -0.011439393 -0.10508064 -0.018102465 -0.0069835507 -0.13218948 -0.06310625
-0.12410819 -0.1372618 -0.0071593975 -0.08985672 0.025888732 -0.037844483 0.003543473 -0.12130761
0.00998497 -0.07303111 -0.032760065 0.03042198 0.043385256 -0.11789922 -0.05295394 -0.024572516
0.05235132 -0.12143386 -0.082220726 -0.056879673 -0.045906793 -0.17053778 0.052333288 -0.013064223
0.081236474 -0.053135674 -0.1444006 -0.04773128 -0.06786138 -0.032173764 -0.049526036 -0.05285666
-0.14187348 -0.11579046 0.07174644 0.03282735 -0.08812367 -0.07953793 -0.044031035 -0.13301694
0.104852475 0.1443229 -0.033369552 0.003012057 -0.06392996 0.052482795 -0.12768336 0.015096865
-0.11362747 -0.0816569 0.06848917 -0.12467518 0.03547121 -0.048570003 -0.10909998 0.050067455
-0.06734689 -0.09705671 -0.03508992 -0.068172805 -0.048566975 -0.093906574 -0.09376183 -0.022265224
-0.09406804 0.03220544 -0.0663303 -0.0060034273 -0.0263879 -0.060920056 -0.013901623 -0.01640029
-0.12631875 -0.022109538 -0.0815228 0.26984474 -0.09483478 -0.011589391 -0.08177202 0.11033449
0.06143213 0.09743242 0.15667284 -0.04145311 0.030919952 -0.10805926 0.019748248 0.09272767
0.03162412 -0.073409066 0.15725107 0.18589734 0.03968753 -0.069185376 -0.093923874 -0.015421121
0.02537612 -0.1156668 0.050112773 -0.07004312 0.0141276615 0.07596978 -0.029892925 0.12442647
0.07671565 0.02857439 -0.021907061 0.04969869 -0.16094612 0.024123307 0.1258679 -0.08821842
-0.05051078 0.17611654 0.12096833 0.026439775 -0.04504364 -0.027241886 0.080395915 0.06210377
-0.13505876 -0.020301031 -0.10437524 -0.017533008 -0.026005337 0.08457074 -0.06613147 -0.08617421
0.027641986 -0.063336655 0.20619276 -0.0118006645 0.17729934 -0.05018629 -0.045458157 -0.02045445
0.13230352 -0.04974824 0.07728281 0.01871019 -0.011452221 -0.10752551 -0.08199256 0.08227298
-0.014111745 -0.007623232 -0.013567245 0.0941419 0.1099324 -0.02144381 0.014489086 0.10641903
0.046786167 0.09797685 0.19088328 -0.06056515 0.07095357 0.008122637 -0.11724432 -0.08265191
-0.06846558 0.009263692 0.013232507 -0.11606338 -0.015946558 -0.107947186 -0.03374922 -0.121159635
-0.03175135 0.14825326 0.067659564 0.1169698 0.06119923 0.031966254 -0.116695926 -0.025813561
0.19002663 -0.05350867 0.049354434 -0.030162152 0.010705551 -0.08384488 0.010701082 -0.05462814
0.018525524 0.02800117 -0.028991794 -0.08867553 0.038206033 -0.014921536 -0.04976356 -0.05594952
-0.12213732 -0.04675028 0.015343117 0.015476458 0.08724841 -0.11617801 -0.037813503 -4.442907e-05
00000000: 5dc6 ebbc 6b7e bdbd 3e7a 5e3d 3361 23be
00000010: 2c08 f8bb 37dc 1cbd 4415 e93c 4ea1 7e3b
00000020: ccfc f0bc 0b81 81bc f435 80bd 3f62 e7bd
00000030: 3c54 89bd 90de 32be 3a2e d5bd 74f8 1d3d
00000040: 4a00 1e3c a65e c0bd e71f 9bbc c189 d2bd
00000050: c158 323d 6e25 fa3c aa28 d1bd 5454 083c
00000060: fc7c 15bd 3983 e9bc 7d78 933b bf5a 0abc
00000070: 9211 20bd 33b7 ad3c e396 34bd 2a2f 35bc
00000080: 9444 89bd a4a0 85bc ad36 d03d d849 30bd
00000090: ffa1 15be c7f5 d3bc 6358 4ebd 48c6 29bd
000000a0: 19f6 bf3c 8619 dcbd 6ad6 453d c07d 13be
000000b0: f346 84bb 1635 c3bd a601 6abd 2ffe 0a3d
000000c0: b06b 84bd 4748 4f3d 4b6c 3bbc 8534 d7bd
000000d0: 9f4b 94bc 45d6 e4bb ae5c 07be d93d 81bd
000000e0: 6f2c febd 5b8e 0cbe 6199 eabb cd06 b8bd
000000f0: 9b14 d43c d102 1bbd 9d39 683b 2070 f8bd
00000100: 0098 233c 5691 95bd 6b2f 06bd 8437 f93c
00000110: bdb4 313d 2575 f1bd 3be6 58bd 4d4c c9bc
00000120: 566e 563d 51b2 f8bd 5763 a8bd a9fa 68bd
00000130: c308 3cbd 75a1 2ebe 6e5b 563d 530b 56bc
00000140: 4f5f a63d cba4 59bd c0dd 13be e081 43bd
00000150: e8fa 8abd a3c8 03bd d0db 4abd 3a80 58bd
00000160: 4847 11be 8c23 edbd ccef 923d f975 063d
00000170: 2f7a b4bd c8e4 a2bd e359 34bd 9835 08be
00000180: e5bc d63d 62c9 133e 83ae 08bd ee65 453b
00000190: b6ed 82bd 33f8 563d 6dbf 02be d758 773c
000001a0: 85b5 e8bd bc3b a7bd 0d44 8c3d b355 ffbd
000001b0: 424a 113d 57f1 46bd cf6f dfbd 8813 4d3d
000001c0: 2bed 89bd abc5 c6bd 73ba 0fbd 2f9e 8bbd
000001d0: 2aee 46bd 1752 c0bd 3406 c0bd 8f65 b6bc
000001e0: bfa6 c0bd dae9 033d 2ed8 87bd 66b8 c4bb
000001f0: 702b d8bc 4f87 79bd a2c3 63bc e759 86bc
00000200: b459 01be 101f b5bc 6df5 a6bd 1729 8a3e
00000210: bd38 c2bd 6ee1 3dbc 1778 a7bd 0df7 e13d
00000220: 42a0 7b3d a68a c73d d86e 203e bcca 29bd
00000230: d74b fd3c 2c4e ddbd 14c7 a13c 01e8 bd3d
00000240: 4b88 013d 7e57 96bd 6d06 213e df5b 3e3e
00000250: 648f 223d 10b1 8dbd 295b c0bd dfa8 7cbc
00000260: 95e1 cf3c b7e2 ecbd 0d43 4d3d c472 8fbd
00000270: b577 673c 0b96 9b3d 02e2 f4bc 4ed3 fe3d
00000280: 181d 9d3d d714 ea3c 7076 b3bc db90 4b3d
00000290: 0fcf 24be 3e9e c53c 84e3 003e dcab b4bd
000002a0: 64e4 4ebd e557 343e 3ebe f73d 3a98 d83c
000002b0: ae7f 38bd 602a dfbc 9da6 a43d 8660 7e3d
000002c0: d84c 0abe 594e a6bc b0c2 d5bd 62a1 8fbc
000002d0: 2509 d5bc 6d33 ad3d f06f 87bd 1b7c b0bd
000002e0: 7271 e23c a6b6 81bd 3224 533e 9357 41bc
000002f0: f58d 353e 2490 4dbd 5532 3abd 1790 a7bc
00000300: 937a 073e cfc4 4bbd 7346 9e3d 1d46 993c
00000310: 19a2 3bbc 5636 dcbd b7eb a7bd bc7e a83d
00000320: f334 67bc 4ecc f9bb 2649 5ebc 78cd c03d
00000330: 3d24 e13d eeaa afbc a263 6d3c 38f2 d93d
00000340: daa2 3f3d 16a8 c83d e876 433e 2a13 78bd
00000350: 1b50 913d cf14 053c ca1d f0bd 6845 a9bd
00000360: af37 8cbd bec6 173c 28cd 583c a3b2 edbd
00000370: 5ba2 82bc 6a13 ddbd 9f3c 0abd 8b22 f8bd
00000380: b40d 02bd b4cf 173e 1991 8a3d dd8d ef3d
00000390: 0bac 7a3d 0cef 023d 46fe eebd f676 d3bc
000003a0: 5796 423e e82b 5bbd e027 4a3d 9e16 f7bc
000003b0: 5666 2f3c ddb6 abbd 9753 2f3c c2c1 5fbd
000003c0: d7c2 973c b662 e53c 3380 edbc 849b b5bd
000003d0: ee7d 1c3d 7579 74bc e0d4 4bbd 532b 65bd
000003e0: 2223 fabd 397d 3fbd b261 7b3c f890 7d3c
000003f0: 4baf b23d bdee edbd 55e2 1abd 5a59 3ab8

fc.weight f4 [2, 128]
-0.089679785 -0.09210783 0.058006585 0.16401091 -0.025900794 0.21469806 0.2581726 0.2432406
0.16090494 -0.035717774 0.18266898 -0.070428655 0.09499873 0.19669653 -0.21429208 -0.21349098
-0.26046017 0.16809805 -0.13061483 0.23200054 -0.22041251 -0.23395841 0.11992803 0.111132935
-0.14982913 0.12759662 -0.2226396 -0.03539326 -0.066084854 -0.12850271 -0.0929907 -0.19046952
-0.11244495 0.28402132 -0.05596774 0.005056279 -0.08380185 -0.34984723 0.052944284 0.031054957
-0.31660086 0.020595292 -0.10509977 0.10300771 0.003296284 -0.3059589 -0.20339541 -0.044068437
-0.2753374 0.0047992985 -0.20114571 0.054292623 0.15077421 0.2002548 0.14758036 0.38817206
-0.1685271 0.39319777 0.06721737 -0.22543664 0.054026574 0.031207561 -0.06889046 -0.16395485
-0.019771017 -0.05496631 -0.12639616 -0.0201509 -0.13903317 -0.020275727 -0.08793756 -0.18177782
-0.016894748 -0.14530458 0.01845758 -0.028873453 0.059864976 -0.23623778 -0.08651172 0.18663572
0.21526821 -0.031347845 -0.35051295 0.032399755 0.056970626 -0.14277881 -0.15590338 0.0915259
0.3242274 0.17612779 0.22114247 -0.3205839 0.028362082 0.16900742 -0.13137074 0.02636884
0.3983187 0.0071530016 0.09298514 -0.09170234 0.28187895 -0.09592971 0.05538608 -0.19935259
0.033983044 0.02492858 -0.041626003 0.024626996 -0.18509075 -0.11013328 -0.1760881 0.2630142
0.020166675 -0.10503927 0.045957122 0.029234378 0.044115476 -0.013166201 -0.022252476 0.20274664
-0.36277765 -0.134068 -0.16263476 -0.12428662 -0.21119209 0.011248526 -0.10548941 0.31049338
0.13050476 0.116989605 -0.12247284 -0.17443147 0.037597623 -0.14926095 -0.16906038 -0.14762992
-0.17386504 -0.058178872 -0.10337824 -0.02552185 -0.007572784 -0.18844922 0.26413554 0.08852502
0.29496023 -0.25107548 0.11922197 -0.1430848 0.23139866 0.24430038 -0.06507024 -0.022109
0.16907968 -0.28078866 0.17070356 0.10250169 -0.04840793 0.14254324 -0.0014631953 0.1531897
0.098141365 -0.18413219 -0.025678921 -0.123532705 0.15654658 0.27051988 0.0282428 -0.034173597
0.25756392 0.12537265 0.101064615 -0.15702045 -0.03637126 0.22124228 0.23449773 -0.055672016
0.27580658 0.054048058 0.07073234 -0.13230544 -0.14074036 -0.22702233 -0.16648625 -0.35311636
0.18370044 -0.27856505 0.09833641 0.16738579 -0.17249501 -0.10065331 0.15268071 0.22700658
-0.027573511 0.1625673 0.27559465 0.14277382 0.20345265 -0.023554398 0.04597096 0.042843845
0.017316181 0.09075575 -0.11422054 0.03984123 -0.09046698 0.10873727 0.16645451 -0.17462426
-0.1913341 0.09966525 0.23839489 0.05731975 0.05547647 0.17461592 0.17234124 -0.11785795
-0.18646906 -0.17409272 -0.24730104 0.3547339 -0.014212553 -0.070914246 0.0691777 0.05068317
-0.39133823 0.017006958 0.04534172 0.05648668 -0.23337501 0.11767582 -0.12529235 0.14116783
0.0015785156 -0.019792853 0.08872418 0.012380884 0.1418837 0.112032846 0.1779492 -0.2583065
0.061998125 0.01923624 0.02649539 0.0653905 -0.06584215 0.1283754 0.019739404 -0.11042257
0.29715696 0.14394347 0.08159185 0.10997596 0.25153685 -0.020052413 0.06389961 -0.21402825
00000000: 09aa b7bd 08a3 bcbd 5098 6d3d 7af2 273e
00000010: e72d d4bc cfd9 5b3e 332f 843e 1014 793e
00000020: 44c4 243e cd4c 12bd 940d 3b3e e63c 90bd
00000030: b28e c23d d16a 493e 626f 5bbe 619d 5abe
00000040: 095b 85be e521 2c3e e5bf 05be 8d91 6d3e
00000050: d1b3 61be cb92 6fbe d49c f53d aa99 e33d
00000060: cf6c 19be b0a8 023e a3fb 63be 86f8 10bd
00000070: 7f57 87bd 3796 03be e871 bebd 710a 43be
00000080: 8a49 e6bd 3e6b 913e 6e3e 65bd 24af a53b
00000090: 4ea0 abbd 2d1f b3be 1bdc 583d f766 fe3c
000000a0: 8219 a2be 75b7 a83c 8c3e d7bd b5f5 d23d
000000b0: 7806 583b a5a6 9cbe e346 50be 1b81 34bd
000000c0: 06f9 8cbe 6f43 9d3b 24f9 4dbe f161 5e3d
000000d0: 8e64 1a3e 980f 4d3e 4e1f 173e 7dbe c63e
000000e0: 5e92 2cbe 3851 c93e 43a9 893d ddd8 66be
000000f0: f84a 5d3d 00a7 ff3c 7116 8dbd c8e3 27be
00000100: d4f6 a1bc 5a24 61bd ff6d 01be 8013 a5bc
00000110: b65e 0ebe 4819 a6bc 9c18 b4bd f723 3abe
00000120: db66 8abc b9ca 14be 5a34 973c 0588 ecbc
00000130: fa34 753d 51e8 71be 0f2d b1bd 6f1d 3f3e
00000140: 456f 5c3e 9966 00bd 6f76 b3be 9bb5 043d
00000150: 085a 693d 9c34 12be 23a5 1fbe ee71 bb3d
00000160: 2201 a63e d85a 343e 2c73 623e 9323 a4be
00000170: 9957 e83c 4810 2d3e 0d86 06be 7703 d83c
00000180: 6ef0 cb3e ba63 ea3b fe6e be3d 70ce bbbd
00000190: 7052 903e cc76 c4bd 84dc 623d 1623 4cbe
000001a0: ce31 0b3d 0537 cc3c 0780 2abd 8ebe c93c
000001b0: 6e88 3dbe 8f8d e1bd 7050 34be cca9 863e
000001c0: 9534 a53c d41e d7bd 893d 3c3d ef7c ef3c
000001d0: 6eb2 343d 0db7 57bc d34a b6bc d19c 4f3e
000001e0: febd b9be 1f49 09be ba89 26be fc89 febd
000001f0: bd42 58be bd4b 383c d50a d8bd fdf8 9e3e
00000200: 0aa3 053e 3f98 ef3d 0ad3 fabd 2a9e 32be
00000210: f7ff 193d ddd7 18be 2a1e 2dbe 4c2c 17be
00000220: ad09 32be f84c 6ebd f8b7 d3bd 3313 d1bc
00000230: 1e25 f8bb d5f8 40be c63c 873e 9b4c b53d
00000240: 0705 973e f78c 80be a62a f43d d284 12be
00000250: c5f3 6c3e e129 7a3e 8c43 85bd ef1d b5bc
00000260: 3923 2d3e 88c3 8fbe eacc 2e3e 68ec d13d
00000270: 6547 46bd dbf6 113e b0c8 bfba c3dd 1c3e
00000280: 57fe c83d 268d 3cbe 9a5c d2bc b7fe fcbd
00000290: bf4d 203e 9581 8a3e 725d e73c 9df9 0bbd
000002a0: 6bdf 833e b061 003e f7fa ce3d f8c9 20be
000002b0: 08fa 14bd 568d 623e 2c20 703e 5708 64bd
000002c0: 8536 8d3e 7f61 5d3d 1edc 903d 147b 07be
000002d0: 3e1e 10be 8b78 68be 5f7b 2abe abcb b4be
000002e0: f81b 3c3e 14a0 8ebe 9a64 c93d 2e67 2b3e
000002f0: 88a2 30be 5323 cebd 5558 1c3e 6a74 683e
00000300: d8e1 e1bc 0b78 263e be1a 8d3e 4d33 123e
00000310: e455 503e 27f5 c0bc 0c4c 3c3d 077d 2f3d
00000320: aada 8d3c 27de b93d 75ec e9bd 8f30 233d
00000330: c146 b9bd a5b1 de3d 0d73 2a3e b4d0 32be
00000340: 16ed 43be 4b1d cc3d ca1d 743e 1dc8 6a3d
00000350: 4c3b 633d 84ce 323e 397a 303e 825f f1bd
00000360: bff1 3ebe 5d45 32be 7c3c 7dbe af9f b53e
00000370: c5db 68bc 7d3b 91bd 0aad 8d3d 2899 4f3d
00000380: 7c5d c8be 2d52 8b3c 3db8 393d 945e 673d
00000390: dcf9 6ebe 0500 f13d a34c 00be 4d8e 103e
000003a0: 32e6 ce3a 9f24 a2bc 06b5 b53d 31d9 4a3c
000003b0: f649 113e 7a71 e53d 5138 363e c040 84be
000003c0: bff1 7d3d 5295 9d3c dc0c d93c 74eb 853d
000003d0: 40d8 86bd d774 033e 88b4 a13c 3a25 e2bd
000003e0: f524 983e eb65 133e a119 a73d 133b e13d
000003f0: 70c9 803e f544 a4bc ccdd 823d 392a 5bbe

fc.bias f4 [2]
-0.12170851 0.19050302
00000000: 5042 f9bd 3913 433e
