Models/cnn_lstm_model_stream_Nstream.pth (torch, 408328 bytes, 8 tensors)

conv1.weight f4 [64, 8, 3]
00000000: 3c3a 48be 3565 4f3e 1157 333e 9361 dabd
00000010: 4bce 10bd 7b83 4bbe cb1c ccbe e25d aabe
00000020: 2f84 8abe 3115 72be efdc 70be 2f8b fabd
00000030: 903a 46bd 6cc3 2d3d 91ac ddbd d0c1 aa3d
00000040: 7999 503e 1a63 2e3d 1f2e 403d 35b9 513e
00000050: 15da bd3d 9f9f 4d3e cac7 8f3d f7dc b03c
00000060: 0a75 2f3e b4e0 473e 7fcb 52bd 2d2a 02be
00000070: 2ed2 8b3c cf17 0d3d fe05 b93d 973a af3c
00000080: e138 01be 3695 ba3d 5606 663d 012e 03be
00000090: 43bf 533d 29dd 1dbe 316d 8f3d 88ee 353d
000000a0: c16c 513d c7ec 92bd ca2c 01bd 177d 753d
000000b0: 7855 c23d 863b d2bd 2a7c f43d 34dd 34be
000000c0: 2348 413c 373e fe3d 6ffd 833e 00e6 1d3e
000000d0: dc5e 86be 62b2 c6be ca6a df3c d68a b4bd
000000e0: 3285 11be 0794 1f3e 25ae e8bd 478d 913e
000000f0: b101 773d 1255 5b3e 31a2 463e 8bd8 53be
00000100: 2588 66be 9e54 0a3e 4e0e adbd 6fba 7c3e
00000110: 0604 21be 2264 c1bb cba0 c13d c6d8 d43d
00000120: a1fa 823d d622 7f3d 0311 a9bd 17b7 cabc
00000130: 1025 26be e1a5 2e3e 5366 82bd e02a 50be
00000140: a0e3 d7bd d361 b5bc 2707 1cbd 503e 033c
00000150: 1d08 2e3e 2869 613d 7369 6abd abfd a9bd
00000160: 5fa6 92bc 621e 6e3e d1e0 b93d 208d acbd
00000170: a6d3 0abd 8c17 32be c24d e43d f2a8 5c3e
00000180: ec4d 6cbe 4eab 24be 5b42 1fbe af57 f93d
00000190: 5078 733d 1b51 053d b251 7f3e 88e7 753e
000001a0: d2d0 30bd 829f c7bd c5b1 39be f385 eabd
000001b0: a0ee 9cbc 0a9d 33be b5dd a73d a9c3 20be
000001c0: 474e 59bc c082 31be 22de 8b3d e818 b6bc
000001d0: 6d45 b2bd 0b0b 023e 0985 17be 7abd 1fbe
000001e0: 635c 153e 99ac 8abd 7e3b 1abe d15c 713d
000001f0: f4f4 e43d edb9 8d3e f4a5 123e ce09 953c
00000200: 9720 c33d 49ee 1fbd a984 48be 4749 283d
00000210: 4881 56be 4adf 21bc e29f 19bd 2467 aa3d
00000220: 7bf6 d6bc 09e9 503e d1ac 27be 8dbb 15be
00000230: 696d 3dbe 6fe0 f73c d5f0 1bbe 683d ba3d
00000240: e9f2 39bd 65b1 87be 493e 0b3e 50a7 743d
00000250: 1af8 2c3d fe80 623d 6df8 a7be 4f67 02be
00000260: 8ec9 d7be 2e2b b1bd 1448 04be b96a 51be
00000270: 25ce a13c 09d6 f33d 2fac 2b3e 78d5 943d
00000280: bb99 8e3e 19c0 e53d bc0f 883e 3b2e 34bd
00000290: c446 d63d 8fba f33d a366 24bc 559e ab3e
000002a0: be18 b6bd e239 573e 823b 8dbd b950 0b3e
000002b0: 3189 f13d 236b 06be 958e 0f3e a038 4dbd
000002c0: e1f8 8bbb 10de fa3d a9d5 2d3e 4a26 e6bb
000002d0: 4db2 253e 476e c83c 9479 893d 4c3d 33bc
000002e0: ac58 2fbe b74d c5bd 21c3 c8bd c0d1 84bd
000002f0: 663d 923d c5d2 18be 16a3 d5bc 2e40 a4bd
00000300: 940f 44be 1257 e2bc cdb8 2e3e f402 3ebe
00000310: de5e 87be d1c2 6dbe 4f9d 5f3c 86d4 a2bd
00000320: 49dc 753d 16a3 813c c13b 503e c561 4b3e
00000330: c1b1 82bd 12e4 0b3c 892c 423e 174b 56be
00000340: 3c6c 133e 5a5b 833c e048 8fbb 9692 673d
00000350: 4a07 81be 5117 293e 14fe 88bd d32a 443d
00000360: 2ab6 1b3e 23f2 d1bd ac5e 32bd ed81 683d
00000370: 612a 723d 0838 fcbd 1ded 2b3e f94f b73d
00000380: fc67 3e3e 5583 58be 5e3d 07be f891 dbbd
00000390: 0d15 223e b4ee 233e d8f3 ee3b 0fe0 febd
000003a0: 4432 853d 2dfc 0cbd 254c adbc 170f 503d
000003b0: f5ce 4f3d 31bf d33c 3908 ec3c cf07 c8bd
000003c0: 11d4 babd f98f 4dbd 64b9 65bd 5b3c 50be
000003d0: f0f3 c8be 333a 4dbe d56d 0c3e 90e9 44bd
000003e0: 1f53 babd 0aa4 46bd 5621 26be 5b8e 48be
000003f0: c41b f43d 6fbc 103d 0fc5 23be c5c2 6cbd
-0.19553465 0.20253451 0.17513682 -0.10663142 -0.035352986 -0.19874375 -0.39865717 -0.33274752
-0.27053973 -0.23640896 -0.2352178 -0.122335784 -0.048395693 0.042422697 -0.1082393 0.08337748
0.20371045 0.04257498 0.046918985 0.20480807 0.092701115 0.20080422 0.070205286 0.02158974
0.1713449 0.19519311 -0.0514636 -0.12711401 0.017067995 0.034446534 0.09034346 0.021390243
-0.12619354 0.09110491 0.056158386 -0.12810518 0.051696073 -0.15416397 0.070032485 0.044416934
0.051129106 -0.07174068 -0.031536855 0.059933748 0.09488958 -0.102652594 0.11937745 -0.17662507
0.011796984 0.1241421 0.25779292 0.1541977 -0.26244247 -0.3880797 0.0272726 -0.08815543
-0.14210966 0.15583812 -0.113613404 0.284281 0.060304347 0.2141917 0.19397809 -0.20688073
-0.22512873 0.13508841 -0.08449994 0.24680494 -0.15724191 -0.0059018293 0.09454497 0.10392909
0.0639546 0.06228908 -0.08255198 -0.024745507 -0.16225076 0.17055465 -0.06367173 -0.20328856
-0.10541463 -0.022141373 -0.03809276 0.008010462 0.16995282 0.055031925 -0.05722947 -0.083003365
-0.017901598 0.23253778 0.090760835 -0.08425355 -0.03389325 -0.17391795 0.111476436 0.21548823
-0.230766 -0.16080973 -0.15552656 0.121749274 0.05944091 0.03254805 0.24933508 0.24014103
-0.043167897 -0.097472206 -0.1813422 -0.1145133 -0.019156754 -0.17540374 0.08196584 -0.15699638
-0.013263292 -0.17335033 0.06829478 -0.022228673 -0.08704648 0.12699525 -0.14796843 -0.15599623
0.14586024 -0.06771202 -0.15061757 0.058926407 0.111795336 0.27680913 0.14321119 0.018193152
0.095277004 -0.039045606 -0.19581856 0.041085508 -0.20947754 -0.009879896 -0.03750599 0.08320454
-0.026240578 0.20401396 -0.16374518 -0.14622326 -0.18498768 0.030258385 -0.15228589 0.090937436
-0.045397673 -0.2650253 0.13597979 0.059729874 0.042228796 0.055298798 -0.3280672 -0.12734722
-0.42145962 -0.08650814 -0.1291812 -0.20450868 0.019751618 0.11906058 0.16764902 0.072672784
0.27851662 0.1121828 0.26574504 -0.0439894 0.10462716 0.119008176 -0.010034236 0.33519235
-0.08891438 0.21018174 -0.06896116 0.13605012 0.11793745 -0.13126807 0.14019234 -0.05010283
-0.004271612 0.12249386 0.16976036 -0.0070236074 0.16181298 0.024466647 0.06712642 -0.010939907
-0.1712367 -0.096339636 -0.09802843 -0.06485319 0.07140617 -0.14924152 -0.026078742 -0.08020054
-0.19146568 -0.027629409 0.17062683 -0.18555814 -0.26439565 -0.23218848 0.013648345 -0.07950692
0.060024533 0.015824836 0.20335294 0.19861515 -0.0638156 0.008538263 0.18962301 -0.20927082
0.14396757 0.01603477 -0.004372701 0.05653628 -0.25200874 0.16512801 -0.066890866 0.047892403
0.15206209 -0.10251262 -0.043547317 0.056764532 0.059122447 -0.123153746 0.1678967 0.089508004
0.18594354 -0.21143849 -0.13207003 -0.10721201 0.15828343 0.16009027 0.007292252 -0.124450795
0.06503728 -0.03442018 -0.021154473 0.05079564 0.05073448 0.025848003 0.028812515 -0.09767114
-0.0912248 -0.05018613 -0.056085005 -0.20335524 -0.3924861 -0.20041732 0.13713773 -0.048074305
-0.09097885 -0.048496284 -0.16223654 -0.19585554 0.119193584 0.035335954 -0.1599314 -0.057802934

conv1.bias f4 [64]
00000000: df0a 08be e4d0 b53d b9dd 32be a3dc d83d
00000010: c6ba dabd 6cbc acbc ba73 50be 6c24 73be
00000020: fe39 183e 4abe 4d3d e353 31bd 31ad 1e3d
00000030: ace1 8f3d 4f8e e63a b1d6 163e d014 18be
00000040: baac 23be 0c00 033e 9cd2 763d f4f9 d1bd
00000050: fd32 60bd 93b0 aabd e40e f4bd 80f1 00be
00000060: f6a5 7ebd 4716 c43d 06ae adbd 3e89 57be
00000070: a1ca 25be b706 aebd 411f 24bd 197c b23d
00000080: 0c98 99bd 8e7f da3c 67ab 01be b07b 8fbd
00000090: 0213 2dbd 5f28 1ebe 1b4e 173d 0adf 26bd
000000a0: 9a7a c93c 11dc 3c3c 5b52 bf3d 4653 78bd
000000b0: 27d4 15be 78b0 43be e147 ea3d ab4d 60be
000000c0: 9759 df3c 8902 70be 2144 7abd 8a30 433e
000000d0: cd7f 973c 3f72 0fbc 12c2 4fbe 626c 003d
000000e0: db80 cdbd 1862 8d3d 42f6 9dbd d3f0 55be
000000f0: c76c c83d cadb 943b 79a8 7f3c 82f3 05be
-0.13285397 0.08877733 -0.17467393 0.10588958 -0.106801555 -0.02108594 -0.20356646 -0.23744363
0.14865872 0.050230302 -0.04329289 0.038739387 0.07025465 0.0017590019 0.14730336 -0.1485169
-0.15983859 0.12792987 0.060259447 -0.10252753 -0.054736126 -0.0833446 -0.11916903 -0.12592125
-0.06216999 0.095745616 -0.08480458 -0.21048447 -0.16190578 -0.084973745 -0.04006887 0.08715076
-0.07499704 0.026672151 -0.12663041 -0.070060134 -0.042254455 -0.15445088 0.03693972 -0.04074005
0.024594594 0.011527077 0.0934188 -0.06062629 -0.14631711 -0.19110286 0.11439491 -0.21904628
0.0272644 -0.23438467 -0.06110013 0.19061485 0.018493557 -0.008755266 -0.20288876 0.031353362
-0.10034343 0.069034755 -0.077129856 -0.20892648 0.09786373 0.0045428025 0.015604132 -0.13081172

lstm.weight_ih_l0 f4 [512, 64]
00000000: bf0d 09be 6c3b 28bd d53e 3cbd b836 0bbe
00000010: bb70 a63c b895 e3bd 3f2f d23b 8316 04bd
00000020: cce5 8fbd e964 92bd 0247 9c3d 29a8 abbc
00000030: fbb9 283d 22d2 d43b 6515 1abe 245e 683c
00000040: e0e6 593e 5c27 3e3d 6ef6 e9bb b1cf 03bc
00000050: a435 0bbd ed21 70bd 8404 eebd 7a90 e03d
00000060: 229f 90bd 78cf 833d 96cf 303d 818f dcbd
00000070: c3ae d6bd e8e2 d43c 03b9 163d 8a67 88bc
00000080: 2021 053e 4d3d 79bd 592b 813d a87d 97ba
00000090: acfc 8b3e cbf5 50bd 7ad3 b9bd f7ce f9bd
000000a0: 69ea 1ebe 3af3 83bb 644c 9b3d 421c 3f3d
000000b0: 9bf2 76bb ab2c 5ebd 147c ce3c a7e5 463d
000000c0: 6531 dbbc 21ea fa3d cf31 7e3e 9b83 e73c
000000d0: 54fe c9bd 85da 3cbd d377 c0bd c020 d1bd
000000e0: b543 c4bc 967b 2ebd 72af c23e 3890 6a3d
000000f0: 291c 833d c249 a93e 6309 3ebc 57bf 03be
00000100: f03f c4bd c9fe e53b 8053 75bd 6554 7f3d
00000110: b6b1 62bc b6b2 07bd e902 673d 78e4 04bc
00000120: 93f4 a63d 7c0d de3c 1545 ecbd 264d f33c
00000130: c0f3 003e 55e3 9c3d da26 043d b960 ce3b
00000140: 8890 cebb 4fd8 97bc 90b7 84bc b5aa b9bb
00000150: 4c35 963d 0b6f 9fbd b2f3 94bd 160c 5c3e
00000160: fede e2bd 2fb1 1f3e 157b dcbb ba2c c3bb
00000170: 5b8c f03c 57a3 5dbc e89f 993d fd76 a7bd
00000180: fc98 a8bd 356c 86bd 9b06 d1bc 24dc d3bb
00000190: f4da b4bd 69b3 923d 58ff 503d 5971 b9bd
000001a0: 5cdf 5abe f952 f93c e312 cf3d f851 ac3c
000001b0: 296f a8bd 8217 d43c 5440 dfbd 9cf3 97bd
000001c0: 2b04 08be 940d 56bd 02f2 0ebd ad49 0dbe
000001d0: decd 323c 62fb a5bd 54ce 4abd 6fda 06bd
000001e0: 958b 49bc 1094 13bc 4872 d1bb 869a b33c
000001f0: 6bca 94bb c521 86bd cea7 b9b9 d9ec 463c
00000200: 93d0 37be e3e5 aa3c 80fb 7dbd c257 5ebd
00000210: 8552 5cb9 7c9a e5bd fbdf 1ebd 495f a7bd
00000220: 700b 40bd 9bf4 05be 9a37 4bbd db4b ad3d
00000230: 5e50 ec3c ab4a 923d a521 95bc 9153 0dbc
00000240: 7064 8dbd 8fc5 f93d 0d86 febc 7ba1 5f3c
00000250: d324 0d3e 365e b5bd 0d7d 72bd 83bc 133e
00000260: 3fe8 83bd d81b 0f3c c8ff cbbd a7ce b93d
00000270: 0a2f 8b3d 0509 cebd ce39 b03d 9fc7 a1bc
00000280: ea3c c3bc 69a1 d9bd 1f0f 47be 603e d1bd
00000290: 272d 46bd 8494 9bbd f1a6 d239 77af dbbd
000002a0: b434 aebd 5433 283d 53f9 ee3c 1649 30bc
000002b0: 0a94 a3bc e4fa 183c 0ea2 7ebd 5989 26bc
000002c0: dd09 88bd 2068 9abd 1eb8 b0bc 69b4 27be
000002d0: 238a 823d a621 abbb 74e6 06be e700 03be
000002e0: 1a3f 86bd 8d18 a7bc 4701 7e3a 1348 18bc
000002f0: 3d87 d4bd 399a 36bd ccf0 8fbd b964 75bd
00000300: ae81 debc 9dfe 3f3d 2a9a 9abd a107 693b
00000310: 366e 333d b80c 203d 1816 c53d f237 983d
00000320: 758d 04be fb9e ff3d 7199 0a3e 98da 9c3d
00000330: 26c7 62bc 87f2 ef3c 71f3 2cbd 714d f33d
00000340: 17df 683d 40ca 7d3d 4e1c a43c 1525 383c
00000350: e3c5 c53d 697f 7cbd 2b87 a2bd 9281 a23d
00000360: 37e3 fd3d cf03 78bd 2dd7 693d ee95 a63b
00000370: 8634 95bd 7223 bdbc 31aa afbb c2af 983c
00000380: e19f 333e 907c b2bc 712c 0abd cc17 623e
00000390: 60c8 3b3d 1a07 1c3d 74b1 44bd d1cb 83bd
000003a0: 1391 ef3c 2650 13bd a2b7 b73d 4ac4 ac3d
000003b0: 06a7 e13d 259a 923c dec9 4a3d bdc4 893d
000003c0: ede5 1cbd 8bb3 de3d 34c4 30bb b611 8a3d
000003d0: cc26 6fbd 4f1b 413e fe96 ba3d c4ba 83bc
000003e0: 192b 6b3c 5daf 0e3e 65e1 793e 830e 64bd
000003f0: c0b5 213e 22a7 903d 9050 633d 1707 cebc
-0.1338415 -0.041072294 -0.04595836 -0.13595092 0.020317426 -0.11112541 0.0064143236 -0.03224803
-0.07026252 -0.07148153 0.07630731 -0.020954208 0.04119299 0.0064947763 -0.15047224 0.014182601
0.21279478 0.046424255 -0.0071399724 -0.008045123 -0.033986703 -0.058626104 -0.11621955 0.10965057
-0.07061602 0.06436056 0.04316672 -0.10769559 -0.10482552 0.025987104 0.036797535 -0.016650934
0.13000917 -0.060849477 0.06307096 -0.0011557834 0.2734121 -0.051015656 -0.09073539 -0.121976785
-0.15519108 -0.0040267976 0.0758293 0.046657808 -0.0037681225 -0.054241817 0.02520565 0.048558857
-0.026756952 0.12251688 0.24823688 0.028260997 -0.09862962 -0.046106834 -0.09397855 -0.10211325
-0.023958066 -0.04259833 0.3802448 0.057266444 0.064018555 0.33064085 -0.011598918 -0.12865959
-0.095825076 0.007018898 -0.059894085 0.062336344 -0.013836315 -0.033129416 0.05639926 -0.008111112
0.081521176 0.02710604 -0.11536614 0.029699873 0.12592983 0.07660548 0.032263614 0.0062981513
-0.0063038506 -0.018535761 -0.01620081 -0.005666102 0.07334384 -0.07784852 -0.07273044 0.21488985
-0.11077689 0.15594934 -0.0067285397 -0.0059562596 0.029363802 -0.013527713 0.07501203 -0.08176992
-0.082323045 -0.065636076 -0.025515845 -0.006465452 -0.088308245 0.07163126 0.051024765 -0.090548225
-0.21374267 0.030435072 0.10111024 0.02103518 -0.08224327 0.025890116 -0.109009415 -0.07419512
-0.1328284 -0.052259043 -0.034898765 -0.13797636 0.01091334 -0.08104588 -0.049513176 -0.03292316
-0.012301345 -0.009007469 -0.006391797 0.021924268 -0.0045407317 -0.0654941 -0.00035410974 0.01214143
-0.17950659 0.020861572 -0.062007427 -0.05428291 -0.00021011576 -0.11211106 -0.038787823 -0.08172471
-0.046885908 -0.13081591 -0.049613573 0.08461734 0.028846916 0.07143148 -0.01820452 -0.008625881
-0.069039226 0.121958844 -0.03106978 0.01364934 0.13783579 -0.0885586 -0.05920129 0.1442738
-0.06440782 0.008734666 -0.09960896 0.09072619 0.06796081 -0.10060314 0.08604775 -0.019748507
-0.023832757 -0.1062649 -0.19439362 -0.10216975 -0.048382904 -0.075966865 0.00040178702 -0.10726827
-0.08506146 0.041064575 0.029171621 -0.010759613 -0.019968051 0.009337161 -0.062166266 -0.010164582
-0.06642506 -0.075393915 -0.021572169 -0.16377415 0.06374004 -0.005222517 -0.13173848 -0.12793313
-0.065550044 -0.020397449 0.00096895214 -0.009294528 -0.10377357 -0.044580672 -0.0702835 -0.05991051
-0.027161445 0.046873678 -0.07548936 0.0035557526 0.043806277 0.03907463 0.09623355 0.07432546
-0.12944587 0.12481495 0.13535096 0.07658881 -0.013841426 0.02929045 -0.04222435 0.11880005
0.05685338 0.06196046 0.020033028 0.01123931 0.096568845 -0.061644945 -0.079359375 0.0793487
0.123968534 -0.060550507 0.057089973 0.005083791 -0.07285409 -0.02308819 -0.0053608646 0.018638495
0.17541458 -0.021787912 -0.03373379 0.2207939 0.04584539 0.03809271 -0.048020795 -0.06435359
0.029243981 -0.035965107 0.08970572 0.08435877 0.11018185 0.017895767 0.04950892 0.06726978
-0.03830521 0.10874089 -0.0026972415 0.06741659 -0.05838661 0.18858074 0.09110831 -0.016080268
0.014353537 0.13934083 0.24402387 -0.055677902 0.15791988 0.07063128 0.055496752 -0.025149865

lstm.weight_hh_l0 f4 [512, 128]
00000000: 1f6b 92bd 77a6 973d 66fa 77bd 958a a0bd
00000010: 3be4 24be c1d0 343e e9a1 8b3d ace3 de3d
00000020: 6d74 cdbb 62f1 55bd 31e6 8fbd f317 683d
00000030: 0623 413e e33a debd 3566 043d fdb8 893d
00000040: 6a4d b8bd bcb0 f23c c7f8 f7bd 3d51 1fbc
00000050: d3f0 b1bd 7cf3 903d 3f7f 103b 13bf 86bd
00000060: e2ca d83c 4d7f b5bb f172 583d c81b 083e
00000070: 0614 3fbc ae69 7cbd ce99 1f3d c1d0 d6bd
00000080: 18b8 07bd 292d e8bd e5ec 253d a8e7 07bd
00000090: 4328 e23d 976a 3e3d 7706 793d 7078 2f3d
000000a0: 2013 ef3d ade5 103e 5a8f e3bd b6ec 253d
000000b0: 7349 f3bd 5a9e d3bc 8a36 b43d 88e1 1abd
000000c0: f773 e03c 5ec5 723d 9031 ca3c a6bf e7bd
000000d0: b26c 373b 5201 bf3d d6e1 ac3d 462a 20bd
000000e0: 716e 9ebd 21b8 f93c db23 4c3d be2d 073e
000000f0: 3a86 093e 5d4c 6c3c d414 aabd ea0f 243d
00000100: 06f8 e13d 2505 04bc 2387 ec3d 8d96 edbd
00000110: 4cff 42bd 2c45 23bd 412c 87bd eaae 113c
00000120: fda8 583d 4d9f 843d 9831 73bd 225c 5ebd
00000130: 3640 adbc 9c13 a53c 5ea9 01bd 29cb c7bc
00000140: 4b14 f23d 7489 183d 2638 a4bd ed07 3dbd
00000150: 3c7b c53d 0361 8b3c 3494 6dbc b481 b03d
00000160: c3d4 a1bd ed80 e1bd ad51 41bd afe3 8d3d
00000170: af5c 31bd a9d6 85bd b4cb 193e 23ea 123b
00000180: fe96 8f3d ae56 073e b580 77bd e058 a2bb
00000190: a27e b9bd 81be e9bc af3b 1d3e fac6 763d
000001a0: cc39 79bc d12f 20bd 8838 d63c 42da 763d
000001b0: 63c9 12bb 1479 57bd 829c 203a e33c 483d
000001c0: 3718 61bd 6b56 96bc 9262 c73c 6490 193e
000001d0: a931 613d 68cd 103d befc 883d 48fb 84bd
000001e0: 7cec 12be 98a2 d43b 4bc4 77bc b168 ab3c
000001f0: 8c4c 953d 476c a43c d93a 65bd d488 833d
00000200: 2018 183e 6198 bfbd 5276 0c3c 248a 08bd
00000210: d91d 3b3e 7e16 b7bd 49f6 98bd 2f39 593c
00000220: a5ba a83b 940f 02bd 0108 8dbc 3d64 953e
00000230: 6a38 21be 8eb3 c53c 5d64 f0bd d6f4 7a3c
00000240: 11fa a83d 513d 06bd bb9b 543d 0eff 1f3d
00000250: 309a 2d3c 4bbe 17be 6edd 10bd ff25 93bd
00000260: e910 6d3c 9d19 edbc a26c 093d 2b63 ef3c
00000270: 2d5c 05be 2356 2f3c 3098 133a 1396 31bd
00000280: 0bc0 37bd f63d 90bc 9ebb 2e3e 4214 04bc
00000290: 15e1 2fbc 87c9 523d 5158 7cbc 83d2 b3bd
000002a0: 3684 e93d 547e fbbd b99b 88bc 2613 4bbd
000002b0: 5c7f 2ebd d32b 60be 5368 a6bd 8565 03be
000002c0: 7798 463d 7c9b fe3d 5b1e f13c 9f7e 27be
000002d0: 5b04 e7bc 42ee 5d3c 1ed4 03ba 0cae 8cbd
000002e0: d28d 883d 058b 303d 4853 16bd 8e6a 043e
000002f0: 2a04 5ebd 9477 96bd c5bc 01be 300b a93d
00000300: 9764 6d3d 65df ad3c 371c 513d c2d9 3abd
00000310: 4ade 4fbc 6bb6 113c df40 3e3d 5e9a 13bd
00000320: 44cb 02bd 9d1e a9bd 4fe4 e6bd 99e1 483b
00000330: de56 393c 291b d4bc 2e52 873d b0dc 923c
00000340: 2662 95bc 9564 163d 8881 bdbd 0c6e 6ebd
00000350: 85be 283d 59ad 30bd bf69 9c3c 4062 dc3d
00000360: bc48 493d 3bb0 55bd f108 963b 2697 4dbd
00000370: 75ea 2ebd b6f7 14bd 7238 84be 5f10 fcbc
00000380: 7356 e53d fd13 733d 2790 82be ac41 05bd
00000390: f914 9dbd b849 c0bc d604 fa3b fea8 b83c
000003a0: b1a0 5f3e b2b6 61bd 212c b63d 229a a23d
000003b0: 17f1 173d ddf6 f6bc f73d 7cbd 5f6c e1bd
000003c0: 5ce5 d73c 77d2 f83c 6f76 d13d 850c b3bc
000003d0: e324 cdbd aff9 183d b52c c3bd 09a9 1e3e
000003e0: e99a 8b3b 1b8b c53d 2d14 9d3d 45a5 aa3d
000003f0: 5043 7dbd 512c 783c 09d6 a13a 1692 68bd
-0.07149338 0.074047975 -0.060541533 -0.078389324 -0.16102688 0.17657758 0.06817991 0.10883269
-0.0062699826 -0.052232154 -0.070263274 0.056663465 0.18861017 -0.108510755 0.032324035 0.06724737
-0.089991406 0.02962529 -0.121079974 -0.009723959 -0.08688512 0.07077691 0.00220485 -0.06579413
0.02646393 -0.005538857 0.05284399 0.13291848 -0.011662489 -0.06162422 0.03896504 -0.104890354
-0.03313455 -0.113367386 0.040509123 -0.03317991 0.110428356 0.04648837 0.06079718 0.042839468
0.1167357 0.14150114 -0.111113265 0.04050895 -0.11879244 -0.025832344 0.08799465 -0.03781274
0.027399046 0.059270255 0.024681836 -0.11315851 0.0027988371 0.09326424 0.08441512 -0.039102815
-0.07735909 0.030483307 0.049838882 0.13201043 0.1343011 0.014422503 -0.08304754 0.04005424
0.11033635 -0.008057867 0.11549213 -0.11600981 -0.04760675 -0.03986089 -0.06600238 0.0088918
0.052895535 0.06475697 -0.05937347 -0.054287083 -0.021148782 0.020150952 -0.03165566 -0.024388866
0.11820277 0.03724046 -0.08018522 -0.046150137 0.09642646 0.017014032 -0.014500666 0.08618489
-0.07901909 -0.11010919 -0.047197033 0.06928193 -0.04330128 -0.06535084 0.15019113 0.0022417388
0.07011221 0.1321666 -0.06042548 -0.0049544424 -0.090573564 -0.028533222 0.15354799 0.060248353
-0.015211534 -0.0391081 0.026150003 0.06026674 -0.0022397868 -0.052605703 0.0006126837 0.04888619
-0.054954734 -0.018351754 0.024338994 0.14996487 0.054979 0.03535214 0.06688832 -0.064932406
-0.14348024 0.0064891092 -0.0151224835 0.020923944 0.07289991 0.020071162 -0.055964325 0.06422582
0.14852953 -0.09355236 0.008573132 -0.033334866 0.18273105 -0.08939837 -0.0746885 0.013258263
0.005149203 -0.031753138 -0.01721573 0.29178038 -0.15744177 0.02413347 -0.11737893 0.0153171625
0.082508214 -0.03277332 0.05190633 0.0390616 0.010595843 -0.14818685 -0.03536742 -0.071849816
0.014469364 -0.028942877 0.033550866 0.029222092 -0.13023444 0.010701689 0.00056302827 -0.043356013
-0.04486088 -0.01760767 0.17063758 -0.00806147 -0.010734816 0.051461723 -0.015401916 -0.08780386
0.1140217 -0.122799546 -0.016675817 -0.04957881 -0.042601928 -0.21891718 -0.08125367 -0.12831695
0.048485246 0.12432 0.02943342 -0.16356896 -0.028200319 0.013545575 -0.00050288613 -0.06869134
0.06667675 0.04310133 -0.036700517 0.12931272 -0.05420319 -0.073470265 -0.12669666 0.08254087
0.057957258 0.021224687 0.0510523 -0.045617826 -0.012687275 0.0088935895 0.046448585 -0.036035888
-0.03193213 -0.08257792 -0.11274015 0.0030652045 0.011312215 -0.025891857 0.066074714 0.017927498
-0.018235277 0.036717016 -0.09253222 -0.058210418 0.04119732 -0.043134067 0.019093392 0.10760927
0.04914163 -0.05217002 0.0045787026 -0.050192975 -0.042704064 -0.036369048 -0.25824314 -0.030769525
0.111981295 0.059345234 -0.25500605 -0.032533333 -0.07670016 -0.023472652 0.007629971 0.02254152
0.21838643 -0.055105872 0.08895136 0.07939555 0.037095156 -0.03014701 -0.06158253 -0.11006998
0.026354484 0.030373795 0.102276675 -0.021856556 -0.10016801 0.03734749 -0.095300116 0.1549417
0.00426041 0.09645673 0.07669864 0.08332304 -0.061831772 0.015147285 0.0012347113 -0.056779943

lstm.bias_ih_l0 f4 [512]
00000000: e631 5339 3e71 75bd ea99 c6bd 7b14 d13d
00000010: 8fe6 abbd 43f9 24be 0c41 5f3d 7db0 a3bd
00000020: b929 1ebd c0cd b1bd 5d4d debc 4a0f 08bc
00000030: b39c e3bc 49b7 f3bc e6e8 423c 8659 143d
00000040: 647d 853d 0b30 c83c a46a d3bd b8ea 44bd
00000050: a6b9 943d 9c7f c13c 9f34 0dbb 447d e0ba
00000060: 2d5d 083d 00c2 a2bd d7f0 273d 6d84 dcbd
00000070: 0e27 313c 1b99 bc3c eb18 07be 4881 623c
00000080: d08a 903d e6de 08bd 99c9 623d d95b d1bc
00000090: fea3 80bc dd41 0ebd c03f 643d 67a1 0bbd
000000a0: 6479 d73c 82e9 7bba b8eb 23bb 1c83 ed3c
000000b0: 0bdf 5e3c 5b1a febd 425a aebc a6d6 1c3b
000000c0: d979 013d cc3c 8e3d dd67 173c b1c9 8c3d
000000d0: 4206 8abd 505b bb3d 71ff b7bd f904 35bd
000000e0: 56f8 16bd bc06 4fbd ea04 96bd 1ba3 ae3d
000000f0: 5e9e babd ec33 54bd 6667 3b3d 58ed 03be
00000100: 8ce6 48bc 54a4 43bd d024 90bc 1214 40bc
00000110: 87fb 133d 13d6 c4bd f113 e6bb c871 063a
00000120: 68b3 e5bb fd4e e03c 9779 433d 12dd 34bc
00000130: ceaa eabd fa8e 90bd 7c17 55bc 34ba 1abc
00000140: d1c3 fd3d 0084 2fbd c677 a63d 2aa4 d9bd
00000150: 78c9 863d 51ea f33d 2921 b4bd 6f75 533d
00000160: e7c6 a2bd 6733 983c f6c4 b63c f941 11bd
00000170: 7fdc 06be 403a daba 8471 4cbe 7cb9 8c3d
00000180: b177 bb3c bf52 4cbd 28da 7dbb 5b89 14bb
00000190: eacf 20bc 38f9 23bd 41e5 0fbc c45c 9fbc
000001a0: 62f7 30be 3b5c 8a3d da9f 933c ef89 a53d
000001b0: a302 cfbd d9b3 06be 27b9 17bd 1f6f 743d
000001c0: 858d 2a3d ea87 68bd b761 cbbd 1c8f 2a3b
000001d0: 35e3 bc3d 9b76 0ebc 5b9e 2f3d e3eb 283b
000001e0: 81ed 41bd bae0 84bd 02a9 27bd 4394 a5bd
000001f0: 30bb 103d 20ac d83d adc8 85bc ac63 8a3d
00000200: a15f cbbd aa57 133d 58cb 1e3d 137d f73d
00000210: 302e f13d 1cc1 fd3b 7597 153d 19f9 0dbd
00000220: 380f 11bd 93b0 553d d9fe 673d 4250 f53d
00000230: 2764 863d d06b e63c c348 c1bd 90e5 593d
00000240: bbfd e53d da66 8f3d 9566 9b3d fa9b b9bd
00000250: cf32 b33c 6b01 76bd 5011 3b3a f176 33bd
00000260: b9f8 553b 6f3c 92ba 8996 bdba 1db4 25bd
00000270: 7239 fd3c 85f1 813c 28bc 9dbd 43b7 10bd
00000280: 4740 7b3d 5101 92bd 6f69 963b f92e a7bd
00000290: 91cf 583d 3ba7 a9bb e790 b4bd b2df 9dbd
000002a0: 832e 9e3c fe4e 79bd bfe9 81bb e563 ed3c
000002b0: 7f36 283d eeb3 143e e782 bc3d 7b5b 523d
000002c0: d8df b0bd ba69 26bc 80b0 03bd 394d 273c
000002d0: 85d2 243d 857a 95bb 6b92 39bd 01a2 89bd
000002e0: c820 52bc 08c7 90bd 4441 a9bc 9fbb 9e3d
000002f0: 6e9d 8c3d 1ab9 57bb 20ba d53d 922f 213b
00000300: 061f 2bbc b044 813d 1430 543c 14e2 17be
00000310: f844 273d 4cd0 9a3d 9676 4abd 58f9 8ebd
00000320: b84b 883d 8d57 923d 0397 033d 223a cdbd
00000330: 7947 21be 14e2 a7bd 185d 373d 17f5 ac3d
00000340: 7d51 1d3e 216a 9fbd dc3e 3a3a 361f d3bd
00000350: 588a 95bb 51e4 5e3b 3375 a8bd b3f4 0a3d
00000360: a87d 0b3c 013b c23c 6f34 c5bc b36d dabd
00000370: 094f f3bb 2684 883d 2b9f 703e 32d9 8b3d
00000380: d99c 52bd ecd1 ef3c 1255 773c fe3b 953c
00000390: 2eb7 883d a930 88bd d323 a73c 7b39 fe3c
000003a0: dcb6 32bd 2dd9 da3d 22b3 593c 72e7 653d
000003b0: 1f90 a9bd 0281 06bd feb8 ac3d ef6f 78bd
000003c0: 34c2 09bc c751 813d 24c2 0a3d 93fd 503d
000003d0: fad9 263d c7cc 70bd 8115 03bd dd93 bf3d
000003e0: adc0 1dbd d6b9 4e3e 0336 48ba 3711 d03c
000003f0: 6f33 c33d b015 003e 190d 06bd bc08 a43d
0.00020141117 -0.05992245 -0.096973255 0.102089845 -0.08393585 -0.16110711 0.054505393 -0.07992647
-0.03861401 -0.08681822 -0.027136499 -0.008304426 -0.027784681 -0.029750483 0.011896348 0.03621819
0.06518057 0.024436971 -0.103230745 -0.048075408 0.07261972 0.02362042 -0.0021546257 -0.0017127176
0.033291984 -0.07947159 0.041001167 -0.10767446 0.010812534 0.023022225 -0.13193099 0.013824768
0.070577264 -0.033415698 0.05536804 -0.025556492 -0.015703198 -0.03473078 0.05572486 -0.034089472
0.026303 -0.00096096855 -0.0025012325 0.028993182 0.013602982 -0.12407371 -0.021283273 0.0023931651
0.031610344 0.0694519 0.0092410715 0.06874407 -0.06739475 0.09148276 -0.089842685 -0.044194195
-0.036857925 -0.05054353 -0.07325156 0.08527204 -0.091122374 -0.05180733 0.045752905 -0.12883508
-0.012261998 -0.047764137 -0.017595679 -0.011723535 0.036128547 -0.09611144 -0.00702142 0.0005128649
-0.0070099123 0.027381415 0.04772338 -0.011039035 -0.1145836 -0.070585206 -0.013006087 -0.009443808
0.12390865 -0.042850494 0.08128314 -0.10627015 0.06581396 0.11909927 -0.08795387 0.051625665
-0.07948094 0.018579198 0.022310715 -0.035463307 -0.1317005 -0.001664944 -0.19965178 0.06871316
0.022884222 -0.0498836 -0.0038734768 -0.0022664878 -0.009815196 -0.040032595 -0.008782686 -0.019453414
-0.17281869 0.06755873 0.01802056 0.08082949 -0.10107925 -0.13154544 -0.03704181 0.059676286
0.04163887 -0.056770243 -0.09930747 0.0026025241 0.09223024 -0.00869527 0.04287563 0.0025775365
-0.047345642 -0.06488176 -0.040932663 -0.08084919 0.035334766 0.10579705 -0.016331041 0.06757292
-0.09930349 0.035972275 0.038768142 0.12084403 0.11776388 0.0077439677 0.036521394 -0.034661386
-0.035414904 0.052170347 0.056639526 0.119781986 0.06562071 0.02812758 -0.09437706 0.053197443
0.11230036 0.07002039 0.07587925 -0.09062953 0.021874813 -0.060059946 0.00071360637 -0.043814603
0.003264947 -0.0011156927 -0.0014464419 -0.040454973 0.030911181 0.015862236 -0.077019036 -0.035331022
0.061340597 -0.07129157 0.0045902054 -0.08163256 0.052932326 -0.005177406 -0.088167004 -0.07708682
0.019309288 -0.06086635 -0.0039646323 0.028978297 0.041067597 0.14521763 0.09204655 0.051356774
-0.08636445 -0.010157043 -0.032150745 0.010211282 0.04023983 -0.0045617246 -0.04530565 -0.06720353
-0.0128251985 -0.07069212 -0.020661004 0.0775063 0.06865965 -0.0032916726 0.10435891 0.0024595005
-0.010444408 0.06311929 0.012950916 -0.14832336 0.040837258 0.07559261 -0.0494295 -0.06981152
0.06655067 0.07145605 0.032126438 -0.100208536 -0.15749921 -0.08197418 0.044766515 0.08445185
0.15363117 -0.07783914 0.00071047037 -0.103086874 -0.004563611 0.00340106 -0.08225479 0.03392477
0.0085138455 0.023709776 -0.024072854 -0.10665455 -0.007425193 0.0666583 0.23498218 0.06828536
-0.051419113 0.029274903 0.015095966 0.018217083 0.06675564 -0.06649906 0.020402825 0.031033268
-0.04363142 0.10685954 0.0132873375 0.056128927 -0.08279442 -0.032837875 0.08433722 -0.060653623
-0.008408118 0.06314426 0.033876553 0.051023077 0.040735222 -0.05878904 -0.03200293 0.093543746
-0.038513828 0.20188078 -0.0007637443 0.025398834 0.095312946 0.12508273 -0.032727335 0.080094784

lstm.bias_hh_l0 f4 [512]
00000000: 9634 45bc da54 9a3d 3e5c 3abd 83cd a23d
00000010: eb17 58bd 5e83 e3bd f351 c13c 4c91 01ba
00000020: 44f5 4e3c 4431 973c 7931 a73d ab99 91bd
00000030: afe0 d7bd 3aab 143d 5048 973c b404 63bc
00000040: f1e5 873c cb38 b83c 1630 cfbb 7348 cfbc
00000050: 1194 183d 0fba 893c 9f90 75bd a2c6 ebbd
00000060: e2c5 c8bd 6b85 dbbd 2958 80bd 7ad6 79bd
00000070: 1d21 a5bd f2fe ea3c ec3f 5ebd b873 b93d
00000080: 42dd 0d3e 9d5a 5dbc d2e6 df3d 6404 bdbd
00000090: 9abd 543d 9e4a 3e3d 4118 c83c 2f4f f5bd
000000a0: 2e02 1b3d 6287 e9bd cd52 b8bd 1840 9e3b
000000b0: 83f6 113e 8a68 093c 67fe 7f3d 375e 57bd
000000c0: 2b76 91bd 1c21 0f3e 7f84 9b3c 814f b33d
000000d0: cc03 d5bd d234 813c 3eb1 27bd f301 bf3c
000000e0: 1ef2 55bd db1b fcbd 2e69 0b3d d3c1 21bb
000000f0: ebd0 33bd 0156 683d dd62 a73c 7a97 5238
00000100: 48a0 68bd 516e 853d d93b 713d 42a3 d43c
00000110: 8c03 c83d 5696 173d dfaf be3d 8b1d 87bd
00000120: 335f b6ba a104 093c 34f3 1a3c 734b 213c
00000130: eca6 0abd aa3b 29bc f5dc f3bd 01fd 07bd
00000140: 1664 693d fa4c 2ebd b042 dd3d 2cbe 3c3d
00000150: 5632 bd3d a5cd 9b3b e553 79bd a34a 56bc
00000160: f979 a3bd 378d ee3c a52d a6bc 17d2 85bc
00000170: 0401 98bc 3d34 c3bb ca86 c7bd 353b 30bd
00000180: 69ff ea3c 1ff6 42bd 93f7 713c 2d6d aaba
00000190: 10f9 aebd 284a 5b3d e702 c4bd 8e24 113c
000001a0: 8907 e4bd f9a6 953d d616 0e3e be96 613c
000001b0: cd42 073d 0be3 efbd 0937 a03d b4b8 7e3d
000001c0: 7c1e 9bbd a3dc e6bd d18d 473d cba0 dcbc
000001d0: 42d5 ea3c df4b b6bc 5962 283b f749 853c
000001e0: b67d eb3b 2834 cbbd f9c9 91bd 6f96 31be
000001f0: 965d 8e3d a0f5 fc3d 0a31 c7bc e298 c43c
00000200: b3ae 06be 4be7 753c 47fe 873d f574 233e
00000210: 16dd 033e 706c 943d 57d3 103b 180e aabb
00000220: b2f0 1dbc fd26 143d ff25 f03d 7d6c 06bc
00000230: d22d cb3c 2350 b83d 7bc9 6e3c 33ed 033d
00000240: 507d 9bbc 0454 6cbd d0e4 c03d 434f 23bc
00000250: a5ef 373d ef09 223d 9037 cdbb 42c8 edbd
00000260: 0435 53bd d47a 743d 5af5 b0bd 2604 6d3c
00000270: 8f0c 07bb 3b30 e93c d297 853d 59b3 67bd
00000280: 656e 2e3d 25b6 0fbd dc29 e93d 1b53 783c
00000290: f66e 0e3e c5a0 aa3d 0f5b 1dbd 8c26 30bd
000002a0: 2b05 2f3c 3db2 903d c83c e4bc 4436 363d
000002b0: e2ae 0f3e 8a75 013e 3a0e ff3d 4a97 993b
000002c0: 595b 8d3c 72b8 bc3d 4b6e 803d 12b5 e23d
000002d0: e491 a33d e9e7 cf3b 3569 67bd 3a13 1fbe
000002e0: a711 8e3d 4885 e3bd 2740 e1bd 17af 1b3d
000002f0: a3a8 4b3b 70d2 d4bd da05 d43d 26c3 253b
00000300: ea45 243d 6ef4 753d 820d 033e 9eaa 91bd
00000310: 1df2 d03d 512a 4d3e 1006 553d d87c 333d
00000320: 041b b5bb fdef 6cbc d3fe 4bbd 076a 313b
00000330: fa9c 02be 6f7c 01bd 4f25 f63c 8bc0 843c
00000340: fb03 113e f1fd fd3c a35c 0b3e 0765 abbc
00000350: 9f17 863d 08d2 44bd e26b 0cbc 2db9 3f3d
00000360: 6cca a7bc c111 ec3c 5df3 463d 9817 19bd
00000370: 1529 37bc a912 c23d 8767 1d3e 755c 71bd
00000380: 730e 473d 1035 c13d 2214 82bd c60f cdbd
00000390: 9bbf 9d3c 8bac 3fbd 10f1 753d 52b9 4ebd
000003a0: 42c0 adbd 68ba 3c3d c851 8b3c 51e7 063d
000003b0: fe00 2fbd e863 58bd 50bc 54bd 7147 4fbd
000003c0: 3cfd 51bd e501 773d 4c66 a4bd 01ee 063d
000003d0: 6b91 093d b6d6 5c3c 7d61 7dbd a6eb 303d
000003e0: 9a72 95bc 16d7 1d3e d2bb 5f3d 949a f5bd
000003f0: 73a8 d33d 3a62 963d 207a 8ebd 31df f73d
-0.012036463 0.075357154 -0.045498125 0.079493545 -0.052757185 -0.11109041 0.023598647 -0.00049426104
0.012631718 0.018456109 0.08163733 -0.07109388 -0.10540902 0.036296107 0.018467098 -0.013856102
0.016589137 0.022488018 -0.006322871 -0.025303101 0.037250582 0.016812352 -0.059952375 -0.115124956
-0.09803368 -0.10718807 -0.06266815 -0.060995556 -0.080629565 0.02868602 -0.05426018 0.09055275
0.13853934 -0.013510373 0.10932697 -0.09229353 0.05193863 0.04645788 0.024425628 -0.11977994
0.037843876 -0.11402775 -0.09000168 0.004829418 0.14254193 0.00838674 0.062498476 -0.052580085
-0.07102617 0.13977474 0.018984077 0.087553985 -0.10401115 0.015772257 -0.040940516 0.02331636
-0.052232854 -0.123100005 0.034035854 -0.0024682179 -0.04390041 0.056722645 0.020432884 5.0208975e-05
-0.05679348 0.06515182 0.058894966 0.025956754 0.097663015 0.037008606 0.093108885 -0.06597432
-0.001391387 0.00836292 0.009457398 0.009844649 -0.033850595 -0.010329166 -0.119073786 -0.033200268
0.056980215 -0.04255388 0.10803735 0.0460798 0.092381164 0.0047547393 -0.060871024 -0.013079318
-0.07982249 0.02912007 -0.020285437 -0.01633553 -0.018555172 -0.005957155 -0.09742506 -0.043025214
0.028686242 -0.047598 0.014768499 -0.0013002508 -0.08543599 0.053537518 -0.09570866 0.008858813
-0.1113425 0.07307238 0.13875899 0.01376885 0.03302269 -0.11713227 0.07822997 0.062187865
-0.07574174 -0.11272552 0.04871923 -0.02693214 0.028666142 -0.022252975 0.0025693385 0.01627062
0.007186617 -0.099220574 -0.07118601 -0.17342542 0.06951444 0.12351537 -0.024315376 0.023998681
-0.1315258 0.015008758 0.066402964 0.15962584 0.12877306 0.07247245 0.0022098625 -0.0051896684
-0.009639906 0.036169995 0.11725997 -0.008204577 0.024802122 0.0899966 0.014574404 0.032208633
-0.018980652 -0.05769731 0.094186425 -0.009967628 0.044906277 0.039560255 -0.006262727 -0.11610462
-0.05156423 0.05968745 -0.08640547 0.014466321 -0.002060685 0.02846538 0.06523098 -0.056567524
0.04258575 -0.035085816 0.11384937 0.015156533 0.13909516 0.083314456 -0.03841692 -0.04300551
0.0106823845 0.07065246 -0.027861014 0.044485345 0.14031556 0.12642494 0.124538854 0.0046872245
0.017255472 0.09214868 0.06271037 0.11069693 0.07986811 0.0063447845 -0.056496818 -0.15534678
0.06936961 -0.11109406 -0.10998564 0.038008776 0.0031075857 -0.103917 0.103526786 0.002529332
0.040105738 0.06004756 0.12798122 -0.07112621 0.102024294 0.20035674 0.052007735 0.043820232
-0.005526902 -0.014461515 -0.049803566 0.0027071254 -0.12755194 -0.03161281 0.030047087 0.016205093
0.14161675 0.031004878 0.13609557 -0.020922197 0.06547474 -0.048051864 -0.008570643 0.046807457
-0.020482264 0.02881706 0.048571933 -0.037376016 -0.011179228 0.094762154 0.15371524 -0.058926065
0.048597764 0.09433949 -0.06351496 -0.10012774 0.019256404 -0.04679541 0.06004435 -0.050469704
-0.08483936 0.04607621 0.01700677 0.032935444 -0.042725556 -0.052829653 -0.0519374 -0.05060524
-0.051266894 0.06030454 -0.08027324 0.032941822 0.033585947 0.013478925 -0.06186055 0.04319348
-0.018243123 0.1541408 0.05462248 -0.11992374 0.103348635 0.07342954 -0.06956887 0.12103117

fc.weight f4 [2, 128]
00000000: 53d8 89be 4422 303d 1888 133d e644 23bd
00000010: 1125 46be bfb8 7a3e c25a 373e 49bf cabe
00000020: e81c ccbd 11b8 e4be 1840 8dbc 8865 f93c
00000030: 6d83 5d3e 0ebf 573e ef20 0c3e 2515 2fbe
00000040: ac9c a13e c932 4bbe 234d 00be d571 0ebe
00000050: fe8d 80be 5aa7 f4bd 3449 923d 830f 1e3e
00000060: c9a1 353e 0e0e 5bbe 4dfe 1abd 422b 273e
00000070: efd9 32bd 4f70 7dbe 34f2 4abd b12f abbe
00000080: 4961 873d cd13 28be 3fa5 a53d a7aa 233d
00000090: d62c 443e 5eba e1bd f12e c73d 35bd 8c3d
000000a0: 0c03 9fbd 16f7 63be c4a4 69be 999e 8d3d
000000b0: 008d 10be 94b5 233e 333f 053d 43b9 ccbd
000000c0: c291 1e3e e38c 923d 5200 983e 6927 363e
000000d0: 228a 1ebe 2da2 10be e547 663e aec0 97be
000000e0: 0405 f1bd 74c3 5e3e fb88 643e eb79 40bd
000000f0: d2cb 493e baa4 873e 78ee 81bd a292 08be
00000100: c69f 203c d928 a0bd 24f1 4d3e cdbb c7be
00000110: 703a 14be 1c7b e2bd 9672 25be 70c9 013e
00000120: 88d9 4c3d 29b0 393e f996 8a3d 7e8e 463d
00000130: 01d8 30be 7edf f1bd 9977 2b3e cd5d 6cbe
00000140: 5c45 d63d bedf 093e d819 6a3d 5760 1f3c
00000150: e770 19be 00fd 8ebe 038c 92bd 36ed 0e3e
00000160: 0b4f 25be b36f 8fbe e3f2 e13e 4fa4 abbd
00000170: bd63 28be 0764 87bd 276b 883e 56ff 73bd
00000180: 5b70 74bd 7bb2 8ebc 46c9 173e 9faa d5bc
00000190: 3b0e b73e 2362 c2bd 9193 83be 366e 753d
000001a0: f328 09be 824e a23d 69ba 523c 15d2 173e
000001b0: 8f5f 17be 741c 22be 21cc a0bd 1b04 7a3e
000001c0: c2df 1cbe 2a11 013e 4c1d 11be 34ef 493e
000001d0: c764 033d 0883 38be 5d60 6e3e 950b b6bd
000001e0: c16f dabd 199a 8abe 42fc c03c d1f0 413e
000001f0: a0e0 053e c178 f5bd d161 4bbe 5937 d43d
00000200: 4715 9b3e 4b9e 1bbd aab7 52bc 35a7 7a3d
00000210: f803 5b3e d9ae 90be a121 12be 1079 c83e
00000220: 07fc e3bc f219 b03e 2551 c4bd 57df 933d
00000230: b6b6 16be cfef b4bd d55e 6bbd a5ab a13d
00000240: f629 82be 2c1b 763e 3a6b 853e 5274 073e
00000250: 1b00 a93e 2315 523e c77b 91bd 4d1c 65be
00000260: d27c 60be 198c 383e 6cd2 cd3b 24af 66be
00000270: 79b4 53bd fbbe 873e d41e 9f3d 03bc ae3e
00000280: fc99 7fbd a961 283c d5bc b5ba c5ca ad3c
00000290: 2b96 42be 593b 353e b0b9 6bbe bc7c 9ebd
000002a0: cd3f fe3d a57c 403e 44c0 203e 9cd0 ab3c
000002b0: 2a88 0e3e 1da3 b1bd afab dc3c d895 043d
000002c0: a027 55be 0e16 e8bc 3703 0dbe 0ac1 88be
000002d0: 4e26 5f3e 7833 763e 68bf e8bd 84ba 783e
000002e0: f012 703d d858 97be 77c7 5bbe 06f0 803d
000002f0: d1c6 81be 0712 88be d725 043e a377 0c3b
00000300: f2b3 e4bd 80ea 143d c38c 32be 4bf6 ab3e
00000310: 6674 4d3e 2ca3 b33d 377f 1e3e c9f8 a4bd
00000320: 0721 e23d 432c 93bd de50 62bd 9ada 86bd
00000330: 529d 9a3e 01c5 2b3e 7497 1ebe b3ce 843e
00000340: 8c81 583d 082f 0fbe 2f72 13be 0400 493d
00000350: f14f d53d 946c 613e da0f 6b3e ac87 babd
00000360: ff15 5b3e 4d9e 8b3e 4ecd c1be 0a65 d6bc
00000370: 27db 723e 11fa 6d3d 35c0 9dbe ae20 abbb
00000380: daf0 3e3d 8a6f f33c 53aa a9bd 7d37 ccbd
00000390: 1503 64be 564f 5f3d f47e 483e b940 7c3d
000003a0: 32a3 363e 5aef e2bd f9a7 a53d 9978 1abe
000003b0: 1994 293d 7cc0 4b3e 2896 c13d 5330 75be
000003c0: 30d3 323e 017d e7bd e2ab 873e 0040 49be
000003d0: 768b c6bd 18d2 493e dcad 61be e672 123e
000003e0: 2537 ee3d 4ed4 4c3e 321e 58bd 5bd5 39be
000003f0: 2570 52be 5b75 f63d 5303 373e 31ee 7abb
-0.26922855 0.04300143 0.03601846 -0.03986063 -0.19350077 0.24484538 0.17905715 -0.39599064
-0.09966451 -0.44671682 -0.017242476 0.030443922 0.21632166 0.21068975 0.13684438 -0.1709791
0.31564844 -0.19843592 -0.12529425 -0.13910611 -0.2510833 -0.11945982 0.07142869 0.15435605
0.17737497 -0.2139208 -0.037840176 0.16325095 -0.04366487 -0.24749874 -0.04954739 -0.33434823
0.066103525 -0.16413803 0.08088159 0.03995767 0.19157729 -0.11021875 0.0972575 0.06872026
-0.07764253 -0.22262225 -0.2281676 0.06915016 -0.14116287 0.15987235 0.032530975 -0.09996273
0.1548529 0.07155778 0.29687744 0.17788471 -0.15482381 -0.14124365 0.22488363 -0.2963919
-0.11768535 0.21754247 0.22317879 -0.04699127 0.19706658 0.26492864 -0.063443124 -0.13337186
0.009803718 -0.07820291 0.20111519 -0.39010468 -0.14475417 -0.110586375 -0.16156992 0.12674499
0.05001214 0.18133606 0.06767077 0.048475735 -0.17269899 -0.11810206 0.16744842 -0.23082657
0.10462448 0.13464257 0.057153553 0.009727559 -0.14984475 -0.279274 -0.07155611 0.13957676
-0.16143434 -0.28014907 0.4413062 -0.08380949 -0.16444297 -0.066108756 0.2664425 -0.05956968
-0.059677463 -0.01741909 0.14822873 -0.026082335 0.35753044 -0.09491374 -0.25698522 0.05991956
-0.13394527 0.079251304 0.012861826 0.14826234 -0.14782546 -0.15831167 -0.078514345 0.24415629
-0.15319732 0.12604204 -0.14171332 0.19720155 0.03207853 -0.18018734 0.23278947 -0.08888928
-0.106658466 -0.27070692 0.023557786 0.1893952 0.13073969 -0.119859226 -0.19861533 0.10362119
0.3028967 -0.037992757 -0.012861172 0.061194617 0.21388233 -0.28258398 -0.14270641 0.39154863
-0.027830137 0.34394795 -0.095857896 0.07220333 -0.14718136 -0.08834802 -0.057463486 0.07894067
-0.2542264 0.24033803 0.2605837 0.13227966 0.33007893 0.20515876 -0.07103687 -0.22374077
-0.21922615 0.18022193 0.0062811878 -0.22527748 -0.051685784 0.26512894 0.07769552 0.34127817
-0.06240271 0.01027719 -0.001386548 0.021214852 -0.19002597 0.1769842 -0.23020053 -0.07738635
0.12414513 0.18797548 0.15698344 0.020973496 0.1391913 -0.086736895 0.026937334 0.032369465
-0.20815897 -0.028330829 -0.13770758 -0.26709777 0.21791956 0.24043071 -0.11364633 0.242899
0.05861181 -0.2955997 -0.21462809 0.06295781 -0.25346997 -0.26576254 0.1290506 0.0021433614
-0.11167134 0.03635645 -0.17436509 0.33586344 0.20063934 0.08771357 0.15478216 -0.080552645
0.11041456 -0.07186177 -0.055252902 -0.06584664 0.3019815 0.1677437 -0.15487462 0.2593895
0.05285792 -0.13982785 -0.14399026 0.04907228 0.10415638 0.22014076 0.22955266 -0.091079086
0.2139511 0.2726921 -0.37851948 -0.026171226 0.23716412 0.05809981 -0.30810705 -0.0052224016
0.046616413 0.029716272 -0.0828444 -0.09971521 -0.222668 0.05451902 0.19579679 0.06158516
0.17835692 -0.11080809 0.08088679 -0.15085067 0.041401003 0.19897646 0.09452468 -0.23944215
0.17463374 -0.113031395 0.26498324 -0.1965332 -0.09694569 0.1970905 -0.22038978 0.14301643
0.11631612 0.20002863 -0.05276317 -0.18147795 -0.20550592 0.120341025 0.17872362 -0.0038288946

fc.bias f4 [2]
00000000: ccab f0bd 2015 053d
-0.11751518 0.03249085
