Models/cnn_lstm_model_stream_Nstream_manual_split_0,7.pth (torch, 408328 bytes, 8 tensors)

conv1.weight f4 [64, 8, 3]
0.04530468 -0.30858 0.2186457 0.3803423 0.1685495 0.38233578 0.24614094 0.12852977
0.005984367 -0.027098501 0.20938163 0.024532048 -0.13303193 -0.22194044 -0.09760981 -0.033702742
-0.19434702 0.14256772 -0.28866187 0.15192136 -0.18508624 -0.24038008 0.1487793 -0.12455935
-0.206917 -0.17276421 0.116331816 -0.20622396 -0.06945042 -0.13443935 0.0042648665 0.12034954
-0.1569945 0.019342294 0.31026655 0.2634858 -0.20942925 0.051381767 0.12727807 0.041796632
0.1464494 -0.20069899 -0.17945927 0.10732992 0.25428104 0.228384 0.018789327 -0.062122367
0.14235519 0.15145804 0.003933491 -0.10598799 -0.21153954 -0.016510641 -0.26367658 -0.28170022
-0.081191 0.079912215 -0.16924126 -0.2980993 -0.025262501 -0.09298444 0.07438693 0.0264655
-0.15419129 -0.1363103 0.25657895 0.25724864 -0.024849383 -0.07178102 -0.16484436 -0.09016267
-0.014913997 -0.030571612 -0.11810079 0.106094375 -0.062407885 -0.16436341 0.52497655 0.23229226
0.16188054 -0.24514541 -0.23285165 -0.00747601 -0.08096359 0.15630472 -0.13882245 0.078312576
-0.14589201 -0.016305005 -0.102781735 -0.19274335 0.021367881 0.035695866 0.09003897 -0.09353537
-0.15815634 0.34806395 -0.23336111 -0.0012056244 -0.32018843 -0.31453592 0.26236656 0.25107387
-0.0757114 -0.09828834 0.06413264 0.04457862 -0.13713543 -0.29068914 -0.10600945 0.08023965
-0.12089299 -0.2038849 -0.07380965 -0.0520536 0.02349917 -0.124087885 0.14774874 -0.067474686
0.216595 0.1628679 0.17799154 0.07323541 -0.11754993 -0.18588488 0.10360064 -0.13827516
0.13595173 0.11802067 0.04626016 0.036179963 0.19308811 0.06731867 0.05409396 -0.19108301
-0.12364117 0.06836209 -0.03159701 -0.057335753 -0.20700592 -0.10710738 0.03942315 -0.16404861
0.023869157 0.21697469 0.18241161 0.074508645 0.11721514 0.02286908 -0.0052491655 0.064870335
0.013145323 0.17710125 0.2873618 0.10484812 0.031732015 0.13901818 -0.016160088 0.08174621
0.031817555 -0.1495569 0.0828634 -0.032252874 0.2196855 0.069636434 -0.12078729 0.0027714677
0.28816125 0.3314614 0.12984006 0.08955254 -0.062193308 -0.1274915 -0.13090275 -0.0055468003
0.31400964 0.14363392 -0.000733758 -0.25225025 -0.25309303 -0.22491005 -0.060460843 -0.120212436
-0.28387225 0.041163 0.17718732 -0.042812888 0.040585183 0.028098898 0.1515791 -0.050167657
0.11319938 -0.0021048395 -0.1554726 0.2715917 -0.18473819 -0.12527336 -0.06629543 -0.07868936
0.08094901 -0.2785012 0.00845924 -0.1001765 -0.12584716 -0.022193829 0.16002871 -0.014191157
-0.043166105 -0.12919083 0.20098624 0.15270157 0.023087481 -0.116586015 -0.07779782 -0.059658278
-0.1775808 -0.08603353 0.14195824 -0.22923192 -0.065182075 0.023990732 0.07202853 -0.1246141
-0.06849853 0.15632375 -8.436424e-05 0.1859541 -0.059020925 0.14324075 0.031068558 -0.17231949
0.10904313 0.15166539 -0.111284845 -0.18691951 0.025226451 -0.01803307 0.23302564 -0.066619635
-0.3110754 -0.24349628 -0.26454583 0.09964373 0.26953655 -0.1542429 0.025757339 0.23589648
-0.018930342 -0.054338347 -0.20790179 -0.005820372 0.21173705 -0.0047890074 -0.053109206 0.12774257
00000000: 6691 393d 33fe 9dbe a9e4 5f3e 3abc c23e
00000010: 3d98 2c3e 84c1 c33e 5f0c 7c3e 4f9d 033e
00000020: 8218 c43b adfd ddbc 2368 563e 6ff7 c83c
00000030: 8639 08be 5b44 63be a7e7 c7bd e30b 0abd
00000040: e802 47be 46fd 113e 7dcb 93be 4691 1b3e
00000050: 3f87 3dbe 3226 76be 9a59 183e f918 ffbd
00000060: 0de2 53be 1ae9 30be 603f ee3d 602c 53be
00000070: 063c 8ebd 78aa 09be 4bc0 8b3b d279 f63d
00000080: 2bc3 20be bb73 9e3c 42db 9e3e 9ce7 863e
00000090: 9f74 56be b075 523d 2f55 023e f232 2b3d
000000a0: d5f6 153e 0984 4dbe 2cc4 37be cacf db3d
000000b0: 2031 823e 7fdd 693e 13ec 993c 0674 7ebd
000000c0: 8fc5 113e d117 1b3e 84e4 803b 3b10 d9bd
000000d0: d29d 58be 5341 87bc 9e00 87be 033b 90be
000000e0: 7847 a6bd 04a9 a33d 954d 2dbe 79a0 98be
000000f0: 4ef3 cebc a06e bebd 2d58 983d 2dce d83c
00000100: 52e4 1dbe ed94 0bbe 515e 833e 18b6 833e
00000110: ef90 cbbc ed01 93bd f6cc 28be 35a7 b8bd
00000120: d659 74bc 5171 fabc d4de f1bd 0248 d93d
00000130: 699f 7fbd e24e 28be dd64 063f 06de 6d3e
00000140: 03c4 253e 6607 7bbe aa70 6ebe 51f9 f4bb
00000150: 3dd0 a5bd 580e 203e 7927 0ebe 5862 a03d
00000160: b764 15be 1392 85bc 3b7f d2bd 835e 45be
00000170: b20b af3c d435 123d 5a66 b83d 798f bfbd
00000180: bcf3 21be 7035 b23e 37f6 6ebe 0b06 9eba
00000190: bdef a3be da0a a1be e954 863e c18c 803e
000001a0: 940e 9bbd 664b c9bd f957 833d 1298 363d
000001b0: 3b6d 0cbe 35d5 94be 7c1b d9bd b054 a43d
000001c0: be96 f7bd 34c7 50be 8429 97bd 2836 55bd
000001d0: 5581 c03c ca21 febd 724b 173e 2b30 8abd
000001e0: 14cb 5d3e d8c6 263e 6a43 363e 72fc 953d
000001f0: 05be f0bd 9b58 3ebe 932c d43d 0198 0dbe
00000200: ee36 0b3e d2b4 f13d 4b7b 3d3d 7131 143d
00000210: e4b8 453e 5fde 893d a191 5d3d 44ab 43be
00000220: 9537 fdbd 6c01 8c3d de6b 01bd e5d8 6abd
00000230: 5cf9 53be 1d5b dbbd 2b7a 213d 5cfc 27be
00000240: 4089 c33c 9d2e 5e3e 1cca 3a3e fd97 983d
00000250: 7e0e f03d f057 bb3c 3101 acbb bdda 843d
00000260: 7b5f 573c 085a 353e 1621 933e 9cba d63d
00000270: 6ef9 013d c85a 0e3e 2962 84bc 8f6a a73d
00000280: 2053 023d 7225 19be 49b4 a93d 971b 04bd
00000290: 3cf5 603e 8c9d 8e3d 545f f7bd 83a1 353b
000002a0: df89 933e 4fb5 a93e cbf4 043e 5267 b73d
000002b0: 69be 7ebd 228d 02be 5f0b 06be efc1 b5bb
000002c0: dfc5 a03e c514 133e aa59 40ba f226 81be
000002d0: 6995 81be d24e 66be caa5 77bd f031 f6bd
000002e0: b457 91be 899a 283d 9870 353e 915c 2fbd
000002f0: a63c 263d a92f e63c 8d37 1b3e 9a7c 4dbd
00000300: 14d5 e73d 59f1 09bb 3634 1fbe 110e 8b3e
00000310: 022c 3dbe a947 00be e6c5 87bd e327 a1bd
00000320: 98c8 a53d b697 8ebe a098 0a3c 5629 cdbd
00000330: 14de 00be d5cf b5bc 91de 233e 0782 68bc
00000340: f1ce 30bd 9a4a 04be 56cf 4d3e cd5d 1c3e
00000350: f521 bd3c a6c4 eebd 7754 9fbd 3d5c 74bd
00000360: bed7 35be 5932 b0bd 805d 113e c6bb 6abe
00000370: 2e7e 85bd 3688 c43c b283 933d ad35 ffbd
00000380: f548 8cbd 5513 203e b5ec b0b8 c06a 3e3e
00000390: edbf 71bd b4ad 123e 7d83 fe3c 8574 30be
000003a0: 0152 df3d 2c4e 1b3e 4fe9 e3bd d467 3fbe
000003b0: b4a7 ce3c 17ba 93bc 469e 6e3e e06f 88bd
000003c0: 4645 9fbe 1757 79be 8d72 87be 0312 cc3d
000003d0: b200 8a3e daf1 1dbe 0e01 d33c d98e 713e
000003e0: ce13 9bbc e391 5ebd 35e4 54be d2b8 bebb
000003f0: 99d1 583e 1bed 9cbb 0a89 59bd f3ce 023e

conv1.bias f4 [64]
-0.17469066 -0.04592918 -0.12510969 -0.13405867 0.04002202 -0.05506706 0.16783686 0.098482706
0.05409962 -0.10096977 0.16650589 -0.20665687 0.10107723 0.15470311 -0.14492585 -0.1321661
0.109744355 0.09101358 -0.12568624 -0.17849265 0.08266818 -0.1303078 -0.17090619 0.11505332
-0.047275484 0.0565841 -0.16513656 0.07614173 0.04760068 -0.0061459932 0.023539163 -0.16731285
0.052226827 0.091194525 0.22771043 -0.15884858 0.16206655 0.07383619 0.14757684 0.016131377
0.14448738 -0.14756677 0.008715487 0.09404583 0.085789904 0.0632351 -0.034845512 0.054525122
0.0091863675 -0.15107903 -0.0070340335 0.021638442 -0.21328059 0.17061706 -0.18419646 0.17069352
-0.1505716 0.01767927 -0.12575756 -0.026737927 0.17233832 0.056315687 0.108533904 -0.03389817
00000000: 1ce2 32be 3c20 3cbd c11c 00be ad46 09be
00000010: 21ee 233d ff8d 61bd 6ddd 2b3e 4db1 c93d
00000020: 9097 5d3d 3dc9 cebd 8580 2a3e dc9d 53be
00000030: 9401 cf3d 7e6a 1e3e 7167 14be 8d56 07be
00000040: a6c1 e03d 5465 ba3d e5b3 00be c7c6 36be
00000050: ef4d a93d 686f 05be 0802 2fbe 13a1 eb3d
00000060: f0a3 41bd bbc4 673d 8f19 29be 32f0 9b3d
00000070: eef8 423d 5464 c9bb 34d5 c03c 0f54 2bbe
00000080: cceb 553d 32c4 ba3d ec2c 693e 34a9 22be
00000090: c6f4 253e 6e37 973d 621e 173e f325 843c
000000a0: 80f4 133e be1b 17be 67cb 0e3c 1a9b c03d
000000b0: 9eb2 af3d 6781 813d 2bba 0ebd bc55 5f3d
000000c0: 6b82 163c 76b4 1abe c07d e6bb 1a43 b13c
000000d0: 3a66 5abe 3db6 2e3e ff9d 3cbe 48ca 2e3e
000000e0: 712f 1abe 1ed4 903c 97c6 00be 7f09 dbbc
000000f0: 7579 303e 47ab 663d 0647 de3d cfd8 0abd

lstm.weight_ih_l0 f4 [512, 64]
-0.049911987 0.03065714 -0.006091673 -0.10122924 -0.042335648 -0.061495923 -0.1440507 -0.072837844
-0.06480319 -0.015392318 -0.06460557 0.0740611 0.019511564 0.009131836 0.015465688 -0.15761635
-0.00794511 -0.0195717 -0.1212242 0.07387556 -0.0395323 -0.06951093 -0.038379084 0.01965915
0.01638054 -0.05671679 -0.072523415 -0.023841817 -0.073757984 -0.193203 -0.0955732 -0.010511604
-0.00885989 0.03364017 0.010175039 -0.06689485 0.019984644 -0.014381657 -0.04180785 0.011794008
-0.05376765 -0.0021200068 0.024926217 0.050484758 -0.035401624 -0.07318608 0.069879614 -0.030194273
-0.048047803 0.00028129865 0.046899978 -0.15372226 -0.121352315 -0.07597616 0.0052004084 0.00032368602
0.011346662 -0.026251834 -0.06142906 -0.07319775 0.08559741 -0.063829005 -0.054722402 0.028801668
0.11652331 -0.20731662 0.06688024 -0.15706241 0.11062219 -0.11862862 -0.08705098 0.29719132
-0.034779508 -0.09629754 0.020071527 -0.18837161 -0.029355401 -0.16651027 -0.110290736 0.16661516
-0.12636155 -0.124469556 -0.13421541 0.16422354 -0.18861078 -0.035406273 -0.20598194 -0.05887417
-0.07702791 -0.049907707 -0.14568423 -0.10162265 0.06447063 0.17924526 -0.07414372 -0.08263649
-0.03090463 -0.13891266 0.019793492 0.1517183 -0.09260878 0.07458355 0.014912996 -0.11224564
-0.049411096 -0.16951387 -0.010049702 -0.05044454 -0.09800967 -0.083766125 -0.15212679 -0.025676314
-0.010917134 -0.020869104 -0.012864774 0.13272093 -0.024910236 -0.1606423 -0.031142894 -0.12415677
-0.09174856 -0.1774207 0.009553319 -0.11258383 -0.13125311 -0.12445557 -0.0031926236 -0.11699961
-0.14303537 -0.09134728 -0.03990032 -0.11203245 -0.13438459 -0.08818891 -0.07666266 -0.11537739
-0.03624283 0.0021107302 0.071054794 -0.036623567 -0.05003576 -0.018626103 -0.009579021 -0.17302045
-0.10112632 -0.06526722 -0.14255933 -0.13981844 -0.086402215 -0.020209119 -0.04244523 -0.0534992
0.13358131 -0.07529449 -0.056155827 -0.007269179 -0.030207332 -0.13638513 0.012064765 -0.13019404
0.072929 -0.02710049 -0.10153362 -0.26636177 -0.054265626 -0.19049127 0.09280609 -0.08712036
-0.08041886 -0.14625615 -0.016325139 -0.14677586 -0.19174583 -0.04459737 -0.07148535 0.0727819
-0.09502975 -0.100003295 -0.058686662 -0.031726 -0.03758017 0.04633994 -0.069853336 0.0021035983
-0.17163056 0.007999286 -0.17747948 0.037885804 -0.0034566754 0.003310715 -0.04628286 -0.12921098
-0.059419196 0.008988607 -0.07437559 0.048463948 0.10697052 -0.033619903 -0.0022543326 -0.018141044
0.013856242 0.062153295 0.008138034 -0.039831437 -0.01946154 0.104210384 -0.042314343 -0.0143252155
0.0054936945 0.098427415 -0.036894657 -0.059141014 0.039688252 0.05603006 -0.050556894 0.030377889
-0.024365535 0.012235614 0.03369051 0.13500074 0.04942877 0.06635786 -0.12547214 0.1173404
0.0749968 0.016794553 0.10666116 0.086088285 0.019308344 0.0069952374 0.0193476 0.12956706
-0.04950951 -0.072189175 0.05846965 0.09541493 -0.00798704 0.10297848 -0.015060803 0.049485926
0.023418104 0.05515425 -0.0045269076 -0.07977367 0.1288607 0.08972575 -0.021002267 -0.06135073
-0.08905389 -0.08710827 0.00413154 0.11417488 0.018784493 0.06264048 0.04569091 0.0125898365
00000000: 8370 4cbd af24 fb3c a89c c7bb 4751 cfbd
00000010: 2568 2dbd 26e3 7bbd 0782 13be 022c 95bd
00000020: 89b7 84bd 1030 7cbc ed4f 84bd 59ad 973d
00000030: b7d6 9f3c b29d 153c cc63 7d3c 2e66 21be
00000040: 352c 02bc d454 a0bc 6544 f8bd 124c 973d
00000050: 9fec 21bd bf5b 8ebd 6333 1dbd 3a0c a13c
00000060: 7b30 863c dd4f 68bd 2887 94bd ea4f c3bc
00000070: 6d0e 97bd 02d7 45be e2bb c3bd dd38 2cbc
00000080: 1229 11bc 46ca 093d 35b5 263c 2b00 89bd
00000090: d6b6 a33c 0ba1 6bbc b53e 2bbd a83b 413c
000000a0: 783b 5cbd d0ef 0abb 1132 cc3c 1bc9 4e3d
000000b0: 4b01 11bd 95e2 95bd 0b1d 8f3d fb59 f7bc
000000c0: c6cd 44bd 447b 9339 311a 403d 5e69 1dbe
000000d0: 9087 f8bd 6499 9bbd 3068 aa3b 67b4 a939
000000e0: 5ae7 393c 160e d7bc 0a9d 7bbd b4e8 95bd
000000f0: b24d af3d c8b8 82bd 9924 60bd 7af1 eb3c
00000100: c6a3 ee3d cf4a 54be 82f8 883d f8d4 20be
00000110: e38d e23d 90f3 f2bd c947 b2bd 7629 983e
00000120: f574 0ebd a537 c5bd 0b6d a43c 7de4 40be
00000130: bd7a f0bc ab81 2abe 1ce0 e1bd 2a9d 2a3e
00000140: ec64 01be e5e9 febd c46f 09be 372a 283e
00000150: 2f23 41be 2b06 11bd eeec 52be 0b26 71bd
00000160: cfc0 9dbd 066c 4cbd 3f2e 15be 891f d0bd
00000170: 2d09 843d 128c 373e aad8 97bd 523d a9bd
00000180: b52b fdbc 1f3f 0ebe f625 a23c 0b5c 1b3e
00000190: aca9 bdbd 43bf 983d a455 743c 0be1 e5bd
000001a0: 4a63 4abd 0b95 2dbe 81a7 24bc ef9e 4ebd
000001b0: 4bb9 c8bd 938d abbd 20c7 1bbe 2257 d2bc
000001c0: c7dd 32bc aff5 aabc c6c6 52bc ffe7 073e
000001d0: 8d10 ccbc 6a7f 24be 621f ffbc e845 febd
000001e0: abe6 bbbd c6ad 35be 8685 1c3c 5a92 e6bd
000001f0: 3767 06be 90e2 febd 563b 51bb 7e9d efbd
00000200: dd77 12be 4814 bbbd 856e 23bd 4571 e5bd
00000210: 1d9c 09be 639c b4bd 5001 9dbd fb4a ecbd
00000220: 5d73 14bd 2d54 0a3b 2d85 913d 9802 16bd
00000230: 4cf2 4cbd c595 98bc 53f1 1cbc 462c 31be
00000240: 511b cfbd d2aa 85bd 13fb 11be 912c 0fbe
00000250: a5f3 b0bd 988d a5bc 0ddb 2dbd fa21 5bbd
00000260: 8ac9 083e ff33 9abd a703 66bd 4b32 eebb
00000270: 5e75 f7bc 8ba8 0bbe 4bab 453c 9651 05be
00000280: cd5b 953d d901 debc dcf0 cfbd 9260 88be
00000290: a245 5ebd 2510 43be 1f11 be3d 296c b2bd
000002a0: a5b2 a4bd 2cc4 15be 4cbc 85bc 694c 16be
000002b0: 0559 44be bbab 36bd e966 92bd ad0e 953d
000002c0: f59e c2bd 87ce ccbd 6d61 70bd 1ff3 01bd
000002d0: aaed 19bd f3ce 3d3d 440f 8fbd 86dc 093b
000002e0: ecbf 2fbe 700f 033c 2ebd 35be 252e 1b3d
000002f0: 6489 62bb 95f8 583b 1993 3dbd e24f 04be
00000300: 8b61 73bd f344 133c 3b52 98bd 2282 463d
00000310: 5c13 db3d 06b5 09bd 6dbd 13bb 879c 94bc
00000320: 4b05 633c 7494 7e3d 6355 053c 4a26 23bd
00000330: cf6d 9fbc 416c d53d ce51 2dbd 4fb4 6abc
00000340: 7304 b43b 5094 c93d da1e 17bd d93d 72bd
00000350: 2690 223d c77f 653d bf14 4fbd 0ddb f83c
00000360: 3b9a c7bc e277 483c 0fff 093d a23d 0a3e
00000370: d275 4a3d a1e6 873d c57b 00be 2a50 f03d
00000380: ec97 993d bb94 893c 2b71 da3d 0e4f b03d
00000390: 882c 9e3c 4e38 e53b dc7e 9e3c 3aad 043e
000003a0: 7cca 4abd ebd7 93bd df7d 6f3d e768 c33d
000003b0: 13dc 02bc 62e6 d23d 96c1 76bc c1b1 4a3d
000003c0: 53d7 bf3c 6ce9 613d 7456 94bb 6160 a3bd
000003d0: 0ff4 033e 22c2 b73d f20c acbc e74a 7bbd
000003e0: e361 b6bd d265 b2bd df61 873b 85d4 e93d
000003f0: f0e1 993c a749 803d 6426 3b3d 9a45 4e3c

lstm.weight_hh_l0 f4 [512, 128]
-0.041003536 -0.15910655 -0.16834658 0.0035042367 -0.02739818 -0.030807314 -0.009953613 0.07297904
-0.105561 -0.16332427 -0.07638279 -0.09697191 -0.0970917 -0.10300782 -0.17069964 -0.054279476
0.18933298 -0.07444363 -0.0051388596 0.056105662 -0.0062828204 -0.05399545 -0.096812785 -0.0808439
0.0724282 -0.07416129 -0.027367944 0.027946677 -0.017991077 -0.09079324 -0.016259618 -0.08120267
0.04341006 -0.0933545 0.09759053 -0.044323437 0.017277053 -0.101389356 0.0040138555 0.11068823
0.14059404 -0.0013134688 0.039003693 -0.0010753486 0.18562122 -0.03137221 -0.13611796 0.13342032
0.0071740435 0.064026676 -0.13370484 0.005561726 -0.04812428 0.08335223 0.03858429 -0.06729818
0.009951618 0.0026211708 0.13206965 0.014354801 0.15984376 0.0896411 -0.0751861 0.15241951
0.09774784 -0.15875702 0.042585853 -0.048128575 -0.022800561 -0.017786419 -0.110909715 0.07315809
0.02816485 0.017855784 0.11301286 -0.03996287 0.11455668 -0.10357237 -0.16476017 -0.0902297
-0.036343213 0.05574336 0.13443999 -0.020243531 0.19206704 -0.035818383 -0.12848052 0.08368978
-0.07478776 0.09935182 0.16718674 -0.0205111 0.118820935 -0.097109534 -0.09515183 -0.057516802
0.018046606 0.051063742 0.027096592 0.12837753 -0.02225397 0.0740602 0.030547174 0.14652029
-0.00017938315 -0.12025122 0.113289416 0.07275964 -0.13406822 0.0383705 0.04115896 0.04696913
-0.055886526 0.045923457 0.03610676 -0.0061934483 -0.13073526 -0.062501684 0.08784967 0.09006397
-0.044996362 0.15361537 0.09123271 0.05759153 0.12013359 0.02444171 -0.16535026 0.07449601
-0.040232353 0.102442004 -0.07914151 0.024596337 0.046147376 0.005069417 -0.06542166 -0.0052255606
0.1191537 0.021699054 0.07432532 -0.06745921 0.0312305 -0.008965263 -0.17512882 -0.08827012
0.023699947 -0.08700288 -0.022939473 0.027150547 0.17846598 -0.1820952 -0.06713689 -0.13001554
0.00813693 0.15649933 -0.09952049 0.02795444 -0.018999454 0.009129755 0.01593993 -0.17307745
0.099698134 -0.10276091 0.035747148 0.07756362 0.121564046 -0.0383151 -0.045420192 0.07121544
0.033529278 -0.080825776 0.058234144 -0.064374134 0.06095318 -0.04605937 -0.09783878 0.046655368
-0.03584147 -0.05796944 -0.13399707 0.030912427 0.043707654 -0.116871856 0.011481125 -0.01521981
0.17209692 -0.033975244 0.060354136 -0.15981203 0.20356482 -0.12351174 -0.14792201 0.12746103
0.07249381 -0.15550429 0.05059867 0.14538077 -0.09193442 -0.14274856 0.14561458 -0.1730246
0.03880509 0.2011971 0.061750464 -0.16934109 0.061526235 0.02897735 0.121398136 -0.08059218
-0.15051119 0.088412255 -0.02463314 -0.16963159 -0.075858586 0.08617603 -0.1658805 0.061691824
0.12549272 -0.0048627765 0.15367265 -0.086630724 -0.056458827 -0.06727824 -0.053958125 -0.0525524
-0.0065346323 -0.07551778 -0.04302514 -0.08272281 0.08103407 0.058206532 -0.00034727465 0.004153352
0.021206673 -0.06262548 0.08103178 -0.012888494 -0.1216492 0.017279305 0.13628437 0.08742638
-0.014297168 0.12759049 0.03833042 -0.01773183 -0.110218085 -0.002762393 0.089773715 0.066741064
0.041626368 0.14006779 0.10922903 0.04778485 -0.012547365 0.1625927 -0.12950629 0.15825519
00000000: 53f3 27bd d4ec 22be 0c63 2cbe 56a7 653b
00000010: 2672 e0bc 9f5f fcbc 7b14 23bc 0976 953d
00000020: 5e30 d8bd 7a3e 27be 956e 9cbd 3599 c6bd
00000030: 03d8 c6bd c4f5 d2bd e3cb 2ebe 2854 5ebd
00000040: 81e0 413e e775 98bd e163 a8bb 0dcf 653d
00000050: 1ee0 cdbb 552a 5dbd c845 c6bd 7d91 a5bd
00000060: 3c55 943d e0e1 97bd bd32 e0bc 6ef0 e43c
00000070: 0662 93bc cef1 b9bd e432 85bc 964d a6bd
00000080: bfce 313d a530 bfbd 8bdd c73d 7e8c 35bd
00000090: 9b88 8d3c 39a5 cfbd a986 833b 83b0 e23d
000000a0: e2f7 0f3e b328 acba 56c2 1f3d b6f2 8cba
000000b0: 7d13 3e3e 2580 00bd 8262 0bbe 569f 083e
000000c0: 3d14 eb3b 6b20 833d ece9 08be 243f b63b
000000d0: f71d 45bd 93b4 aa3d 8f0a 1e3d a1d3 89bd
000000e0: 1c0c 233c f3c7 2b3b 443d 073e 6630 6b3c
000000f0: 15ae 233e c195 b73d 2cfb 99bd dc13 1c3e
00000100: 0530 c83d 3391 22be 816e 2e3d 7822 45bd
00000110: 3ec8 babc d3b4 91bc a224 e3bd e9d3 953d
00000120: f9b9 e63c 4b46 923c 4973 e73d 1bb0 23bd
00000130: b19c ea3d c01d d4bd e4b6 28be 59ca b8bd
00000140: 9fdc 14bd 2653 643d a3aa 093e c3d5 a5bc
00000150: 39ad 443e 4cb6 12bd 6690 03be 8c65 ab3d
00000160: 532a 99bd f878 cb3d 0033 2b3e e506 a8bc
00000170: 6458 f33d 5de1 c6bd f6de c2bd bd96 6bbd
00000180: 7ad6 933c 3728 513d acf9 dd3c 6675 033e
00000190: f54d b6bc e0ac 973d 113e fa3c 6a09 163e
000001a0: cc18 3cb9 4646 f6bd 4804 e83d 0203 953d
000001b0: 2e49 09be 632a 1d3d 4c96 283d b462 403d
000001c0: 45e9 64bd 3c1a 3c3d afe4 133d 69f2 cabb
000001d0: 77df 05be e200 80bd 87ea b33d 7573 b83d
000001e0: 1b4e 38bd 594d 1d3e 37d8 ba3d 19e5 6b3d
000001f0: 9a08 f63d fb39 c83c 9451 29be 5d91 983d
00000200: aeca 24bd 1dcd d13d f214 a2bd 427e c93c
00000210: 0805 3d3d 5a1d a63b cbfb 85bd 2e3b abbb
00000220: db06 f43d 37c2 b13c e037 983d 0e28 8abd
00000230: 1bd7 ff3c 0ae3 12bc f854 33be f7c6 b4bd
00000240: 6426 c23c 912e b2bd 90eb bbbc d36a de3c
00000250: c9bf 363e 2a77 3abe 117f 89bd cb22 05be
00000260: c250 053c 5c41 203e 66d1 cbbd b600 e53c
00000270: bea4 9bbc f894 153c 7594 823c 373b 31be
00000280: 892e cc3d 5074 d2bd 9a6b 123d add9 9e3d
00000290: 92f6 f83d 4bf0 1cbd 860a 3abd 67d9 913d
000002a0: ff55 093d fc87 a5bd ed86 6e3d 96d6 83bd
000002b0: 0baa 793d c0a8 3cbd b35f c8bd b319 3f3d
000002c0: 81ce 12bd 5d71 6dbd 8736 09be 0f3c fd3c
000002d0: cc06 333d 835a efbd 541b 3c3c 835c 79bc
000002e0: 2d3a 303e a029 0bbd e635 773d c4a5 23be
000002f0: 4c73 503e b9f3 fcbd de78 17be 2585 023e
00000300: a277 943d 843c 1fbe 8d40 4f3d b2de 143e
00000310: 1d48 bcbd ae2c 12be fd1b 153e 5c2d 31be
00000320: 16f2 1e3d 9d06 4e3e 0eee 7c3d c067 2dbe
00000330: ef02 7c3d e861 ed3c 969f f83d 830d a5bd
00000340: 9b1f 1abe 7c11 b53d 70cb c9bc e7b3 2dbe
00000350: bf5b 9bbd 0f7d b03d 94dc 29be 91b0 7c3d
00000360: 2a81 003e ed57 9fbb 5d5c 1d3e 736b b1bd
00000370: 5f41 67bd 2dc9 89bd 3203 5dbd 2f41 57bd
00000380: 7820 d6bb 11a9 9abd 213b 30bd 946a a9bd
00000390: 31f5 a53d f969 6e3d 6a12 b6b9 d818 883b
000003a0: 9eb9 ad3c ca41 80bd fdf3 a53d 432a 53bc
000003b0: 3723 f9bd 548d 8d3c 218e 0b3e 9a0c b33d
000003c0: ab3e 6abc 15a7 023e 5c00 1d3d 5842 91bc
000003d0: 05ba e1bd 4409 35bb 48db b73d 8aaf 883d
000003e0: 6980 2a3d ee6d 0f3e 78b3 df3d 0cba 433d
000003f0: 7793 4dbc b37e 263e 4c9d 04be a60d 223e

lstm.bias_ih_l0 f4 [512]
0.020496488 -0.11183378 -0.04957672 -0.0014995078 -0.086361855 -0.17598641 0.028975703 -0.0054895845
-0.11137114 -0.00707456 -0.051429637 0.0025291566 -0.11856336 -0.11825783 0.06781367 -0.12530045
-0.045248147 0.011927918 -0.015099879 0.13107044 -0.091482565 0.027109385 -0.113576 -0.029097183
-0.15692624 0.020004949 -0.055699944 -0.13924141 -0.04004271 0.018653205 -0.03289659 -0.008332649
-0.06973203 0.00012706353 0.06711656 -0.10378338 0.047385458 -0.045605242 0.05325461 0.07358197
-0.10664007 -0.026428593 -0.13077633 -0.008754825 -0.08088438 -0.10772142 -0.07812276 -0.039963055
0.0064783557 -0.009245232 0.013038133 -0.08955556 -0.14775592 -0.0013179994 -0.058876697 -0.009955526
-0.0023367545 -0.10527151 -0.035182025 0.06999853 0.0154318195 0.0057037957 -0.09401458 0.06332364
0.06744047 -0.0532145 -0.12538756 -0.102641575 -0.13250332 0.109258145 0.024669748 -0.19978864
0.052736763 -0.09385928 -0.04444009 -0.04354178 0.010971152 -0.02872579 -0.08764273 0.07014676
0.08617939 -0.012342465 0.07628047 0.05369036 -0.050269596 -0.08281328 0.0115161 0.009787888
-0.075933725 0.015523983 -0.028793288 -0.03762264 0.0051162657 0.0046111294 -0.1314867 0.016650576
-0.044440515 0.023552435 0.034926478 -0.11024281 0.01456618 -0.0195432 0.07277392 0.010328226
-0.05597591 0.113832094 0.011051482 -0.14765194 0.03170517 0.008266367 -0.017579155 0.08414053
-0.08942084 0.04292069 -0.0056102565 -0.08392686 -0.025158113 0.048359666 -0.012302379 -0.09676911
0.08534407 -0.08591245 -0.17438126 -0.001798739 -0.10853082 0.060527448 -0.07001524 0.031978924
-0.08523168 -0.08511851 0.03783793 -0.00731178 0.028455809 0.0025653148 -0.039149664 -0.026141448
-0.11693923 -0.049818486 -0.07566312 0.059486974 -0.051557127 -0.03368034 -0.074847 -0.079413235
-0.009683225 -0.0550528 -0.00016042826 0.114696585 0.15792613 -0.07406067 -0.068968065 -0.06342129
-0.10829909 0.08780018 -0.002481551 0.015379459 0.044095393 0.0002923274 0.04817357 0.02170182
0.015641635 0.04867773 0.048706833 -0.09807115 -0.0031719329 0.013422094 -0.09898193 0.12254566
-0.0036875939 0.05001716 -0.1698124 0.037354123 0.014601383 0.008011253 0.04443828 -0.043670084
-0.12934618 0.021784313 0.037023917 -0.031029439 -0.13507305 -0.1343076 0.082435414 0.14722145
-0.02624685 -0.116221815 0.12045328 0.11677802 0.11405369 -0.04461663 0.04402497 0.11775448
-0.06498561 0.06036679 -0.13976118 0.011530086 0.13729057 0.03453752 -0.032892905 -0.029967425
0.047314472 0.097014844 -0.012240929 -0.0070834677 -0.11447933 0.03311009 0.08691527 0.116582766
0.09756425 0.1013737 0.04605929 0.081780724 -0.06947847 0.027327249 0.012631739 -0.046198834
-0.041528806 0.12197594 0.09045458 -0.027963746 -0.14805472 0.012298728 -0.06957341 -0.04637495
0.034114737 0.05154148 -0.054822158 0.013165878 0.032523606 0.1303335 -0.009297906 -0.038470633
0.11201262 0.025332889 0.06459264 -0.07623566 -0.0025883876 0.035688724 0.06973739 0.10483413
0.15150757 -0.044487398 -0.047496654 -0.06260392 -0.120707475 -0.068375066 0.003465782 -0.1386321
0.07470083 0.05633574 -0.04986532 -0.05128671 0.029090397 0.060618788 0.0073077227 0.0069234394
00000000: 40e8 a73c 1c09 e5bd f510 4bbd 228b c4ba
00000010: 7cde b0bd c835 34be 745e ed3c f9e1 b3bb
00000020: 8d16 e4bd b6d1 e7bb e2a7 52bd 35c0 253b
00000030: 59d1 f2bd 2931 f2bd e5e1 8a3d c34e 00be
00000040: 1f56 39bd 506d 433c 7c65 77bc 5437 063e
00000050: 365b bbbd 8014 de3c 899a e8bd 375d eebc
00000060: 46b1 20be 6be1 a33c a025 64bd 4d95 0ebe
00000070: d303 24bd 9bce 983c 93be 06bd aa85 08bc
00000080: abcf 8ebd 5b3c 0539 6874 893d 618c d4bd
00000090: 4117 423d 90cc 3abd 8221 5a3d 25b2 963d
000000a0: 1c66 dabd c780 d8bc 3bea 05be 6670 0fbc
000000b0: b6a6 a5bd 0c9d dcbd d3fe 9fbd 4db0 23bd
000000c0: 6348 d43b 5079 17bc e59d 553c e868 b7bd
000000d0: 544d 17be b9c0 acba b128 71bd 811c 23bc
000000e0: 3c24 19bb 9798 d7bd 071b 10bd 645b 8f3d
000000f0: bed5 7c3c e8e6 ba3b b78a c0bd d3af 813d
00000100: 3b1e 8a3d 73f7 59bd 9965 00be bf35 d2bd
00000110: f3ae 07be bcc2 df3d 3618 ca3c 6595 4cbe
00000120: 8102 583d 4b39 c0bd d006 36bd de58 32bd
00000130: 59c0 333c 5952 ebbc 087e b3bd 1ba9 8f3d
00000140: d27e b03d 0d38 4abc ef38 9c3d 6cea 5b3d
00000150: 7ee7 4dbd 029a a9bd 06ae 3c3c 615d 203c
00000160: 2483 9bbd 4e58 7e3c e7df ebbc 331a 1abd
00000170: 59a6 a73b f518 973b 73a4 06be ca66 883c
00000180: 4207 36bd 09f1 c03c 110f 0f3d fbc6 e1bd
00000190: fda6 6e3c 1019 a0bc 7e0a 953d b837 293c
000001a0: ff46 65bd cd20 e93d 4611 353c 1232 17be
000001b0: 48dd 013d a86f 073c 2902 90bc df51 ac3d
000001c0: 4622 b7bd 9bcd 2f3d 3ed6 b7bb d8e1 abbd
000001d0: 6318 cebc c914 463d eb8f 49bc e22e c6bd
000001e0: dfc8 ae3d def2 afbd 0091 32be aac3 ebba
000001f0: 6845 debd a1eb 773d 2664 8fbd 55fc 023d
00000200: f28d aebd 9d52 aebd f2fb 1a3d a897 efbb
00000210: 281c e93c d71e 283b 665b 20bd 9726 d6bc
00000220: d67d efbd 780e 4cbd 44f5 9abd 9da8 733d
00000230: 912d 53bd 65f4 09bd 6249 99bd 68a3 a2bd
00000240: 64a6 1ebc 0b7f 61bd a238 28b9 0be6 ea3d
00000250: 63b7 213e 1fad 97bd 213f 8dbd 05e3 81bd
00000260: eacb ddbd 95d0 b33d 84a1 22bb 20fa 7b3c
00000270: 5f9d 343d 8543 9939 a651 453d 04c8 b13c
00000280: e322 803c 4d62 473d d180 473d 87d9 c8bd
00000290: 34e0 4fbb 58e8 5b3c 0ab7 cabd 38f9 fa3d
000002a0: 8fab 71bb cbde 4c3d 4de3 2dbe a300 193d
000002b0: a43a 6f3c a141 033c ea04 363d 67df 32bd
000002c0: 5373 04be 0475 b23c 64a6 173d 7331 febc
000002d0: 9750 0abe ee87 09be e6d3 a83d 38c1 163e
000002e0: a203 d7bc b405 eebd 36b0 f63d 5129 ef3d
000002f0: fb94 e93d edbf 36bd 8753 343d 4329 f13d
00000300: 2d17 85bd 2b43 773d 8e1d 0fbe b0e8 3c3c
00000310: e695 0c3e 3777 0d3d b6ba 06bd 3f7e f5bc
00000320: d2cc 413d b8af c63d 2d8e 48bc 6f1c e8bb
00000330: 2474 eabd 729e 073d a200 b23d f2c2 ee3d
00000340: c4cf c73d 049d cf3d aba8 3c3d a77c a73d
00000350: ba4a 8ebd 65dd df3c 5af5 4e3c fd3a 3dbd
00000360: 1c1a 2abd 86ce f93d 4040 b93d 3a14 e5bc
00000370: a89b 17be 9b80 493c 817c 8ebd a9f3 3dbd
00000380: e5bb 0b3d 291d 533d 338d 60bd b2b5 573c
00000390: 7937 053d 2576 053e 3f56 18bc 6293 1dbd
000003a0: df66 e53d eb86 cf3c 2549 843d 7121 9cbd
000003b0: f0a1 29bb 572e 123d 7ad2 8e3d 47b3 d63d
000003c0: cd24 1b3e 6b38 36bd da8b 42bd 7c36 80bd
000003d0: 7b35 f7bd 3a08 8cbd 2c22 633b 93f5 0dbe
000003e0: c0fc 983d 4ec0 663d 943f 4cbd 0312 52bd
000003f0: fc4e ee3c 684b 783d 9f75 ef3b 05de e23b

lstm.bias_hh_l0 f4 [512]
0.009507232 0.0014952498 0.080780156 0.049409382 -0.03479984 -0.11862049 0.07839632 0.022830013
-0.09745998 -0.0875174 -0.12273846 -0.023545869 0.01276146 -0.14982922 -0.026589075 -0.04510999
-0.0657341 -0.09105339 0.0368509 0.10428121 -0.09333363 -0.09090109 -0.1151435 -0.05613539
-0.12564234 0.055930972 0.03131195 -0.09923866 -0.1213865 -0.012860519 0.097684644 0.12147926
0.05934848 -0.06575947 0.0026316359 -0.11895556 -0.057894547 -0.109544136 0.016998623 -0.017858386
-0.091165245 -0.024766834 -0.13775897 -0.14494519 0.018410312 -0.12845196 -0.03840628 0.010084405
-0.028157355 -0.114538744 0.036026895 0.015256337 -0.14464538 6.9499e-06 -0.052119393 -0.065278545
-0.008286315 -0.09491841 0.012666652 0.12729494 -0.0717413 0.007982908 -0.021786831 0.002868197
-0.036780994 -0.07794883 -0.16429919 -0.10813365 -0.10776837 0.018047525 -0.032613106 -0.2236938
0.009342772 -0.0422586 0.09797518 -0.0013066485 -0.11325223 -0.014378131 -0.049895257 0.053629797
0.15236314 -0.0033493335 0.0025064237 -0.06922433 -0.10760633 -0.04401993 -0.043710787 -0.043762762
0.07713835 0.11753154 0.04920395 -0.10921033 -0.052017853 0.077838264 -0.015231756 0.010734124
-0.019524252 -0.06065235 -0.051423404 -0.07799141 -0.013713351 -0.05353667 0.05686684 -0.09470827
0.036578093 -0.005823207 0.029768415 -0.056817207 -0.019983953 -0.051516395 -0.17294124 0.078688405
-0.09553366 0.02458705 0.053733345 -0.113648884 -0.07735695 0.03129016 -0.014571145 0.033857383
-0.07898288 0.00030366794 -0.16764608 -0.053373463 -0.12694484 0.09666367 -0.10010534 -0.009456896
0.043538317 -0.028019411 -0.017393798 0.00057757116 -0.06058302 0.097952485 0.12147033 0.1057525
-0.070513576 -0.09650128 0.03969385 -0.09323576 -0.046017982 -0.0360152 0.07041604 -0.044197496
-0.08968816 0.0006669746 0.010207146 0.12960196 0.013487737 -0.03601473 -0.074688174 -0.030469287
-0.058661584 0.13780294 -0.008994971 0.027157689 0.0113629 0.00966589 -0.041386686 0.06644808
-0.036244843 -0.08483748 0.007986676 -0.00786996 0.10836513 -0.008652794 -0.09046847 0.10200958
0.041633874 0.056495156 -0.16624664 0.022390218 0.06584301 -0.08381987 0.06197083 0.023104763
-0.106644206 -0.08927899 0.04102163 0.021642884 -0.1383073 -0.16570556 0.061151322 0.15050337
0.026482724 -0.027312273 0.06551104 0.0015374124 0.037943784 0.082433045 0.050131705 0.0807848
0.05976395 0.06660798 -0.041321855 0.029629193 0.043538325 0.10083854 0.026536774 -0.092882015
0.03244338 -0.006776101 0.09548249 -0.015023653 0.01548553 0.040912386 -0.047854207 -0.012617971
0.037078284 0.046630356 0.007098782 0.09184886 0.055880222 0.029496042 0.072500415 0.027188366
0.05079701 0.13452819 -0.07463971 0.040442333 -0.04974843 0.14757945 -0.037757788 -0.058263864
-0.047239855 0.012976698 0.055678707 -0.08132211 0.010057571 0.053514298 0.14097829 -0.045777507
0.09713829 0.10224491 0.06234395 -0.0025990442 0.0547785 -0.09587277 0.050400868 0.015999945
0.108101524 -0.006887082 0.0115183685 -0.14113042 -0.054116983 0.039712574 0.0006722048 -0.07704576
0.08047955 -0.064320296 0.089512475 0.030989278 0.05634958 0.058186106 0.033523895 0.08415561
00000000: 39c4 1b3c 42fc c33a 1170 a53d 7e61 4a3d
00000010: 478a 0ebd 4def f2bd 408e a03d 0206 bb3c
00000020: 1999 c7bd 533c b3bd 4d5e fbbd 44e3 c0bc
00000030: 7115 513c d56c 19be 55d1 d9bc 41c5 38bd
00000040: 9a9f 86bd 337a babd f8f0 163d 6391 d53d
00000050: b425 bfbd 5a2a babd 5bd0 ebbd 39ee 65bd
00000060: 63a8 00be e017 653d f640 003d a33d cbbd
00000070: 7c99 f8bd edb4 52bc e30e c83d 1eca f83d
00000080: 6417 733d e7ac 86bd 8677 2c3b f99e f3bd
00000090: d522 6dbd ad58 e0bd b240 8b3c c04b 92bc
000000a0: d8b4 babd d1e3 cabc b010 0dbe 836c 14be
000000b0: 39d1 963c e988 03be e74f 1dbd 0f39 253c
000000c0: 41aa e6bc 4a93 eabd f090 133d b7f5 793c
000000d0: eb1d 14be 3033 e936 257b 55bd c2b0 85bd
000000e0: 53c3 07bc 9564 c2bd ca87 4f3c 9b59 023e
000000f0: 1aed 92bd beca 023c 4c7a b2bc 5cf8 3b3b
00000100: aba7 16bd a3a3 9fbd 0c3e 28be 2d75 ddbd
00000110: aab5 dcbd 67d8 933c 5295 05bd fd0f 65be
00000120: 6d12 193c 5b17 2dbd 36a7 c83d d943 abba
00000130: c9f0 e7bd 4192 6bbc f85e 4cbd ebaa 5b3d
00000140: 1505 1c3e 7e80 5bbb d042 243b 7cc5 8dbd
00000150: b560 dcbd 3e4e 34bd 150a 33bd 9540 33bd
00000160: b6fa 9d3d 60b4 f03d 158a 493d aaa9 dfbd
00000170: ac10 55bd ab69 9f3d 9d8e 79bc 2ede 2f3c
00000180: 53f1 9fbc 996e 78bd 59a1 52bd f6b9 9fbd
00000190: f7ad 60bc 4449 5bbd 34ed 683d 69f6 c1bd
000001a0: e9d2 153d 9ad0 bebb e4dc f33c 29b9 68bd
000001b0: 63b5 a3bc db02 53bd 8217 31be 6327 a13d
000001c0: 27a7 c3bd c86a c93c 7f17 5c3d bfc0 e8bd
000001d0: 526d 9ebd 1c2a 003d d0bb 6ebc 0aae 0a3d
000001e0: c7c1 a1bd 9f35 9f39 6aab 2bbe 229e 5abd
000001f0: d4fd 01be 9af7 c53d 0704 cdbd 19f1 1abc
00000200: 3c55 323d f788 e5bc 707d 8ebc 2568 173a
00000210: e725 78bd 509b c83d 70c5 f83d c494 d83d
00000220: 6c69 90bd 77a2 c5bd 0596 223d 64f2 bebd
00000230: 5a7d 3cbd ad84 13bd 4936 903d 6f08 35bd
00000240: 6dae b7bd e8d7 2e3a e03b 273c 60b6 043e
00000250: abfb 5c3c 2e84 13bd 1df6 98bd ba9a f9bc
00000260: 2147 70bd 371c 0d3e a55f 13bc cd79 de3c
00000270: 752b 3a3c ae5d 1e3c 1685 29bd ee15 883d
00000280: 7975 14bd 46bf adbd 8cda 023c 01f1 00bc
00000290: 8aee dd3d 73c4 0dbc 8847 b9bd 66ea d03d
000002a0: 4888 2a3d 7767 673d 8f3c 2abe b16b b73c
000002b0: b3d8 863d c1a9 abbd 20d5 7d3d 3346 bd3c
000002c0: 4768 dabd e7d7 b6bd 4c06 283d 6b4c b13c
000002d0: 6ea0 0dbe b8ae 29be cf79 7a3d 8e1d 1a3e
000002e0: 4cf2 d83c fdbd dfbc a72a 863d 0083 c93a
000002f0: f16a 1b3d a8d2 a83d e756 4d3d 8072 a53d
00000300: 0bcb 743d c469 883d 1b41 29bd ecb8 f23c
00000310: 3e55 323d 7084 ce3d a663 d93c ed38 bebd
00000320: 5ae3 043d 0e0a debb 538c c33d c525 76bc
00000330: 05b7 7d3c bf93 273d c602 44bd 9bbb 4ebc
00000340: 66df 173d 79ff 3e3d e69c e83b 411b bc3d
00000350: a9e2 643d afa1 f13c 197b 943d 23ba de3c
00000360: 8710 503d c2c1 093e b4dc 98bd dca6 253d
00000370: 02c5 4bbd 111f 173e e9a7 1abd 17a6 6ebd
00000380: 947e 41bd 379c 543c 5b0f 643d 358c a6bd
00000390: 83c8 243c cf31 5b3d 9d5c 103e 3281 3bbd
000003a0: 71f0 c63d c865 d13d 5f5c 7f3d ba54 2abb
000003b0: 6c5f 603d f158 c4bd 2471 4e3d 5112 833c
000003c0: 5564 dd3d 08ad e1bb 8ab7 3c3c 7e84 10be
000003d0: c5a9 5dbd a7a9 223d e736 303a 2bca 9dbd
000003e0: 76d2 a43d 5cba 83bd 5152 b73d 3add fd3c
000003f0: d1ce 663d 8e54 6e3d 5a50 093d c759 ac3d

fc.weight f4 [2, 128]
0.195296 0.11010707 -0.35245636 0.0786796 0.17305565 -0.34362784 0.011010978 0.009148947
0.00655089 0.032855358 0.13610381 -0.37090576 0.10973412 0.028536776 -0.09359954 -0.022149345
-0.11624679 0.04251862 -0.17079352 0.037710287 0.20686267 -0.12349262 -0.25434348 0.027052624
0.14380565 -0.21545278 0.052439835 -0.21790218 0.21841668 0.29474398 0.007059626 -0.045180537
-0.16469198 0.056349996 0.16601647 0.07890362 0.07042246 0.15420705 -0.3728086 -0.13905168
-0.05522783 0.17747457 -0.010773281 0.10015991 0.044717193 -0.01804395 -0.37226105 -0.0998814
0.07669342 0.27559775 -0.25990778 -0.022749329 0.023085695 0.21528836 0.39563352 -0.21600625
0.033930264 -0.01599015 0.02276664 -0.15522085 0.21618743 0.17836139 0.026331577 0.21507435
-0.096860014 -0.16987672 -0.28037012 -0.17451362 -0.36293325 0.06670706 -0.35690075 -0.3035976
-0.06212395 0.2243198 0.11417022 -0.17598455 0.28806147 0.19102551 0.2654105 -0.0992795
-0.060597397 0.3178932 -0.23072271 -0.18795599 0.0279659 -0.13407618 -0.07743292 -0.09332336
-0.1835501 0.006961381 0.08737485 0.25213873 0.37294656 -0.10828735 0.022365466 -0.38782996
-0.31571954 -0.099426776 -0.21927927 -0.19509038 0.00953349 0.21653587 -0.021966316 -0.038311742
-0.045708217 -0.1374326 -0.29395822 0.1574308 0.05520782 0.050051752 0.38435104 -0.09167927
-0.34413975 0.13243443 0.06209139 0.43485293 0.14553392 0.21357565 -0.1196009 0.2877313
-0.16586857 0.07989444 0.2482148 0.2914432 0.35378668 0.05601933 -0.40215003 -0.019970136
-0.16202797 -0.26082015 0.2367282 -0.101421505 -0.14534873 0.3337885 -0.016601585 -0.078980416
-0.011124162 0.0639437 -0.22417815 0.4196208 -0.24865216 -0.0922547 0.061917394 -0.0554696
0.029614251 -0.0485413 0.14047465 -0.029420784 -0.17658588 0.22222172 0.24036157 -0.07283825
-0.2526555 0.1631555 0.055908557 0.18398911 -0.1502009 -0.35138822 -0.071046315 0.19352044
0.1591721 -0.018341566 -0.14617577 -0.015834648 0.06115037 -0.017244425 0.37980264 0.07341176
0.031285603 -0.08587802 -0.06167873 -0.21672249 -0.08432328 -0.05670511 0.28327522 -0.0026841392
-0.061458167 -0.30823696 0.34424242 -0.04703623 -0.058785178 -0.28103396 -0.40309983 0.30610418
0.07842628 -0.016598018 0.030225279 0.09725494 -0.154026 -0.1381058 0.032032643 -0.16502
0.08974364 0.1162093 0.27616352 0.049082164 0.33352628 -0.0040394007 0.33870798 0.22953902
-0.020206403 -0.06869848 -0.01508408 0.17693155 -0.29896972 -0.16099042 -0.25367907 -0.032947775
0.17909725 -0.31133404 0.07004267 0.10408087 0.06850153 0.24420877 0.091893636 0.008686448
0.16495411 0.020625986 -0.11322491 -0.22886111 -0.3879229 0.020628877 -0.08732317 0.40168026
0.3323017 -0.03972475 0.10861898 0.32968664 0.042355105 -0.23031457 0.0015822456 0.10429739
0.08537443 0.021132981 0.34239376 -0.113565944 -0.120804355 -0.09110265 -0.35588276 0.08179921
0.32025775 -0.23743336 -0.03288769 -0.40146446 -0.086216755 -0.16094737 0.052263666 -0.33835107
0.14322668 -0.056787558 -0.33525902 -0.24283859 -0.29681802 -0.14595903 0.29056346 0.08217634
00000000: adfb 473e d17f e13d 2975 b4be c522 a13d
00000010: 8035 313e fdef afbe 6467 343c 77e5 153c
00000020: d9a8 d63b 5793 063d cc5e 0b3e 5ce7 bdbe
00000030: 48bc e03d f5c5 e93c 1eb1 bfbd 8b72 b5bc
00000040: cc12 eebd 0128 2e3d 7fe4 2ebe 1a76 1a3d
00000050: cfd3 533e b3e9 fcbd 4f39 82be 779d dd3c
00000060: ca41 133e a79f 5cbe 27cb 563d c021 5fbe
00000070: 9fa8 5f3e afe8 963e 6f54 e73b 3a0f 39bd
00000080: 04a5 28be 41cf 663d 3900 2a3e 3998 a13d
00000090: a739 903d 74e8 1d3e c5e0 bebe 9063 0ebe
000000a0: 9436 62bd e5bb 353e 6a82 30bc a420 cd3d
000000b0: 6029 373d e8d0 93bc 0099 bebe 9f8e ccbd
000000c0: 7111 9d3d 261b 8d3e a212 85be cd5c babc
000000d0: 361e bd3c 8d74 5c3e 7a90 ca3e be30 5dbe
000000e0: 76fa 0a3d c6fd 82bc 1b81 ba3c 37f2 1ebe
000000f0: 3d60 5d3e 5ea4 363e 52b5 d73c 733c 5c3e
00000100: 8b5e c6bd 2af4 2dbe ac8c 8fbe b3b3 32be
00000110: 63d2 b9be b69d 883d b2bb b6be 2571 9bbe
00000120: af75 7ebd 17b4 653e 14d2 e93d 4b35 34be
00000130: cb7c 933e 319c 433e e3e3 873e 0d53 cbbd
00000140: fa34 78bd e6c2 a23e 9342 6cbe 8977 40be
00000150: be18 e53c 444b 09be 2795 9ebd 5120 bfbd
00000160: 8ff4 3bbe 4c1c e43b 96f1 b23d 5418 813e
00000170: daf2 be3e c2c5 ddbd c837 b73c a691 c6be
00000180: fea5 a1be 44a0 cbbd bf8a 60be c6c5 47be
00000190: 5b32 1c3c 94bb 5d3e b4f2 b3bc c6ec 1cbd
000001a0: 8a38 3bbd 22bb 0cbe b181 96be 8a35 213e
000001b0: 9821 623d 1103 4d3d a9c9 c43e 57c2 bbbd
000001c0: 1633 b0be e49c 073e 8b53 7e3d 0ba5 de3e
000001d0: d806 153e 93b3 5a3e 51f1 f4bd 8451 933e
000001e0: 73d9 29be b29f a33d 052c 7e3e 0b38 953e
000001f0: 8723 b53e 8674 653d 9ce6 cdbe 6998 a3bc
00000200: a9ea 25be 388a 85be e168 723e 14b6 cfbd
00000210: 4cd6 14be 54e6 aa3e 0c00 88bc 7cc0 a1bd
00000220: 1e42 36bc eaf4 823d f58e 65be 8ad8 d63e
00000230: ac9e 7ebe 08f0 bcbd 189d 7d3d 1734 63bd
00000240: 9699 f23c 3ed3 46bd 96d8 0f3e db03 f1bc
00000250: eed2 34be 178e 633e 5821 763e 382c 95bd
00000260: 105c 81be 3c12 273e 5f00 653d a467 3c3e
00000270: 44ce 19be 28e9 b3be bb80 91bd 392a 463e
00000280: 03fe 223e 0d41 96bc 1aaf 15be aab7 81bc
00000290: cf78 7a3d 2e44 8dbc 7e75 c23e e858 963d
000002a0: 5525 003d d1e0 afbd d6a2 7cbd 80ec 5dbe
000002b0: afb1 acbd 9e43 68bd 7309 913e 62e8 2fbb
000002c0: 8fbb 7bbd 3cd1 9dbe 8b40 b03e 10a9 40bd
000002d0: bac8 70bd afe3 8fbe 1a63 cebe b0b9 9c3e
000002e0: f59d a03d 91f8 87bc 019b f73c 992d c73d
000002f0: feb8 1dbe 9b6b 0dbe a934 033d 01fb 28be
00000300: 83cb b73d 24ff ed3d 4e65 8d3e 610a 493d
00000310: f5c3 aa3e f35c 84bb 226b ad3e 470c 6b3e
00000320: e687 a5bc cab1 8cbd 3823 77bc 8b2d 353e
00000330: 8f12 99be acda 24be 39e2 81be 3ff4 06bd
00000340: 4565 373e 2d67 9fbe 8872 8f3d 5a28 d53d
00000350: 884a 8c3d dd11 7a3e bb32 bc3d 9b51 0e3c
00000360: bbe9 283e d4f7 a83c 76e2 e7bd 915a 6abe
00000370: d59d c6be e4fd a83c 7dd6 b2bd 09a9 cd3e
00000380: 7323 aa3e 6bb6 22bd a173 de3d b0cc a83e
00000390: 8c7c 2d3d 95d7 6bbe 5a63 cf3a df99 d53d
000003a0: cad8 ae3d 131f ad3c 3c4e af3e 4395 e8bd
000003b0: 4668 f7bd 0794 babd 4436 b6be 5886 a73d
000003c0: d3f8 a33e bb21 73be 3eb5 06bd c08c cdbe
000003d0: 6992 b0bd 63cf 24be 6d12 563d 5a3c adbe
000003e0: 04aa 123e 129a 68bd 12a7 abbe aeaa 78be
000003f0: 88f8 97be 4976 15be bcc4 943e 124c a83d

fc.bias f4 [2]
0.054890405 -0.016539
00000000: c3d4 603d cc7c 87bc
