Models/cnn_lstm_model_stream_Nstream_manual_split1_0,75.pth (torch, 408264 bytes, 8 tensors)

conv1.weight f4 [64, 8, 3]
0.21924283 0.021018045 0.2714051 -0.038173642 -0.0060360716 0.325264 0.11920366 -0.072115354
0.09758861 0.022065826 0.19723321 0.05521489 -0.15268746 -0.055565163 0.041122198 -0.30397496
-0.12688091 -0.121244855 -0.07698423 0.12899365 -0.05242612 0.2390612 0.1438462 -0.094935216
0.0048872214 0.11502074 0.11110677 -0.04628904 -0.16019352 0.32311773 0.32834536 0.08509762
0.0562209 0.031015031 0.12676018 -0.05659205 0.14271536 -0.004645317 0.15142079 -0.074594
-0.049977493 -0.18090239 0.11322912 -0.04060191 -0.0006977201 -0.13907398 -0.03896778 0.13171722
0.1129468 0.06432283 0.0541509 -0.03838908 0.11129401 -0.0839799 0.22553971 0.03977591
0.1668878 0.25127172 0.32105076 0.20139657 -0.007057642 0.30049098 -0.025069902 0.009224955
0.04779747 0.10363244 0.20641461 0.2752194 -0.16231649 -0.15582545 0.07909384 0.16448672
0.08496285 0.20754637 0.16547543 0.19787398 -0.053919725 0.3621451 0.3906251 -0.04602565
0.20718016 0.09903086 0.2744068 -0.06899022 0.04006892 -0.16440183 -0.11625439 -0.22482796
-0.14539292 -0.27164105 0.13457455 0.17340477 0.17805068 0.16921742 -0.04763961 -0.010439048
-0.14003538 -0.14626457 -0.12104637 -0.04924493 -0.06821031 0.24287722 -0.118624695 0.1694207
-0.19001591 0.31015 0.08249077 0.25000864 0.08538021 -0.01261893 0.018460458 0.11916274
-0.002130917 0.14793798 -0.08002411 0.2101869 -0.050624467 0.07294018 0.12298661 0.14989401
-0.092192695 -0.1962967 -0.05971028 -0.13721174 -0.2201165 -0.31484365 0.031556565 0.15415993
-0.21238965 -0.44869867 -0.28832346 0.08908639 0.02984582 0.041506946 0.21929197 -0.065130115
-0.12860113 0.014586433 -0.01891714 0.07673527 0.21032697 0.20755811 -0.026553499 -0.025936583
-0.28587222 0.27276272 0.038857114 -0.24606922 -0.27595678 -0.14966948 -0.07545727 -0.056823224
-0.15942499 0.0070446697 -0.1586271 -0.13239385 -0.06449875 0.088030584 -0.14822796 0.23002714
-0.10371404 0.08844914 -0.28847873 -0.11619328 0.020401664 -0.16642046 -0.15141016 -0.057235677
0.14826137 0.15360805 0.037316017 -0.06772888 0.060502443 0.1647916 0.21018723 0.24539746
-0.00802358 0.05252909 -0.1529074 0.06407966 -0.09614544 -0.10488723 -0.091079615 -0.103063434
-0.008870476 -0.23724765 0.06892066 -0.058552675 0.05302205 0.24066842 -0.077603385 0.00905417
0.43253097 -0.05142313 -0.28175125 0.095010914 -0.13798486 0.14209895 -0.05610464 0.04637524
0.29707256 0.24785551 -0.15890473 -0.09477345 -0.22273235 0.11597563 0.031448748 0.18729575
-0.17085227 0.006748944 0.20198075 -0.100110665 -0.22544001 0.063555785 0.14778228 -0.20399669
-0.1452201 -0.061367027 -0.12512904 0.039148163 0.15396744 0.058175683 0.25093096 -0.26241973
0.16649708 -0.107265875 0.09402493 -0.14031886 -0.13715012 -0.10541864 -0.095901765 0.039268933
0.12772329 0.10511278 -0.0059432318 -0.16590734 -0.014931545 0.08030665 -0.030353706 0.14646645
0.13206184 0.3925575 -0.043929808 -0.2453725 0.13399692 -0.044349834 -0.15837045 -0.16997387
0.15578082 0.31907436 0.07538142 0.1365836 -0.034001883 -0.06562873 0.1796765 -0.2046861
00000000: 3181 603e 092e ac3c 9cf5 8a3e f75b 1cbd
00000010: 3dca c5bb 0189 a63e 0c21 f43d 37b1 93bd
00000020: 8adc c73d 64c3 b43c 81f7 493e 0229 623d
00000030: 1a5a 1cbe 4c98 63bd c06f 283d 9ba2 9bbe
00000040: 12ed 01be 394f f8bd e8a9 9dbd e916 043e
00000050: c5bc 56bd 76cc 743e 6b4c 133e 656d c2bd
00000060: fc24 a03b fe8f eb3d f28b e33d 9499 3dbd
00000070: c509 24be b06f a53e e21c a83e a947 ae3d
00000080: e347 663d 3c13 fe3c 6ccd 013e 11cd 67bd
00000090: fa23 123e be37 98bb 0d0e 1b3e bdc4 98bd
000000a0: 33b5 4cbd 7a3e 39be abe4 e73d 304e 26bd
000000b0: 34e7 36ba 6969 0ebe ae9c 1fbd e1e0 063e
000000c0: a750 e73d b0bb 833d 56cd 5d3d de3d 1dbd
000000d0: 1dee e33d a7fd abbd e2f3 663e 11ec 223d
000000e0: a3e4 2a3e b0a6 803e c460 a43e e73a 4e3e
000000f0: cb43 e7bb f4d9 993e 655f cdbc 4424 173c
00000100: 48c7 433d 3f3d d43d 5a5e 533e 8fe9 8c3e
00000110: 4b36 26be b590 1fbe f4fb a13d 356f 283e
00000120: 0101 ae3d 0987 543e 6472 293e 7a9f 4a3e
00000130: eeda 5cbd 156b b93e 0300 c83e 6485 3cbd
00000140: 0927 543e b1d0 ca3d 0c7f 8c3e bf4a 8dbd
00000150: 4f1f 243d f458 28be c816 eebd 4d39 66be
00000160: e2e1 14be 8914 8bbe e9cd 093e 0591 313e
00000170: eb52 363e 5547 2d3e c021 43bd 8a08 2bbc
00000180: 6f65 0fbe 61c6 15be 29e7 f7bd 0db5 49bd
00000190: d9b1 8bbd ceb4 783e 81f1 f2bd 9f7c 2d3e
000001a0: 8893 42be fbcb 9e3e ecf0 a83d 2201 803e
000001b0: d2db ae3d a1bf 4ebc 633a 973c 980b f43d
000001c0: dba6 0bbb 0e7d 173e aee3 a3bd 3c3b 573e
000001d0: 9a5b 4fbd a961 953d 67e0 fb3d d17d 193e
000001e0: 86cf bcbd 0102 49be c492 74bd 3c81 0cbe
000001f0: 3866 61be 3033 a1be 7541 013d 1adc 1d3e
00000200: ac7c 59be d5bb e5be 229f 93be ed72 b63d
00000210: 397f f43c 3003 2a3d 138e 603e f062 85bd
00000220: 04b0 03be effb 6e3c 1ef8 9abc 6227 9d3d
00000230: f45f 573e 1d8a 543e b986 d9bc f578 d4bc
00000240: d85d 92be 8ea7 8b3e a328 1f3d 92f9 7bbe
00000250: 354a 8dbe f542 19be 5789 9abd 78bf 68bd
00000260: 4e40 23be f9d6 e63b 246f 22be 4192 07be
00000270: ec17 84bd 6149 b43d 12c9 17be 3c8c 6b3e
00000280: 0768 d4bd d324 b53d 7cb3 93be bef6 edbd
00000290: 6421 a73c 206a 2abe 440b 1bbe f56f 6abd
000002a0: d4d1 173e 6e4b 1d3e aed8 183d 70b5 8abd
000002b0: 69d1 773d 21bf 283e 523b 573e 7949 7b3e
000002c0: 5575 03bc be28 573d c293 1cbe 323c 833d
000002d0: e7e7 c4bd 1ecf d6bd f387 babd ec12 d3bd
000002e0: 7955 11bc 0cf1 72be 4626 8d3d eed4 6fbd
000002f0: a62d 593d c871 763e 86ee 9ebd f157 143c
00000300: b374 dd3e 0fa1 52bd b341 90be 1595 c23d
00000310: e74b 0dbe 6382 113e fbcd 65bd f7f3 3d3d
00000320: e519 983e d6cd 7d3e ecb7 22be 9518 c2bd
00000330: f313 64be a284 ed3d 67d0 003d 75ca 3f3e
00000340: e6f3 2ebe 3f26 dd3b 0bd4 4e3e d206 cdbd
00000350: bfd9 66be 8929 823d 3d54 173e 82e4 50be
00000360: 94b4 14be fe5b 7bbd d421 00be d359 203d
00000370: a4a9 1d3e a049 6e3d 067a 803e e15b 86be
00000380: 367e 2a3e 36ae dbbd 2490 c03d bfaf 0fbe
00000390: 1571 0cbe bae5 d7bd 2568 c4bd 76d8 203d
000003a0: e5c9 023e 5f45 d73d 71bf c2bb 9de3 29be
000003b0: 70a3 74bc d077 a43d 56a8 f8bc 4dfb 153e
000003c0: 383b 073e 4cfd c83e beef 33bd ee42 7bbe
000003d0: 7d36 093e 2ca8 35bd dd2b 22be a10d 2ebe
000003e0: 0285 1f3e b75d a33e 9361 9a3d 92dc 0b3e
000003f0: 8f45 0bbd 5b68 86bd 1efd 373e 3c99 51be

conv1.bias f4 [64]
-0.0033235676 -0.03260951 -0.20661418 -0.13673866 -0.17242415 0.12814574 0.032678906 -0.10010373
-0.20262875 -0.11372886 0.077498466 -0.20291194 -0.2407516 0.14869155 -0.24053591 -0.120575316
-0.27485156 0.015314609 0.03561154 0.14024842 0.11391641 0.10755304 0.13857429 -0.20457
-0.19105618 0.011355726 -0.22115636 -0.19777022 -0.026743185 -0.15310861 -0.09604944 -0.0975059
0.13666706 0.014053623 0.18212993 -0.2199996 0.08962576 0.05846603 -0.021434668 0.10705622
0.080448315 -0.15488456 0.051004533 -0.009754214 0.030120453 0.0010617046 -0.11227765 0.053119745
-0.09261498 0.22703928 0.17760845 0.07738662 -0.08089152 0.11232528 -0.2760879 0.046608593
0.10709272 -0.12467538 0.05270103 -0.21058968 -0.0005333148 0.010143406 -0.017666414 -0.19723958
00000000: 36d0 59bb 8d91 05bd ab92 53be 3805 0cbe
00000010: f58f 30be a338 033e 51da 053d 2f03 cdbd
00000020: e97d 4fbe adea e8bd 84b7 9e3d 26c8 4fbe
00000030: 9687 76be 9942 183e 0c4f 76be 31f0 f6bd
00000040: 58b9 8cbe 20ea 7a3c 68dd 113d 489d 0f3e
00000050: 024d e93d c544 dc3d 6be6 0d3e cc7a 51be
00000060: 3ba4 43be 5e0d 3a3c d076 62be 4784 4abe
00000070: 8614 dbbc 81c8 1cbe 92b5 c4bd 2cb1 c7bd
00000080: 73f2 0b3e 2b41 663c 4580 3a3e 9347 61be
00000090: b68d b73d 137a 6f3d c297 afbc 4b40 db3d
000000a0: 16c2 a43d 0f9a 1ebe 21ea 503d 24d0 1fbc
000000b0: 2bbf f63c e528 8b3a d3f1 e5bd 1794 593d
000000c0: ecac bdbd fc7c 683e fdde 353e e07c 9e3d
000000d0: 74aa a5bd cc0a e63d 655b 8dbe a7e8 3e3d
000000e0: 6e53 db3d ce55 ffbd 09dd 573d d2a4 57be
000000f0: 26ce 0bba 8730 263c 28b9 90bc 2cf9 49be

lstm.weight_ih_l0 f4 [512, 64]
-0.20759001 -0.043823496 0.106168404 -0.017763533 0.102697946 -0.021230774 -0.08784591 -0.35976338
0.10477233 -0.08907658 -0.123463385 0.04170044 -0.08989891 0.11181639 -0.077241 0.12723461
0.05981491 -0.06215161 -0.044167344 -0.05637804 0.047902398 0.080628544 0.0005950753 0.062651195
-0.18712816 -0.20263186 -0.1251161 -0.18453571 0.054545883 0.018957395 0.031440865 0.22872719
-0.13640864 -0.07374377 -0.010189062 -0.26405483 -0.0019207809 0.017108167 -0.010786358 0.030639445
-0.046948664 -0.16642784 -0.08790371 -0.053279098 -0.004326369 -0.2444755 0.06390695 -0.06786844
0.023254087 0.011880298 -0.0490909 -0.028051442 0.29293928 -0.12049962 0.04565608 -0.010743436
-0.18946028 0.11752854 0.09366997 0.06443957 -0.29376057 -0.2937743 -0.047617353 0.11836664
-0.12729192 -0.13459812 -0.023347408 -0.15046163 0.03570195 -0.0064981026 -0.15999532 -0.20739093
0.017654216 0.020958444 0.04769369 0.061413094 0.10398532 0.13394701 0.10328642 0.028948285
0.014727813 0.013453193 0.008053753 -0.1507028 0.018899765 0.06475439 0.0490875 -0.120265745
-0.0054085003 0.031098787 -0.20291154 -0.08351855 -0.031601172 -0.05039249 -0.02175563 0.17758387
-0.20516132 -0.19608797 -0.14797282 -0.04278125 -0.035516877 0.05603888 -0.020166777 0.047014464
-0.034914054 -0.068585224 -0.16643728 -0.09525083 -0.05753233 -0.026609069 0.033862066 0.06685207
-0.09572799 -0.024621462 0.018430838 -0.06696365 0.0010954501 -0.042620063 -0.040649824 -0.026874593
0.04676487 -0.17414747 -0.1096187 0.04251976 -0.1734213 0.028527532 -0.12886591 0.13446338
-0.062407363 0.02896152 -0.12019615 0.18677218 0.004148359 -0.040970728 -0.09233236 0.14303204
0.022507545 0.00725849 -0.053669527 -0.03946253 -0.15581888 0.027279269 -0.16761848 -0.18943585
0.010591043 -0.013196996 -0.011143541 -0.035492655 -0.18483631 0.005989709 0.02175539 -0.06397556
-0.11709151 0.08583422 -0.10219071 0.07847591 -0.018051984 -0.11504818 -0.15542588 0.032700986
0.09226254 -0.10194642 -0.1478166 -0.14251351 -0.17962724 -0.098940834 -0.04009885 -0.14942142
0.025363766 -0.14357214 -0.043233827 -0.022385968 -0.08623392 -0.28380957 0.092748076 -0.018524889
-0.08961992 -0.04681399 -0.07103045 -0.041036252 0.08257271 -0.158527 -0.016365519 -0.034129284
0.081667386 -0.07325836 -0.080972284 -0.16074626 -0.059587374 -0.031888258 -0.14531943 -0.2136945
-0.16619292 -0.14313306 -0.06325548 -0.12527612 0.0775031 -0.122964896 -0.019148868 -0.119530424
-0.16384095 -0.16297676 -0.19096838 -0.09862598 -0.13266295 -0.09144582 0.029984068 0.09545916
0.09409411 -0.11207529 -0.1298512 -0.10248613 -0.009159041 -0.0009213992 -0.10538524 -0.05602883
-0.32964042 0.118175685 -0.018785104 -0.26096186 0.054444794 -0.038660992 0.055357207 0.08590505
-0.14227703 -0.016145287 -0.1336105 0.026249915 -0.08360203 -0.015192649 0.04630058 0.10130259
-0.15976354 -0.2159834 0.0031493455 0.06732798 -0.052979343 -0.007939017 -0.10296203 0.02026574
-0.041629113 -0.1387991 -0.11131751 0.022449462 0.17399414 -0.029352421 0.15238725 0.05021295
-0.04474457 0.020874225 -0.09116771 0.13582154 -0.086795375 -0.22393355 0.024040775 -0.041709486
00000000: 7a92 54be 4480 33bd d26e d93d d484 91bc
00000010: 4d53 d23d 29ec adbc 8ee8 b3bd e832 b8be
00000020: e092 d63d c86d b6bd 5fda fcbd 15ce 2a3d
00000030: eb1c b8bd feff e43d 8830 9ebd ca49 023e
00000040: 7b00 753d b092 7ebd d1e8 34bd a9ec 66bd
00000050: 4e35 443d 9420 a53d d4fe 1b3a 454f 803d
00000060: 869e 3fbe ba7e 4fbe 6f1e 00be eef6 3cbe
00000070: 816b 5f3d 8a4c 9b3c 23c8 003d 7637 6a3e
00000080: b5ae 0bbe f906 97bd 06f0 26bc 3232 87be
00000090: b6c2 fbba 6d26 8c3c 44b9 30bc 93ff fa3c
000000a0: 3e4d 40bd 0f6c 2abe dc06 b4bd 2f3b 5abd
000000b0: 37c4 8dbb c957 7abe a6e1 823d 9cfe 8abd
000000c0: 5b7f be3c 95a5 423c 8a13 49bd 23cc e5bc
000000d0: 23fc 953e 81c8 f6bd df01 3b3d 3d05 30bc
000000e0: e001 42be ceb2 f03d 0bd6 bf3d e5f8 833d
000000f0: c967 96be 9669 96be 6a0a 43bd 356a f23d
00000100: d058 02be 17d4 09be 1043 bfbc 9d12 1abe
00000110: 353c 123d 09ee d4bb d0d5 23be 4a5e 54be
00000120: 939f 903c 0bb1 ab3c 755a 433d 4c8c 7b3d
00000130: 41f6 d43d 6829 093e d587 d33d f424 ed3c
00000140: ed4c 713c c86a 5c3c e3f3 033c d651 1abe
00000150: aed3 9a3c f39d 843d f90f 493d e34d f6bd
00000160: ca39 b1bb e2c2 fe3c 0bc8 4fbe c60b abbd
00000170: 3b70 01bd 5b68 4ebd dd38 b2bc 8cd8 353e
00000180: cf15 52be 49cb 48be 3086 17be 643b 2fbd
00000190: 257a 11bd 0689 653d cc34 a5bc 3d92 403d
000001a0: 0a02 0fbd 6976 8cbd 896e 2abe de12 c3bd
000001b0: 05a7 6bbd 43fb d9bc f3b2 0a3d bde9 883d
000001c0: 090d c4bd f3b2 c9bc 45fc 963c 3d24 89bd
000001d0: 3595 8f3a 6092 2ebd 6e80 26bd 1b28 dcbc
000001e0: 858c 3f3d b753 32be c57f e0bd 3329 2e3d
000001f0: 5a95 31be 92b2 e93c 6df5 03be c5b0 093e
00000200: dd9e 7fbd b640 ed3c 6629 f6bd 3541 3f3e
00000210: f5ee 873b ecd0 27bd c018 bdbd fe76 123e
00000220: be61 b83c a1d8 ed3b 94d4 5bbd 76a3 21bd
00000230: fc8e 1fbe c678 df3c 2ea4 2bbe 79fb 41be
00000240: 0e86 2d3c 3738 58bc 6693 36bc bf60 11bd
00000250: bb45 3dbe 5245 c43b 5c38 b23c 9e05 83bd
00000260: accd efbd dac9 af3d 5d49 d1bd fab7 a03d
00000270: c1e1 93bc 619e ebbd f627 1fbe 78f1 053d
00000280: 24f4 bc3d 49c9 d0bd 3c5d 17be 10ef 11be
00000290: 34f0 37be 7ea1 cabd b13e 24bd ee01 19be
000002a0: acc7 cf3c 9304 13be f415 31bd c762 b7bc
000002b0: 699b b0bd 7d4f 91be b4f2 bd3d 82c1 97bc
000002c0: a68a b7bd 07c0 3fbd 6a78 91bd a115 28bd
000002d0: e21b a93d e754 22be fb10 86bc 26cb 0bbd
000002e0: 3b41 a73d 7b08 96bd ccd4 a5bd ab9a 24be
000002f0: e411 74bd 439d 02bd 9ece 14be bbd2 5abe
00000300: 7a2e 2abe 7991 12be 178c 81bd 6248 00be
00000310: f2b9 9e3d 05d5 fbbd 16de 9cbc 5ecc f4bd
00000320: ecc5 27be 61e3 26be 378d 43be 6bfc c9bd
00000330: ccd8 07be f247 bbbd 26a1 f53c 1880 c33d
00000340: 6ab4 c03d bb87 e5bd b7f7 04be 40e4 d1bd
00000350: cd0f 16bc 0e8a 71ba 37d4 d7bd 7d7e 65bd
00000360: a1c6 a8be 1806 f23d 38e3 99bc cb9c 85be
00000370: 8101 5f3d fd5a 1ebd 3dbe 623d fdee af3d
00000380: 12b1 11be 1f43 84bc 31d1 08be 100a d73c
00000390: 8b37 abbd 97ea 78bc ada5 3d3d bb77 cf3d
000003a0: 0e99 23be c12a 5dbe 4065 4e3b 41e3 893d
000003b0: de00 59bd a712 02bc c2dd d2bd 5604 a63c
000003c0: 4a83 2abd 5a21 0ebe 6ffa e3bd efe7 b73c
000003d0: 852b 323e 7d74 f0bc 670b 1c3e 18ac 4d3d
000003e0: 1546 37bd 6c00 ab3c 23b6 babd cd14 0b3e
000003f0: c6c1 b1bd d64e 65be 29f1 c43c 91d7 2abd

lstm.weight_hh_l0 f4 [512, 128]
0.08503922 0.0029424755 -0.101209044 0.26506665 -0.014482468 -0.06456203 0.10572335 0.015814338
-0.07605261 -0.17183192 -0.271764 0.033026043 0.097212456 -0.07166732 -0.05491042 -0.015898807
-0.19297104 -0.14501855 -0.11236746 0.05172357 -0.19596875 -0.034198567 0.10547099 0.0314228
0.12769675 0.08466563 -0.05126983 0.085695796 -0.0055827694 0.46531427 0.2031556 -0.04746192
0.07614857 -0.33955818 0.11109838 -0.016817104 -0.25005198 -0.25202593 0.23426108 -0.15411977
0.023152417 0.080366716 0.004100446 -0.09723931 -0.071035996 0.024369726 -0.009376005 0.048515722
-0.27047428 -0.043760754 -0.18176527 0.0058481004 -0.1130407 -0.31978565 0.15250693 0.20057435
0.11090863 0.11273624 -0.18894142 0.020324606 0.20755441 -0.08099866 -0.0027561518 -0.032952234
0.40315655 -0.21451408 -0.1751616 0.1816614 0.096658565 0.10894517 -0.058546398 0.06946912
0.20459585 0.07747835 -0.14646693 -0.19155867 0.054548863 0.116699494 0.007894747 -0.33352733
0.11624808 0.04427721 0.031586587 0.09846581 -0.1168252 0.071893245 -0.29222503 -0.07909117
-0.040731125 -0.13777396 -0.04024986 0.33302742 0.28339788 0.016610233 -0.13343951 0.060589172
-0.1589551 0.019686332 0.07088304 0.118945315 -0.018276224 -0.14155237 0.18270151 -0.03795862
-0.13573499 0.24906154 -0.14121088 0.07752701 0.24394166 -0.07078972 -0.1775956 -0.12277455
0.108050585 0.29350707 -0.19392775 -0.0077214697 0.20580162 0.14427559 0.028394345 0.17332092
0.10495401 0.035429507 0.08676023 -0.08110089 0.17687537 -0.3418465 -0.061722755 -0.053532545
-0.05641364 -0.007583989 -0.19881141 -0.16773021 -0.06259932 -0.07280715 0.070973426 -0.12775184
-0.051089432 -0.06521971 0.089601554 -0.04573051 0.095938325 -0.121477835 -0.08109969 -0.067190185
-0.12950101 0.040757082 0.012461376 0.25483137 -0.022883879 -0.034936078 0.0170521 0.06467944
-0.005821883 -0.074362814 0.09857306 -0.023232864 -0.1551506 0.09954039 0.14391592 -0.09121697
0.013246354 -0.29364127 0.0032922325 -0.13251357 -0.059456855 -0.048534513 0.10555159 0.22510523
0.067195244 -0.047547683 -0.11536375 -0.057609323 -0.035657458 0.23928395 0.046076868 -0.09784331
-0.012850669 -0.061528146 -0.19154431 -0.009926997 0.046497013 0.13141502 -0.009729784 0.17131747
0.033856925 0.08178676 -0.020501683 0.07820184 -0.02253092 -0.048343733 0.0526073 0.13093102
-0.17828313 0.1390955 -0.05766045 -0.10594988 -0.058879863 0.15203108 0.06793575 0.082487136
0.036393967 0.008265719 -0.043601155 0.12046748 0.09935833 0.04846362 0.08196379 -0.060113326
-0.13446903 0.055706725 0.021178177 -0.031439696 0.07425273 -0.031604134 -0.15023756 -0.013583705
-0.1688272 0.20104212 -0.10234332 0.030006807 0.009939419 0.07141217 0.069746085 0.0025773332
-0.16059782 -0.043058593 0.16103636 0.10103312 -0.22288619 -0.07713202 -0.10736708 0.033096306
0.07572934 0.1299466 -0.06675694 0.037652183 0.15996559 -0.14765525 0.053646263 0.043961685
0.02951321 0.006415783 -0.13750605 -0.21127321 0.174101 0.17780645 0.1350699 0.1346811
-0.056337807 0.04370597 -0.05075519 0.04036447 0.08548305 -0.045930848 -0.12916675 0.14971294
00000000: 0b29 ae3d 8cd6 403b b046 cfbd d1b6 873e
00000010: e047 6dbc 1939 84bd 7c85 d83d 128d 813c
00000020: 79c1 9bbd b5f4 2fbe a724 8bbe 5146 073d
00000030: 5317 c73d 51c6 92bd c0e9 60bd 373e 82bc
00000040: 339a 45be be7f 14be e920 e6bd 18dc 533d
00000050: 08ac 48be cc13 0cbd 2d01 d83d 32b5 003d
00000060: f0c2 023e 2c65 ad3d 5000 52bd 4781 af3d
00000070: aaef b6bb ac3d ee3e 0608 503e 6e67 42bd
00000080: c8f3 9b3d 92da adbe 8c87 e33d 06c4 89bc
00000090: d006 80be 8b09 81be 23e2 6f3e 93d1 1dbe
000000a0: 23aa bd3c 4e97 a43d 095d 863b 6725 c7bd
000000b0: 527b 91bd 05a3 c73c d19d 19bc 6cb8 463d
000000c0: 9b7b 8abe 7a3e 33bd ad20 3abe 6ca1 bf3b
000000d0: e281 e7bd f2ba a3be c72a 1c3e 5d63 4d3e
000000e0: 1024 e33d 42e2 e63d dc79 41be ca7f a63c
000000f0: 2589 543e a0e2 a5bd 8ea0 34bb ecf8 06bd
00000100: 896a ce3e 94a9 5bbe 905d 33be 7205 3a3e
00000110: edf4 c53d a51e df3d 59ce 6fbd d345 8e3d
00000120: 9381 513e f8ac 9e3d 6dfb 15be f527 44be
00000130: a16e 5f3d 2500 ef3d f858 013c 18c4 aabe
00000140: 7913 ee3d 055c 353d f060 013d 71a8 c93d
00000150: 0d42 efbd c43c 933d 859e 95be 8dfa a1bd
00000160: aed5 26bd 9e14 0dbe 0add 24bd 9282 aa3e
00000170: 8719 913e 2f12 883c 5ea4 08be 5a2c 783d
00000180: 20c5 22be 3b45 a13c 212b 913d 9a99 f33d
00000190: 05b8 95bc 1bf3 10be 1b16 3b3e 7f7a 1bbd
000001a0: 1dfe 0abe fd09 7f3e 9699 10be 7bc6 9e3d
000001b0: d8cb 793e 33fa 90bd 9fdb 35be 3971 fbbd
000001c0: a049 dd3d 8f46 963e ff94 46be 6204 fdbb
000001d0: a9bd 523e fbbc 133e 429b e83c 0a7b 313e
000001e0: 21f2 d63d 881e 113d 59af b13d 3918 a6bd
000001f0: d11e 353e 8106 afbe 00d1 7cbd f144 5bbd
00000200: fd11 67bd 1c83 f8bb 3895 4bbe 78c1 2bbe
00000210: 1334 80bd ea1b 95bd 845a 913d 61d1 02be
00000220: 2743 51bd e991 85bd 0581 b73d ea4f 3bbd
00000230: 507b c43d 5fc9 f8bd 9817 a6bd 029b 89bd
00000240: ea9b 04be e6f0 263d cd2a 4c3c 4279 823e
00000250: f976 bbbc 2219 0fbd d8b0 8b3c a776 843d
00000260: 7fc5 bebb 884b 98bd ace0 c93d d952 bebc
00000270: cddf 1ebe d5db cb3d b25e 133e f6cf babd
00000280: 3c07 593c 2658 96be 7fc2 573b a3b1 07be
00000290: 0889 73bd 20cc 46bd 6f2b d83d fc81 663e
000002a0: a99d 893d 5cc1 42bd d443 ecbd c1f7 6bbd
000002b0: 8e0d 12bd da06 753e 19bb 3c3d 1362 c8bd
000002c0: 9d8b 52bc f004 7cbd 3124 44be d8a4 22bc
000002d0: a773 3e3d a991 063e ac69 1fbc d96d 2f3e
000002e0: 8fad 0a3d d17f a73d 25f3 a7bc 4928 a03d
000002f0: c492 b8bc 1404 46bd c17a 573d c812 063e
00000300: da8f 36be 0d6f 0e3e 5d2d 6cbd 40fc d8bd
00000310: 032c 71bd 09ae 1b3e e621 8b3d 04ef a83d
00000320: d711 153d f06c 073c 2097 32bd a7b7 f63d
00000330: 617c cb3d ca81 463d a2dc a73d 6439 76bd
00000340: 40b2 09be bc2c 643d db7d ad3c e9c6 00bd
00000350: d111 983d 5673 01bd e0d7 19be 308e 5ebc
00000360: 0ae1 2cbe fcdd 4d3e 6099 d1bd d6d0 f53c
00000370: f2d8 223c 8b40 923d 09d7 8e3d 7ae8 283b
00000380: c173 24be 355e 30bd b7e6 243e 74ea ce3d
00000390: 473c 64be 64f7 9dbd 46e3 dbbd fe8f 073d
000003a0: fc17 9b3d b910 053e ddb7 88bd 2d39 1a3d
000003b0: 05ce 233e f032 17be 2fbc 5b3d 2b11 343d
000003c0: b0c5 f13c 7d3b d23b 63ce 0cbe 0158 58be
000003d0: 8847 323e e512 363e c44f 0a3e d8e9 093e
000003e0: 79c2 66bd 0805 333d ade4 4fbd 3755 253d
000003f0: bd11 af3d fc21 3cbd 4a44 04be 594e 193e

lstm.bias_ih_l0 f4 [512]
-0.053269368 -0.03122902 -0.12928548 0.012150901 0.017681466 -0.033131823 0.01308482 0.10359994
-0.07257847 -0.08683296 0.047983084 -0.16279578 -0.10232738 -0.13701048 0.0017842952 0.030116163
-0.15391204 -0.04729944 -0.06944369 -0.051831525 0.0503216 -0.17214642 -0.036615938 -0.064975396
0.0527795 -0.04296571 0.017258648 -0.06874626 -0.2572451 -0.06406038 -0.03386532 -0.14355935
-0.19307323 -0.1327153 -0.0283602 0.00511596 0.08376922 -0.09615155 -0.095667906 -0.20016989
-0.13304658 0.0007756979 -0.008556778 0.03764429 -0.03014446 -0.016981782 -0.058674198 0.124805845
-0.024288526 -0.035096698 -0.19963014 -0.028420499 -0.06404972 0.038880516 -0.060283802 -0.178773
-0.008165116 -0.23167564 -0.060773015 -0.09133997 -0.19356345 -0.10229178 -0.037813 -0.08476271
-0.055276405 -0.11153916 0.0016058672 -0.109579146 -0.19622806 -0.08071558 -0.05003194 0.086313084
-0.02620981 -0.058455445 -0.05623887 -0.08095611 -0.04556738 0.0010838701 -0.08182479 -0.032417666
-0.06495222 0.025451567 -0.035143085 0.11476919 -0.03454437 -0.13274194 -0.0996722 0.10278922
-0.19316545 -0.073741905 -0.16524172 -0.09256279 0.004242238 -0.04851046 0.06642336 -0.08253501
-0.016983144 -0.06962224 -0.06735648 0.013955245 0.010424188 -0.009945299 -0.014679837 -0.06279655
-0.041638445 -0.09757501 -0.08199353 -0.063322805 -0.14141594 0.028976437 -0.09607174 -0.16890123
-0.06271935 -0.035802994 0.009979711 -0.04993411 -0.04203466 -0.13972645 -0.044881158 -0.11848465
-0.095270015 -0.071401164 -0.068907775 -0.11261215 -0.038310446 -0.04608041 0.060018785 -0.013190728
0.082121275 -0.12084451 0.07759345 -0.027660597 0.057113208 0.028111849 -0.046124972 0.129168
-0.0724287 -0.13707055 -0.021676585 -0.13051248 -0.018005535 -0.0836225 0.10192382 0.120476395
-0.004931218 -0.04594778 0.031980734 0.06598866 0.08473492 -0.10803251 0.059907958 -0.13489592
-0.022917284 0.19614841 -0.11676329 -0.12070294 0.0113582695 -0.09025438 -0.035101064 -0.13525485
-0.008924353 0.039705392 -0.11462787 -0.093246676 0.02588803 0.07523032 0.064954154 0.08533873
-0.020954687 -0.01129214 -0.006817089 -0.0072742146 0.07753704 0.07569787 0.055297293 0.08881034
-0.030538723 0.17427011 -0.030965168 0.09633337 -0.06566864 -0.0040582167 -0.07309657 -0.0435169
0.14313897 0.06133289 -0.02989991 -0.0753265 -0.117054984 -0.12645887 -0.07492403 -0.06484278
-0.09075559 0.087705664 0.083009504 -0.050429005 -0.04030467 -0.058350347 -0.038312156 0.108946204
0.04449012 -0.0011807084 0.057342067 0.041195948 0.057282574 0.09317625 0.051650893 -0.012101009
-0.006146196 0.00075091334 0.012988413 -0.018313712 0.21085112 -0.15180282 0.07984041 0.07275242
0.05161903 0.09063344 -0.018601594 -0.04146967 -0.06668196 0.0061192024 0.037239064 -0.05841658
-0.028050357 0.01073248 0.15785968 -0.015862085 0.12742336 0.02917567 -0.05773229 -0.0855734
0.07213432 -0.025060827 0.08840837 -0.049684864 -0.0017168776 0.07457731 -0.09209029 -0.03874351
0.011221644 0.10196279 -0.053094678 0.0014653797 -0.05821601 0.07568938 -0.0308184 -0.016092034
-0.11434391 -0.056372855 -0.018576588 -0.07936251 0.106217965 0.082031645 0.1413073 0.23520613
00000000: fb30 5abd 00d4 ffbc 6a63 04be 9314 473c
00000010: b9d8 903c 3cb5 07bd b661 563c 352c d43d
00000020: 05a4 94bd 7bd5 b1bd e989 443d f0b3 26be
00000030: 0491 d1bd 7a4c 0cbe 03df e93a 2cb6 f63c
00000040: 1e9b 1dbe 0fbd 41bd 7e38 8ebd 4b4d 54bd
00000050: 061e 4e3d 2747 30be 98fa 15bd d211 85bd
00000060: 512f 583d d0fc 2fbd 0262 8d3c d7ca 8cbd
00000070: a1b5 83be 1732 83bd 5db6 0abd 3901 13be
00000080: fdb4 45be 85e6 07be a653 e8bc c8a3 a73b
00000090: 328f ab3d 1beb c4bd 89ed c3bd 56f9 4cbe
000000a0: 5d3d 08be 3458 4b3a ba31 0cbc e630 1a3d
000000b0: 84f1 f6bc 611d 8bbc 5b54 70bd 359a ff3d
000000c0: bbf8 c6bc 8ec1 0fbd d86b 4cbe 1bd2 e8bc
000000d0: 802c 83bd 2d41 1f3d 26ec 76bd 4510 37be
000000e0: fbc6 05bc 613c 6dbe 20ed 78bd 7310 bbbd
000000f0: 7f35 46be 5a7e d1bd cee1 1abd 1298 adbd
00000100: 8369 62bd a56e e4bd f67b d23a 086b e0bd
00000110: 02f0 48be 364e a5bd 4bee 4cbd eac4 b03d
00000120: f5b5 d6bc fa6e 6fbd bb5a 66bd 51cc a5bd
00000130: dca4 3abd a510 8e3a c193 a7bd 63c8 04bd
00000140: ab05 85bd ce7f d03c 32f2 0fbd 1c0c eb3d
00000150: 667e 0dbd 81ed 07be f020 ccbd 2883 d23d
00000160: 2acd 45be ff05 97bd 2035 29be 8f91 bdbd
00000170: 7902 8b3b e7b2 46bd f808 883d 1e08 a9bd
00000180: 3c20 8bbc 1b96 8ebd 32f2 89bd 8aa4 643c
00000190: 37ca 2a3c 9bf1 22bc b383 70bc 7a9b 80bd
000001a0: 138d 2abd 68d5 c7bd 39ec a7bd 63af 81bd
000001b0: 57cf 10be fe5f ed3c 43c1 c4bd 72f4 2cbe
000001c0: 0173 80bd 29a6 12bd f181 233c b687 4cbd
000001d0: 892c 2cbd 7314 0fbe 4ed5 37bd 15a8 f2bd
000001e0: ed1c c3bd c63a 92bd 851f 8dbd 33a1 e6bd
000001f0: 6aeb 1cbd d0be 3cbd 42d6 753d ec1d 58bc
00000200: 332f a83d 547d f7bd 51e9 9e3d 7a98 e2bc
00000210: 8aef 693d d24a e63c 8aed 3cbd 9e44 043e
00000220: 8055 94bd 395c 0cbe 1893 b1bc 10a5 05be
00000230: 5880 93bc 4642 abbd 70bd d03d 54bc f63d
00000240: 0e96 a1bb bd33 3cbd 3bfe 023d 1025 873d
00000250: 8089 ad3d 2640 ddbd 0c62 753d 2822 0abe
00000260: 07bd bbbc 21db 483e 9721 efbd 1a33 f7bd
00000270: 0918 3a3c 4ad7 b8bd 22c6 0fbd 3f80 0abe
00000280: 7337 12bc 1fa2 223d 04c2 eabd 1df8 bebd
00000290: 2213 d43c 5b12 9a3d af06 853d 12c6 ae3d
000002a0: 2aa9 abbc ab02 39bc e361 dfbb 895c eebb
000002b0: bdcb 9e3d 7c07 9b3d 6a7f 623d 32e2 b53d
000002c0: 582c fabc dd73 323e aaaa fdbc 6e4a c53d
000002d0: 487d 86bd cafa 84bb a8b3 95bd c73e 32bd
000002e0: 0693 123e 3238 7b3d a8f0 f4bc c844 9abd
000002f0: 86ba efbd 6f7e 01be c571 99bd 4bcc 84bd
00000300: 11de b9bd 079f b33d e300 aa3d a58e 4ebd
00000310: 8216 25bd c600 6fbd 35ed 1cbd 301f df3d
00000320: 463b 363d 00c2 9aba 84df 6a3d 15bd 283d
00000330: 22a1 6a3d 31d3 be3d e38f 533d 4f43 46bc
00000340: 0766 c9bb f1d8 443a 5acd 543c a306 96bc
00000350: 5be9 573e 3372 1bbe 5e83 a33d 39ff 943d
00000360: 7a6e 533d 069e b93d 5f62 98bc 1adc 29bd
00000370: 8d90 88bd 9783 c83b fd87 183d 3946 6fbd
00000380: ddc9 e5bc 49d7 2f3c f8a5 213e 34f1 81bc
00000390: 457b 023e d101 ef3c b278 6cbd 1b41 afbd
000003a0: 29bb 933d 5d4c cdbc 730f b53d 5b82 4bbd
000003b0: da08 e1ba fdbb 983d d599 bcbd 84b1 1ebd
000003c0: fcda 373c ded1 d03d ce79 59bd fc11 c03a
000003d0: e973 6ebd 0903 9b3d df76 fcbc 71d3 83bc
000003e0: 242d eabd 39e7 66bd ee2d 98bc d088 a2bd
000003f0: ce88 d93d 3500 a83d dcb2 103e e0d9 703e

lstm.bias_hh_l0 f4 [512]
-0.009392079 -0.0028016681 -0.1475189 -0.03930435 0.048147883 0.023077386 0.088702135 0.013285102
-0.03957983 -0.030233966 0.0587765 -0.14811958 -0.11968033 -0.15950796 0.018839162 0.05427663
-0.043158185 0.06921065 -0.12386189 -0.15529785 0.073192105 -0.046852294 -0.109249085 -0.122041404
0.058187235 -0.0058412347 0.0066870865 0.04388997 -0.30704302 -0.17763725 0.031473134 -0.15582906
-0.14365152 -0.14845417 -0.108802214 -0.0047897515 -0.059308626 -0.037644465 0.034209386 -0.17103556
-0.042021662 -0.06376828 -0.06709597 -0.055188224 -0.011241879 0.0005780617 -0.103806406 -0.015972668
-0.033039793 0.015776426 -0.059874497 -0.078015216 -0.16093133 0.087439485 -0.13143463 -0.10772908
0.035720747 -0.19160344 -0.036445435 -0.11488316 -0.1466282 -0.030876663 -0.08692336 -0.07538167
-0.07188826 -0.1388004 -0.042372007 -0.013024582 -0.049949944 -0.03713735 -0.019637229 0.082667455
-0.06600669 0.02339213 0.023616266 -0.1406049 -0.09596607 0.048718885 -0.03795817 -0.0123630995
-0.06559304 -0.0153472265 -0.13098149 0.106639475 -0.09551575 -0.087282605 -0.092295736 0.10014805
-0.18600449 -0.022034178 -0.10579962 -0.062330734 -0.14032432 0.010511899 0.0064564203 -0.0742484
0.011447838 -0.17555869 0.0033108417 -0.042242482 0.116432704 -0.082467824 -0.119159244 -0.11050422
-0.06691322 -0.045742165 -0.052775633 -0.13301156 -0.03453617 0.021258853 -0.12666386 -0.0947924
-0.12067619 0.008634936 0.008670763 0.05774051 -0.010026376 -0.072232924 -0.14270446 -0.16503163
-0.17995697 -0.04823264 -0.113309585 -0.003146471 -0.014951485 -0.15517765 0.076974235 0.05524491
-0.0075357812 -0.07359424 0.0796675 0.06207548 0.11407866 0.0036028475 -0.04885216 0.13353096
-0.09519409 -0.08633668 -0.0015949277 -0.03985075 -0.0053747995 -0.057124007 -0.0143283345 0.12260552
0.11326979 -0.049766216 -0.005612625 0.04993335 0.099175245 -0.1075495 -0.005948457 0.008939983
0.08452976 0.0882115 -0.07013123 -0.008697691 0.14070146 -0.11937383 0.0010394412 -0.06653431
-0.074174106 0.16458188 -0.09886204 -0.14925449 -0.03961937 -0.04617812 0.11649781 0.12305809
-0.006636354 0.071118556 0.10200704 -0.004569191 0.108448274 0.06309829 0.046184584 0.09387465
-0.07036421 0.18428446 -0.1387199 0.13754643 -0.1351097 0.01759094 -0.0050560483 -0.08101813
0.008350259 0.032142702 0.056668065 -0.12430582 -0.0861437 -0.048303146 -0.088296086 -0.06105949
-0.07399025 0.014490306 0.08483929 0.010299917 -0.10444427 -0.063834004 -0.008645376 -0.008032799
0.026145803 -0.04883656 0.06846349 -0.068227805 -0.037351035 0.1356952 -0.05753064 -0.026135378
-0.05989986 -0.09474 -0.04057255 -0.07224599 0.23302712 -0.07133398 -0.048839256 0.026941946
-0.07512169 0.067442656 -0.06864878 0.07786273 0.03690509 0.12896594 0.20138015 -0.0103740385
0.023968184 0.02464518 0.06977698 -0.0169953 0.121639594 0.06547512 -0.16075054 -0.11280327
0.11297764 -0.116760686 -0.011958908 -0.10412169 -0.029561855 0.16536959 -0.08429637 -0.046971
-0.009856811 0.035664216 -0.04556208 -0.01039867 -0.0043836497 -0.078340776 0.08144318 0.08825406
-0.0094995 -0.011542167 -0.08329534 -0.012204683 0.041326653 0.009051416 0.18011679 0.14874864
00000000: 3ce1 19bc 319c 37bb 320f 17be 99fd 20bd
00000010: b736 453d c90c bd3c 77a9 b53d c2a9 593c
00000020: 761e 22bd 39ad f7bc a1bf 703d a9ac 17be
00000030: f61a f5bd 0e56 23be 9654 9a3c 2c51 5e3d
00000040: a3c6 30bd 50be 8d3d 4dab fdbd 6606 1fbe
00000050: bee5 953d 31e8 3fbd fcbd dfbd d8f0 f9bd
00000060: bd55 6e3d d467 bfbb 591f db3b f8c5 333d
00000070: be34 9dbe 8ae6 35be f9e9 003d a791 1fbe
00000080: 6219 13be 5f04 18be b2d3 debd 59f3 9cbb
00000090: 9aed 72bd 1531 1abd 241f 0c3d f223 2fbe
000000a0: e81e 2cbd f298 82bd 9d69 89bd 0c0d 62bd
000000b0: dc2f 38bc 1089 173a 7498 d4bd 1dd9 82bc
000000c0: bc54 07bd 903d 813c f63e 75bd 71c6 9fbd
000000d0: 2fcb 24be 7913 b33d cd96 06be 10a1 dcbd
000000e0: eb4f 123d b133 44be cf47 15bd dd47 ebbd
000000f0: b425 16be 0ef1 fcbc e004 b2bd b461 9abd
00000100: 273a 93bd b121 0ebe 458e 2dbd 0e65 55bc
00000110: 5098 4cbd 551d 18bd 41de a0bc 8e4d a93d
00000120: 842e 87bd daa0 bf3c e676 c13c bbfa 0fbe
00000130: dc89 c4bd 748d 473d 077a 1bbd 998e 4abc
00000140: a555 86bd ef72 7bbc 0320 06be cc65 da3d
00000150: c39d c3bd 39c1 b2bd 8c05 bdbd 6c1a cd3d
00000160: f677 3ebe 0581 b4bc 79ad d8bd 834e 7fbd
00000170: 2eb1 0fbe 1a3a 2c3c 6190 d33b 8c0f 98bd
00000180: b68f 3b3c a8c5 33be b5fa 583b 7406 2dbd
00000190: 4574 ee3d e4e4 a8bd c309 f4bd 0950 e2bd
000001a0: cc09 89bd 235c 3bbd 432b 58bd 2f34 08be
000001b0: cd75 0dbd 0c27 ae3c 2cb4 01be 8522 c2bd
000001c0: 1425 f7bd 8c79 0d3c d10f 0e3c 5081 6c3d
000001d0: ab45 24bc dbee 93bd 1e21 12be 0dfe 28be
000001e0: a446 38be 978f 45bd db0e e8bd 0635 4ebb
000001f0: 13f7 74bc e4e6 1ebe aba4 9d3d 7d48 623d
00000200: b7ee f6bb 94b8 96bd b728 a33d dc42 7e3d
00000210: 13a2 e93d c01d 6c3b 3419 48bd 57bc 083e
00000220: 1ef5 c2bd 49d1 b0bd e50c d1ba 8a3a 23bd
00000230: 161f b0bb ddfa 69bd 64c1 6abc 9a18 fb3d
00000240: fef9 e73d a9d7 4bbd 1cea b7bb ea86 4c3d
00000250: 641c cb3d ea42 dcbd 46eb c2bb 0279 123c
00000260: f01d ad3d 3ba8 b43d f6a0 8fbd c380 0ebc
00000270: 0b14 103e 447a f4bd dc3d 883a 2443 88bd
00000280: 98e8 97bd 2788 283e 2e78 cabd 2bd6 18be
00000290: ec47 22bd 4525 3dbd 6796 ee3d e105 fc3d
000002a0: c675 d9bb 9ba6 913d 11e9 d03d 27b9 95bb
000002b0: 211a de3d ad39 813d 0c2c 3d3d 5a41 c03d
000002c0: 1c1b 90bd 11b5 3c3e 970c 0ebe f9d8 0c3e
000002d0: 325a 0abe e01a 903c 35ad a5bb d5ec a5bd
000002e0: 86cf 083c 11a8 033d c61c 683d 0d94 febd
000002f0: 1c6c b0bd 85d9 45bd 94d4 b4bd 8419 7abd
00000300: 3388 97bd c068 6d3c 39c0 ad3d fcc0 283c
00000310: e1e6 d5bd 67bb 82bd 56a5 0dbc 009c 03bc
00000320: b92f d63c d808 48bd 9636 8c3d 05bb 8bbd
00000330: 66fd 18bd aff3 0a3e 40a5 6bbd dc19 d6bc
00000340: 8e59 75bd 0c07 c2bd 672f 26bd b5f5 93bd
00000350: a99e 6e3e 8d17 92bd ac0b 48bd 5bb5 dc3c
00000360: 67d9 99bd 601f 8a3d bb97 8cbd 7f76 9f3d
00000370: cb29 173d a60f 043e 9936 4e3e dff7 29bc
00000380: ed58 c43c b0e4 c93c 3ce7 8e3d ba39 8bbc
00000390: 2e1e f93d d217 863d ca9b 24be 6705 e7bd
000003a0: d260 e73d 3a20 efbd 4cef 43bc c13d d5bd
000003b0: b42b f2bc a556 293e 93a3 acbd aa64 40bd
000003c0: 767e 21bc a414 123d 4e9f 3abd 2f5f 2abc
000003d0: b8a4 8fbb 2171 a0bd afcb a63d 8bbe b43d
000003e0: caa3 1bbc 5b1b 3dbc bf96 aabd 27f6 47bc
000003f0: 2346 293d 644c 143c 8970 383e 9051 183e

fc.weight f4 [2, 128]
0.018267127 0.20267181 -0.012349602 -0.2220718 -0.09224742 0.046328295 0.21901947 -0.045759562
0.35464576 0.20053802 0.22919755 -0.0800332 0.033962294 -0.35950267 0.1544567 -0.063389115
0.09560067 -0.1690378 0.16213359 0.24633226 0.19140328 -0.108194284 0.34828952 0.26170927
0.052981146 0.39234403 0.32483882 -0.12499158 -0.54782534 0.45442498 0.32130346 0.0026745247
0.042496312 -0.31102845 0.07747662 -0.09816179 -0.031882584 -0.1250585 0.050268576 0.4526966
0.050193448 0.38280672 0.062457886 0.15881269 -0.26929027 0.19788614 0.3531603 -0.022931246
-0.26263657 0.31438312 0.07008899 -0.14946198 0.030943962 0.14895174 -0.16715127 0.34361225
-0.081122674 0.38291422 0.2950197 -0.064450845 -0.046394978 -0.079688944 -0.13496251 -0.44348472
0.21738671 0.19658867 -0.39285442 -0.35658112 0.13512622 -0.27053028 -0.0051990594 0.023275757
-0.34250838 0.090854906 -0.43127945 -0.35501143 0.075958446 0.040945005 0.3969155 -0.38646883
0.13786295 -0.1894573 0.06279819 -0.05469422 0.35900363 -0.11530818 -0.008134484 0.1553263
0.09988838 0.09978881 0.05106727 -0.093093425 0.07846976 -0.075585015 0.123294964 -0.0038505818
-0.25469896 0.24437404 0.20754446 0.43639487 0.22440788 0.22529145 -0.027797174 -0.2484788
0.3890783 0.15086296 -0.026578804 0.002940844 0.26287356 0.041735243 0.3204282 0.044322576
-0.028404504 -0.2514385 0.16379052 -0.2571472 0.5039498 0.30554163 0.4989105 -0.29151088
0.36065832 0.15919098 -0.30051512 0.003083061 -0.082172036 -0.2932955 -0.06271664 -0.13886243
-0.0046772305 -0.188487 -0.025462799 0.26853693 0.15359963 -0.16227277 -0.20834531 0.10823409
-0.2664402 -0.087169655 -0.20092618 0.04271072 -0.07547468 0.44931898 -0.22694252 0.05072562
-0.075461835 0.2530057 -0.20367652 -0.34558547 -0.16296189 0.22267161 -0.3376772 -0.2723445
-0.11218529 -0.3262257 -0.23506416 0.069399625 0.552186 -0.4087555 -0.3198919 0.16102658
0.02694813 0.26016936 -0.14943847 0.07445634 0.0005779389 0.06485783 -0.050630074 -0.47457856
0.111022286 -0.3449521 -0.06006146 -0.13178048 0.33619332 -0.2087778 -0.33089054 0.05347491
0.12429858 -0.38129342 0.06196051 0.11197029 -0.023479348 -0.10323987 0.044907436 -0.25272703
-0.05273069 -0.41951442 -0.3030122 0.0173979 -0.039094005 -0.011727644 -0.008247737 0.4377247
-0.33812264 -0.24532007 0.47675285 0.3652258 -0.11512897 0.18966386 -0.12987132 -0.03635339
0.20199086 -0.106366776 0.5264961 0.485437 -0.18239543 -0.027996944 -0.3732886 0.48772496
-0.24538627 0.21102266 -0.22095476 0.034961402 -0.3527158 0.15171535 0.1474209 -0.16643885
0.0055811307 -0.15497774 0.023547487 0.07813298 -0.051988073 0.14634012 -0.105609484 -0.04298163
0.26587313 -0.28283724 -0.2839668 -0.48208645 -0.077695385 -0.2082216 0.08833772 0.20856346
-0.46688458 -0.30008015 -0.062788084 0.06259785 -0.24828842 -0.10043811 -0.45489317 -0.06531147
-0.03522513 0.32773983 -0.16407417 0.3742081 -0.49988833 -0.35787636 -0.43475485 0.19710372
-0.34680527 -0.1499005 0.2368567 -0.010980203 0.120476864 0.24671775 -0.027904613 0.13828012
00000000: f1a4 953c 3389 4f3e fc55 4abc ca66 63be
00000010: 37ec bcbd bdc2 3d3d a446 603e 616e 3bbd
00000020: 2194 b53e d759 4d3e c3b2 6a3e 72e8 a3bd
00000030: 0c1c 0b3d bc10 b8be e629 1e3e 27d2 81bd
00000040: 49ca c33d 3f18 2dbe 5906 263e 863e 7c3e
00000050: 39ff 433e f794 ddbd 0153 b23e c2fe 853e
00000060: c202 593d 51e1 c83e 4651 a63e 96fb ffbd
00000070: 483e 0cbf 64aa e83e e381 a43e 1447 2f3b
00000080: 9d10 2e3d 1f3f 9fbe 10ac 9e3d 0c09 c9bd
00000090: 5097 02bd 560f 00be 6ce6 4d3d d9c7 e73e
000000a0: a597 4d3d 3eff c33e d7d3 7f3d cb9f 223e
000000b0: 6ae0 89be aaa2 4a3e 6dd1 b43e 4fda bbbc
000000c0: 4d78 86be d3f6 a03e d18a 8f3d 900c 19be
000000d0: 317e fd3c ce86 183e b429 2bbe f2ed af3e
000000e0: a523 a6bd 550d c43e d20c 973e cefe 83bd
000000f0: a908 3ebd f533 a3bd 9d33 0abe 6e10 e3be
00000100: 9f9a 5e3e 8a4e 493e 3724 c9be cd91 b6be
00000110: 875e 0a3e f282 8abe df5c aabb cdac be3c
00000120: 425d afbe 2312 ba3d a9d0 dcbe 0fc4 b5be
00000130: 1a90 9b3d f3b5 273d 8238 cb3e 3edf c5be
00000140: f22b 0d3e 1801 42be 569c 803d 0c07 60bd
00000150: 53cf b73e b226 ecbd 8046 05bc dc0d 1f3e
00000160: 4792 cc3d 135e cc3d ea2b 513d c4a7 bebd
00000170: c1b4 a03d 51cc 9abd 1282 fc3d 0b5a 7cbb
00000180: e767 82be 303d 7a3e 8986 543e 266f df3e
00000190: 2ecb 653e cdb2 663e e6b6 e3bc 3a71 7ebe
000001a0: 4535 c73e d27b 1a3e cbbb d9bc 2dbb 403b
000001b0: 5d97 863e 93f2 2a3d 2a0f a43e 978b 353d
000001c0: 90b0 e8bc 8cbc 80be b4b8 273e cca8 83be
000001d0: db02 013f f46f 9c3e 3271 ff3e ea40 95be
000001e0: 35a8 b83e f602 233e 1edd 99be 2e0d 4a3b
000001f0: d049 a8bd d42a 96be 9571 80bd f431 0ebe
00000200: 7443 99bb bc02 41be 5c97 d0bc ac7d 893e
00000210: 3949 1d3e d52a 26be 7958 55be d6a9 dd3d
00000220: da6a 88be 0186 b2bd 98bf 4dbe 70f1 2e3d
00000230: 7892 9abd 230d e63e 9f63 68be abc5 4f3d
00000240: bc8b 9abd f789 813e 9490 50be 94f0 b0be
00000250: 7bdf 26be 0704 643e 07e4 acbe bd70 8bbe
00000260: 67c1 e5bd 0e07 a7be a9b4 70be 6421 8e3d
00000270: 105c 0d3f 6748 d1be dfc8 a3be 27e4 243e
00000280: 53c2 dc3c eb34 853e 6606 19be 917c 983d
00000290: d380 173a 2fd4 843d 7b61 4fbd f6fb f2be
000002a0: a75f e33d 909d b0be 0103 76bd 76f1 06be
000002b0: 8821 ac3e d9c9 55be 7c6a a9be 8208 5b3d
000002c0: 4190 fe3d e438 c3be 4eca 7d3d ae50 e53d
000002d0: c357 c0bc 6d6f d3bd dcf0 373d 7065 81be
000002e0: 23fc 57bd 98ca d6be 6a24 9bbe 0a86 8e3c
000002f0: 0921 20bd 4e25 40bc 8421 07bc 741d e03e
00000300: 691e adbe 2f35 7bbe f318 f43e e0fe ba3e
00000310: bdc8 ebbd 3e37 423e fdfc 04be 4be7 14bd
00000320: b1d6 4e3e d3d6 d9bd 73c8 063f 338b f83e
00000330: dec5 3abe d959 e5bc af1f bfbe 16b7 f93e
00000340: 8a46 7bbe 5316 583e f741 62be b033 0f3d
00000350: 2a97 b4be 455b 1b3e 81f5 163e f26e 2abe
00000360: ebe1 b63b 7cb2 1ebe a9e6 c03c 2f04 a03d
00000370: 72f1 54bd 2fda 153e c949 d8bd 810d 30bd
00000380: 8620 883e 0bd0 90be 1964 91be 09d4 f6be
00000390: c21e 9fbd 0b38 55be 68ea b43d a991 553e
000003a0: 7f0b efbe 1ba4 99be 0a97 80bd 4d33 803d
000003b0: 523f 7ebe 7fb2 cdbd c2e7 e8be 05c2 85bd
000003c0: 3a48 10bd 84cd a73e 0f03 28be 3498 bf3e
000003d0: 5df1 ffbe 923b b7be 3098 debe 8fd5 493e
000003e0: 7690 b1be 847f 19be 908a 723e 4fe6 33bc
000003f0: 93bc f63d 94a3 7c3e 3798 e4bc 4e99 0d3e

fc.bias f4 [2]
-0.24774773 0.32815206
00000000: 95b1 7dbe 8c03 a83e
