Models/cnn_lstm_model_stream_Nstream_final_0,72.pth (torch, 408328 bytes, 8 tensors)

conv1.weight f4 [64, 8, 3]
000000 01 6e 3d bd 8f 3a 3f be 3a 1a 23 be 40 29 7c be
       -0.046247486 -0.18674682 -0.15927973 -0.2462511
000010 23 85 31 be 3f 1f 89 bc 8a 7d 2e 3e a9 f2 3f be
       -0.17335944 -0.016738532 0.17040077 -0.18744911
000020 53 23 8b bc ae d5 b3 bc ae 50 d2 3d b1 9b 39 bc
       -0.016984617 -0.021952476 0.10269295 -0.011328624
000030 69 eb 50 3e 0a d0 50 3d 2d e2 23 bd b8 33 f4 3c
       0.20402302 0.05097965 -0.04001062 0.029809818
000040 26 90 5a 3e 55 61 3c 3c 29 6c 20 be 1b d7 02 be
       0.21344051 0.011497815 -0.1566626 -0.12777369
000050 ad cd 2f be df 50 17 3e 47 25 22 3d ef 73 40 bd
       -0.17168303 0.14776944 0.03958633 -0.046985563
000060 47 ad 27 3d 3d 37 bd bd 33 7c 76 3c 5f 7c 88 be
       0.040936735 -0.092390515 0.01504426 -0.26657388
000070 0c 2b 14 be 08 c6 ca be 7b 22 0a be d7 7e 4f 3e
       -0.14469546 -0.3960421 -0.13489716 0.2026323
000080 76 5d a3 bd 5d 6b 27 3e 09 39 2d 3d e4 f2 88 3e
       -0.07976811 0.1634955 0.04229072 0.2674781
000090 64 2b f4 3a 4d 87 06 3e 0c fd 60 bd c7 63 7c 3e
       0.0018628654 0.1313755 -0.054928824 0.24647437
0000a0 a5 99 13 be fb a2 bd bd f3 8c b0 bc e4 9d c8 3c
       -0.1441408 -0.09259602 -0.021551585 0.02448935
0000b0 df 57 51 3e 37 f9 a9 bd 62 a6 ee 3c d9 e8 4c be
       0.20443676 -0.08299487 0.029132072 -0.200107
0000c0 e6 1e b5 bd d5 7d d7 3d df 31 a9 bd 9b 4d 5b 3e
       -0.08843784 0.105220474 -0.08261465 0.21416323
0000d0 cf f6 45 be 37 50 74 3d 46 de 71 bd 73 0a 9a be
       -0.19332431 0.05964681 -0.059049867 -0.30086097
0000e0 01 c6 5d be 98 33 48 3c e6 98 82 3d 29 30 01 be
       -0.21657564 0.012219332 0.06376819 -0.12616028
0000f0 6c ef 0b 3e 81 10 02 be 7e 28 52 be 98 aa a9 bd
       0.13665551 -0.12701608 -0.20523259 -0.08284491
000100 5c da ee 3d 55 df fa bd 87 04 92 3d 6e c9 22 3d
       0.116627425 -0.122496285 0.0712977 0.03974288
000110 6b 8d bc 3c 70 c2 15 3e fb 36 8e 3e 81 d2 6c 3e
       0.023016652 0.14624953 0.27776322 0.23127176
000120 8b 31 e0 3d 7b aa b1 3d 7c 7c 33 be 38 e3 27 3e
       0.109469496 0.08675095 -0.17527956 0.16395271
000130 0f 9a da bc c5 5f a8 3e b1 1a aa be 26 71 4a be
       -0.026684789 0.32885566 -0.3322349 -0.19769725
000140 af 9f 34 be af c1 49 3e 26 ce 9f bc 4b fb fb 3c
       -0.1763904 0.1970279 -0.019507479 0.030759474
000150 4c 53 46 3e 32 44 77 bd 9c 8c 01 3e e6 e8 54 3e
       0.19367713 -0.06036777 0.12651294 0.20791969
000160 f7 e2 e4 3d 8e 78 03 3d 96 2a 76 3e fb 37 47 3e
       0.111761026 0.03209739 0.24039683 0.19454949
000170 71 93 03 3d d9 76 b1 3e c7 20 35 3e 14 08 93 3e
       0.032123033 0.34660986 0.17688285 0.287171
000180 57 fe 0d be 24 d4 38 3d 09 59 44 be 59 1c 7e be
       -0.13866554 0.045124188 -0.19174589 -0.24815501
000190 ec 70 05 3e 64 ce 23 3e 21 81 85 3d 31 9d a4 3e
       0.13031358 0.159967 0.0651877 0.32151178
0001a0 59 1a 37 3d 67 72 f9 3c 08 cc 9b be 68 fc 02 3d
       0.04470286 0.03045006 -0.304291 0.031978995
0001b0 34 54 62 3e 79 fc 6a 3e 6c 41 38 3e 26 3b 2a 3c
       0.22102433 0.22947873 0.17993706 0.010390079
0001c0 98 9b c3 3d 2a 5d 01 be 5e 51 24 bd 07 84 b4 bd
       0.095511615 -0.12633196 -0.04011666 -0.08814245
0001d0 ab 39 3f be b8 92 10 3e c4 fa 3e 3e c4 18 62 be
       -0.18674342 0.14118469 0.18650347 -0.2207976
0001e0 42 84 28 3e 7b 8c b3 3d 32 1f b4 3d e5 a4 80 be
       0.16456702 0.08767029 0.087950125 -0.25125805
0001f0 bd 8b 61 3c 51 fb 73 3d e9 bb 29 bd c4 4a 96 3e
       0.013766226 0.059565846 -0.04143897 0.29353917
000200 06 36 01 bd e1 52 4b 3e 7a c6 18 3e 1b f6 81 3e
       -0.03154566 0.19855835 0.14919463 0.25383076
000210 86 db 51 3d f5 6a b7 3d b0 3c 44 3e a6 8d ec 3d
       0.051234744 0.08955947 0.19163775 0.11550455
000220 6e 6d 51 bd 1f 02 ae 3d a4 06 56 3e b3 e7 2b be
       -0.05112975 0.08496498 0.2090097 -0.16787605
000230 bd 2d 04 3d 01 0c 12 be a5 1f 72 be 68 41 02 be
       0.032270182 -0.14262392 -0.23644884 -0.12720263
000240 7a a2 2a be 72 a7 9a 3d 7e 7d 00 3e 91 b8 4b 3e
       -0.16663542 0.07551469 0.12547871 0.19894625
000250 0b 93 c9 bb c5 05 66 be cb 81 8e 3e 7d 82 2e 3e
       -0.006151562 -0.22463138 0.278334 0.17041965
000260 76 66 49 3e 05 43 3b be 3e 30 16 be 7d ee 3e be
       0.19667992 -0.18287285 -0.1466684 -0.18645664
000270 a2 6a a1 bd de b8 40 be 1c bc c4 bc a8 2f 3b 3e
       -0.07881667 -0.18820521 -0.024015479 0.18279898
000280 fa a9 2b 3e 07 68 35 3e 88 53 13 3e 1b 3c a9 3d
       0.1676406 0.17715465 0.14387333 0.08263417
000290 15 70 5d 3d d8 51 1f bd 01 2a 4c 3d a3 00 68 3d
       0.054061968 -0.03889641 0.049844746 0.056641232
0002a0 6a ea 42 be 7e f5 95 3d 7f 6a 03 3e 80 d9 ac 3e
       -0.19034734 0.073222145 0.12833594 0.3375969
0002b0 0f aa 79 3e b9 ed 47 be c6 0b de bd fd 63 89 be
       0.24381278 -0.19524278 -0.10842089 -0.26834098
0002c0 01 f7 7f be b8 b5 32 be 92 07 0b be bf 06 1c be
       -0.24996568 -0.17452133 -0.13577107 -0.15236948
0002d0 f7 88 87 bc 4f 8e 17 3e 23 5b f5 bc b7 91 ef 3d
       -0.016544802 0.1480038 -0.029950684 0.11697715
0002e0 77 09 8f 3d 1f 87 50 bd 6a ba 34 3e e2 4c ca 3c
       0.06984227 -0.05091011 0.17649236 0.024694864
0002f0 87 b8 0a 3e bd 75 d4 3d 7a bf 0c be 77 8e 29 3e
       0.13546954 0.10374019 -0.13744918 0.16558252
000300 d1 a1 26 be 80 78 2a be 58 24 61 be d2 14 8c be
       -0.16272666 -0.1664753 -0.2198652 -0.27359635
000310 ac 23 74 3e 07 5f 13 3d 2d ba a8 bc 00 39 8e be
       0.23841733 0.035979297 -0.020596588 -0.27777863
000320 65 ce b7 3d 8f 3a 84 3d 4e 88 09 3e 01 7c 4e bc
       0.089749135 0.06456482 0.13430902 -0.012602807
000330 c9 35 5d 3d e7 2f 65 bd 63 4e d5 3d 9f 7b 7d 3d
       0.05400637 -0.055953886 0.10415342 0.061885472
000340 f8 4f 3c 3e 13 83 8e be 0c 3d 62 be 3b bf f5 3d
       0.1838988 -0.27834377 -0.220936 0.11999365
000350 43 92 4f bd 93 0e 4b 3d 14 31 34 3e f9 d9 a4 3c
       -0.050676595 0.049574446 0.17596847 0.020123469
000360 33 4a 63 3c 8d ed 85 bd 04 dd e3 3c c5 fe 10 3e
       0.013872671 -0.0653945 0.02781535 0.14159687
000370 ed af 20 be 6d b6 a1 3d 45 28 4c be f8 11 d2 bc
       -0.1569211 0.07896123 -0.19937237 -0.025643334
000380 e8 f4 4b 3e 9e 56 80 be c0 38 db bd ca f8 60 3d
       0.19917643 -0.25066084 -0.107041836 0.054924764
000390 10 50 42 be 1e 1d bc bc 97 a7 43 be 79 4f 36 bd
       -0.18975854 -0.022963103 -0.19106899 -0.044509385
0003a0 b8 ce 16 3e f1 9f b0 bd 85 ec aa 3d 9e 93 30 bc
       0.14727294 -0.086242564 0.08345894 -0.010777382
0003b0 cd 02 f3 bb ac 2c ea bd 87 ba 0e be d9 e8 eb bd
       -0.0074161054 -0.11434302 -0.13938342 -0.115190215
0003c0 82 4c 06 3e ed 98 55 3c 60 05 b3 bd bc e5 a0 bd
       0.13115123 0.013036949 -0.087412596 -0.07856318
0003d0 b7 d7 71 bd 4e f6 28 3e a3 32 2e 3c a5 6c 07 bd
       -0.059043612 0.16500208 0.01063219 -0.033062596
0003e0 51 54 07 3e 3c 2f 48 3e 9f 0b 20 be 27 9f 3f be
       0.13215758 0.19549268 -0.15629433 -0.18713056
0003f0 13 c9 8f be 45 f3 a3 bd 04 21 98 be d0 e1 03 be
       -0.28083095 -0.08005384 -0.2971269 -0.1287911

conv1.bias f4 [64]
000000 af 7d 2e be c7 3a f2 bd 7b fb 06 3e c6 14 f6 3d
       -0.17040132 -0.11827617 0.1318187 0.12015681
000010 95 f7 ad 3d 1a 4b 07 be 10 07 95 bd 26 28 0f 3d
       0.08494488 -0.13212243 -0.07276738 0.034950398
000020 8a 30 2b 3d cc 4d d4 bc 02 90 3f 3d 39 0d 14 3e
       0.041794337 -0.025916003 0.046768196 0.14458169
000030 3d f4 1f 3e cd 9f 2d be 78 c2 55 be 25 85 c9 3d
       0.15620513 -0.1695549 -0.20874965 0.098398484
000040 b7 52 71 bd d3 c1 5c be a3 0f d2 3d 75 c6 bc bd
       -0.058916774 -0.21558313 0.10256889 -0.0921754
000050 4e d9 42 3e 75 3c 1d bd d1 5d 9d 3c aa e1 a7 bc
       0.19028208 -0.038387734 0.019209774 -0.020493347
000060 dd 8f 85 bd b3 f3 6d bd 71 4e 27 be 13 ae 80 3e
       -0.0652158 -0.058093738 -0.16338517 0.25132808
000070 3f 37 da bd 70 ff e4 3c fa 44 b2 3b 0c fe 6f bd
       -0.106550686 0.027953833 0.0054403516 -0.058591887
000080 ac 53 e0 3d 3b 64 2c 3d 32 9d 82 bd f6 27 2e bd
       0.10953459 0.042087775 -0.06377639 -0.04251858
000090 96 7d 05 be e4 47 2f be 28 53 5b bd aa 4b 48 3d
       -0.13036188 -0.17117268 -0.0535461 0.048900284
0000a0 8d a4 5b be 0c 09 47 be 30 92 ca bc e0 15 c2 bd
       -0.2144949 -0.19437045 -0.02472791 -0.094768286
0000b0 77 fd a5 3d 8e ee 29 be 20 ff 1b bd c8 02 6d be
       0.08104985 -0.16594908 -0.038085103 -0.23145592
0000c0 f3 f0 15 be 60 dd f2 3d 2b f6 b1 bd 91 eb 00 bc
       -0.14642696 0.1185863 -0.08689531 -0.007868663
0000d0 b6 92 50 3d cd 92 87 bd 84 1f 26 bc 5f 1d 2a bd
       0.050921164 -0.06619797 -0.01013935 -0.041531917
0000e0 cc a4 4f bc e0 86 28 be 84 64 84 bc a1 df 0d be
       -0.012673568 -0.164577 -0.01616121 -0.13854839
0000f0 62 3e e7 bc eb 97 a4 3c 65 d8 77 3e f3 fe 10 3e
       -0.028227989 0.020091971 0.24203642 0.14159755

lstm.weight_ih_l0 f4 [512, 64]
000000 2f 58 e2 3b 82 81 e1 bc b9 a2 fc bc 71 73 12 3d
       0.006907485 -0.027527574 -0.030839311 0.035754625
000010 68 da cb bc c2 24 98 bd aa 1c 11 bc 99 5a f2 3b
       -0.024884418 -0.07428886 -0.008856932 0.007396054
000020 a8 d0 30 3c 3a 6b 58 3c 90 9e b2 bd 10 e4 b5 bd
       0.010791935 0.013209159 -0.0872165 -0.0888139
000030 d8 d0 08 bd 00 6b 60 3c d0 25 68 bd 3a 35 b5 bd
       -0.033402294 0.013697386 -0.056676686 -0.08848043
000040 df 2e df 3c 24 e5 58 bd d6 dc 1d 3d 75 a5 53 bd
       0.02724403 -0.0529529 0.038540684 -0.051671464
000050 e2 42 68 3d 1c fc bb 3d 90 d1 4a 3d fc 91 97 3d
       0.05670441 0.091789454 0.04951626 0.07400891
000060 d2 6e 8b 3d ab 9c 8e bd af 69 53 be 4e ed c1 3c
       0.06808247 -0.06963476 -0.20645784 0.023672726
000070 92 b0 b4 3d e3 89 88 3d 7f 6a 4d 3d b8 55 06 38
       0.088227406 0.06666925 0.05015039 3.202792e-05
000080 ad 5e 88 bd 6b b8 0b 3d ba 7b f1 3b 63 49 8b bd
       -0.06658683 0.03411142 0.0073694857 -0.06801107
000090 95 4f c2 bd 62 10 2a bb 2f fb 97 bd 14 74 95 bd
       -0.09487835 -0.0025949706 -0.07420956 -0.07297531
0000a0 1e d2 6f bd 38 77 2c bc 55 10 73 bc 90 b4 5f 3d
       -0.058549993 -0.010526471 -0.014835437 0.054615557
0000b0 e9 09 0e be b6 c4 32 bd 3a f5 9f 3d 2e 39 dc bd
       -0.13870968 -0.04364463 0.07810445 -0.10753094
0000c0 a4 9c ce bd 99 7f 45 3d c4 c1 57 bd 02 30 fb bd
       -0.100884706 0.04821739 -0.052675024 -0.12265016
0000d0 83 cf 90 bd 5b 25 a0 bd 36 0d de bb 74 37 50 bd
       -0.0707083 -0.07819625 -0.006776477 -0.050834134
0000e0 47 fe aa 3d c3 48 be bc 35 a2 f5 bb 17 03 e6 3d
       0.08349281 -0.023228055 -0.007496143 0.11231058
0000f0 d9 f2 80 3d b9 c9 2e be 3b 66 8a 3c 54 40 c2 3c
       0.062963195 -0.17069139 0.01689445 0.023712315
000100 15 7a bb bd 14 ee ef bd 1b d0 6d be b5 dd 19 be
       -0.09154145 -0.11715332 -0.23223917 -0.15025981
000110 f4 f8 b8 bc c3 cb c6 bd 59 3c eb bd 1b fc 27 bd
       -0.022579648 -0.09706833 -0.1148612 -0.04101191
000120 93 83 a1 bd 8c 25 5a bc 1c b9 50 bd 50 63 59 be
       -0.07886424 -0.013314616 -0.050957784 -0.21229291
000130 8c 4b 4d be e2 61 13 be e5 a6 b6 bc 0e cc b8 bd
       -0.2004835 -0.14392808 -0.022296378 -0.09023295
000140 f7 d0 53 bd 99 86 1f be 8c c5 9f bd 40 a1 61 be
       -0.051712956 -0.15578689 -0.07801351 -0.22034168
000150 ff 5e 1d be 0e ab cf bd 08 e7 02 be 8a 43 fc bd
       -0.1536827 -0.10140048 -0.12783444 -0.123175696
000160 0c 55 fc 3b 93 7d 1b be 6d b6 9b bd 35 75 c4 bc
       0.007700568 -0.15184622 -0.07603154 -0.02398167
000170 4c a8 20 be df 19 5f bd 10 33 e1 bd 9e 58 e1 bc
       -0.156892 -0.054468032 -0.109960675 -0.027508076
000180 c6 f1 af bd b1 38 0b bd e6 3c ec 3c 06 67 5e be
       -0.085910365 -0.033989612 0.028837632 -0.21718988
000190 1c e8 28 be f7 df 71 bd 62 31 d6 bd d1 97 e6 bd
       -0.16494793 -0.05905148 -0.10458638 -0.112594254
0001a0 6a cb 44 3b 45 07 2d be 51 93 d1 bd 61 dd 99 bd
       0.003002847 -0.16897304 -0.102331765 -0.07512928
0001b0 d3 9c d4 bc 9a 16 0a be 53 19 f0 bd 7e 02 8f bb
       -0.025953686 -0.13485184 -0.1172358 -0.0043643108
0001c0 68 0b a8 bd 1d 96 1f be ac 67 8a bc 99 61 6a be
       -0.082053006 -0.15584607 -0.016895138 -0.22888793
0001d0 27 ae a8 bd ca 73 0b be 1d e8 20 be a7 ef 78 bd
       -0.08236342 -0.13618389 -0.15713544 -0.060775425
0001e0 be ef 25 be 2d e1 ce bd 8b c6 2b be 01 0a eb bc
       -0.16204736 -0.101015426 -0.16774957 -0.028691294
0001f0 f8 e6 d9 bd dc 82 eb bd a6 89 fa bd dc 70 5a be
       -0.10639757 -0.11499569 -0.122332856 -0.21332115
000200 60 32 56 bd 74 38 39 bd 6c d1 46 bd e6 44 0d 3d
       -0.052294135 -0.045219854 -0.048539564 0.034489535
000210 ae bd 6e bd 65 b8 0a be 4c c8 49 3c 1e 72 da bc
       -0.05828636 -0.13546903 0.012315821 -0.026665743
000220 81 ec cb bb 5a bf 20 be e1 93 66 3d 68 63 b5 bd
       -0.006223262 -0.15697995 0.056293372 -0.08856851
000230 b9 49 17 3d 3f 3a 06 be 38 5c bc bd 3d be cd 3d
       0.03693554 -0.13108157 -0.09197277 0.10046051
000240 a6 9b 32 be 87 a9 2f be fe f8 88 bd d8 a3 58 3d
       -0.17442188 -0.17154513 -0.066881165 0.05289063
000250 f1 9f 1f 3d ac a0 d5 bc d3 61 4f be 98 63 22 3d
       0.03897089 -0.02607759 -0.2025216 0.03964576
000260 66 9a 15 bd 9d 50 93 bc 75 70 50 bd 97 f9 62 3d
       -0.0365242 -0.017982775 -0.050888497 0.05541381
000270 f6 dd 90 bd 82 5d 53 be 35 8f 85 3d b7 bc 8f 3c
       -0.07073586 -0.20641139 0.06521455 0.017546041
000280 b5 89 2c 3c 91 20 d3 3c 70 c0 a1 bc 60 a5 22 3d
       0.010530879 0.025772365 -0.019745082 0.039708495
000290 4d c1 8b bc 35 5b 00 bb 26 f4 07 3c 28 82 a2 3c
       -0.017059946 -0.0019585614 0.008297956 0.019837454
0002a0 ba 62 ac bd 64 08 06 be a4 0f a6 bd 49 b0 16 be
       -0.08417268 -0.13089138 -0.08108452 -0.14715685
0002b0 1a 06 af bd 85 7e 1a 3c 74 36 75 3d 97 e9 db bd
       -0.08546086 0.009429579 0.059866384 -0.10737913
0002c0 af dc af 3c 85 91 26 3d 86 41 a6 bd e1 86 0e bd
       0.021467535 0.040666122 -0.08117966 -0.0347966
0002d0 a9 7f 55 bd 1e 00 0c be d6 a7 43 bc 40 ba 00 be
       -0.0521237 -0.1367192 -0.011941871 -0.12571049
0002e0 a5 54 60 3c 15 78 8b 3c 8a 3d 18 be a2 04 43 bd
       0.013692056 0.017025033 -0.14867225 -0.04761184
0002f0 4c b3 34 be 4f 8c a7 bc 74 1e b8 3c ad f2 b1 bd
       -0.17646521 -0.020452647 0.022475459 -0.08688865
000300 0c 4d ab bd 14 6c b0 bd 0b cf 37 3e 21 bc dd 3e
       -0.08364305 -0.08614364 0.17950074 0.43307593
000310 e7 3d 0d be d0 c9 77 be ce 98 27 be 9a 3d 46 3e
       -0.13793145 -0.24198079 -0.16366884 0.19359437
000320 91 19 01 bc a6 74 9c bd 7f f2 a5 bd 2b dc 58 3e
       -0.007879631 -0.076394364 -0.08102893 0.21177737
000330 90 61 1d 3e 43 24 ff bd f3 bb 1b be a7 12 26 3e
       0.15369248 -0.12458088 -0.15208416 0.16218053
000340 d9 e5 82 be bb 6c eb 3d d5 be eb bd 79 72 45 3c
       -0.25565985 0.11495348 -0.11511008 0.012051218
000350 79 31 20 be 5a dd b2 bd f7 49 0e 3e e7 78 32 be
       -0.15643872 -0.08733626 0.13895403 -0.17428933
000360 0a a5 39 bd 4e ce e0 3d aa a7 92 3e 6c d0 b6 bd
       -0.04532341 0.109768495 0.28643543 -0.08926472
000370 c8 c3 9d be c8 73 7c bd 18 18 b6 bd c4 70 7b be
       -0.30813432 -0.061633855 -0.08891314 -0.24554735
000380 f3 74 1f bd 24 0c f8 3c f9 6f 67 be a8 af 98 3c
       -0.03892989 0.030279227 -0.22601308 0.018638447
000390 66 22 95 be 65 a7 35 bd f3 6d 0d be c8 5e 9c be
       -0.29127806 -0.044349093 -0.13811474 -0.30541062
0003a0 6f ab 43 be 5b 83 21 be 76 d7 95 3d 49 17 06 be
       -0.19108365 -0.15772764 0.073164865 -0.1309482
0003b0 4d 87 ff bd 93 2e 0b be d2 c1 5a be 55 92 b7 be
       -0.124769785 -0.13591985 -0.21362999 -0.3585383
0003c0 f2 72 65 be 35 6a 8a bd 2a 8a 63 be a8 4e 9e be
       -0.2240713 -0.06758539 -0.22220674 -0.30919385
0003d0 e6 11 64 bc 02 58 2d be f7 1e ba be 1a 85 81 be
       -0.013920283 -0.16928104 -0.3635175 -0.2529686
0003e0 e4 47 2f be 1d d3 08 bd e8 7c c0 3d 27 08 93 bd
       -0.17117268 -0.03340446 0.09398824 -0.07179289
0003f0 c5 1f aa be 57 0c 34 3e ce f1 bb 3d ac ee ea bc
       -0.33227363 0.17582832 0.0917698 -0.02867826

lstm.weight_hh_l0 f4 [512, 128]
000000 7e a8 96 bb 9d a1 65 bd f2 c0 30 3c 10 51 23 be
       -0.0045977226 -0.05606233 0.010788189 -0.15948892
000010 70 d9 c2 3c 7e a7 14 3e 2b 50 b6 bc 5b e2 50 bd
       0.023785323 0.14517018 -0.022255024 -0.05099712
000020 f3 5d 09 bd c7 7b 5b bd a3 2a 7e bc 62 28 06 be
       -0.033536863 -0.05358484 -0.015513095 -0.13101342
000030 c0 9b 7b bc eb 7f 42 bc 22 62 92 3d 8a cb 0d bd
       -0.015356958 -0.011871318 0.071476236 -0.034617938
000040 2e 63 89 bc fd 8b b5 bd c9 65 08 bc 61 10 d8 bc
       -0.016770925 -0.08864591 -0.008325049 -0.026374998
000050 21 d2 39 bd 31 ac a8 bc ba 22 b0 3c 22 62 d1 bd
       -0.04536641 -0.02058992 0.021500934 -0.102237955
000060 7a 5a 3f 3c 36 59 85 bd 90 04 a3 3d d7 11 3a ba
       0.011679286 -0.06511156 0.079598546 -0.0007097995
000070 19 9a 1b 3e 18 7f b1 bb e1 79 9d 3d 0b d6 f1 bd
       0.15195502 -0.005416762 0.07689262 -0.118084036
000080 99 ce d2 bd 37 a9 81 bc 2b 1a c9 39 51 21 10 bd
       -0.102933116 -0.015827758 0.00038357204 -0.035188023
000090 85 37 93 3d 64 cb 3c 3c e6 23 fa 3d 5b 89 cd bd
       0.07188324 0.0115231015 0.12213878 -0.10035964
0000a0 12 52 ef 3c 3b 7c 3e 3d 33 1a 28 be d6 4b 46 3d
       0.029213939 0.046505194 -0.16416244 0.048412167
0000b0 58 14 80 3c e4 2b 88 3c f5 7f 8e bd d3 a4 0d bd
       0.0156347 0.016622491 -0.069579996 -0.034581017
0000c0 57 58 d1 3d 60 41 88 3c ed 80 c3 3d 57 7d bb bd
       0.102219276 0.016632736 0.09546075 -0.09154766
0000d0 56 e7 6d bd 0d 7e c2 3c d8 73 18 bd e9 a3 a9 3c
       -0.058081947 0.023741746 -0.037219852 0.020708041
0000e0 5f 72 a0 3c 7d 43 5c bc 16 87 32 3d 08 f7 c3 3d
       0.019585786 -0.013443825 0.04358586 0.09568602
0000f0 01 01 fa 3c 3c 40 dd bd 5e 85 99 3d ee 27 59 3d
       0.030518057 -0.10803267 0.07496141 0.053016596
000100 d2 98 2e bd e7 46 2c bc 96 e1 cc 3b 8e 4a 72 bb
       -0.04262621 -0.010514951 0.006252478 -0.0036970708
000110 51 e0 de 3c 9b 91 8f 3d 45 27 ea bd 5b 44 44 bd
       0.027206572 0.07010194 -0.11433271 -0.04791675
000120 88 bb 4e 3d d5 87 67 bd ef 01 d8 3d be 3e 4b 3c
       0.050471812 -0.056526024 0.10547244 0.012405096
000130 13 0d df bc b1 d3 20 3d 66 f2 8b bd 40 65 6f bd
       -0.027227914 0.039264385 -0.06833343 -0.05844617
000140 f8 ad 7d 3d 91 ef 46 3e 52 ad 36 3d 9d b2 9a 3c
       0.061933488 0.19427325 0.044598885 0.018883998
000150 6e 38 65 bd 19 f2 9a 3c f6 c7 84 bd 4f ea 34 3d
       -0.05596202 0.01891427 -0.06483452 0.044168767
000160 16 2c 58 3d cb a4 00 be 3f 35 8a bd a2 42 a5 bb
       0.05277642 -0.12562864 -0.06748437 -0.0050433436
000170 79 06 85 bd 03 34 d5 3c 8e 28 b6 3c aa b4 96 bd
       -0.06495375 0.026025778 0.022236135 -0.07358678
000180 ee a1 cc bc 9a a0 aa 3d 78 a0 97 bd 66 8e 52 bd
       -0.024979558 0.083314136 -0.07403654 -0.051405333
000190 ab bf 7c bc ca 59 f7 3c d5 1a 1b bd dd eb 2f 3d
       -0.015426557 0.030194182 -0.037867386 0.042949546
0001a0 8a 9e 8f bd b2 ef 11 3a a6 63 41 bd f4 ec 13 bd
       -0.07012661 0.00055670284 -0.047214173 -0.036114648
0001b0 31 92 91 bd 6e 0d 8a bd 78 62 88 3c a1 92 ed 3b
       -0.07107962 -0.06740843 0.016648516 0.0072501455
0001c0 16 0e 7e 3d 33 e6 12 3e 50 9c f1 3d 8e 1a 24 bd
       0.062025152 0.14345627 0.11797392 -0.040064387
0001d0 2a dc 5c bc 89 0d b3 3a 17 14 89 bd e5 7a f1 bc
       -0.013480226 0.001366065 -0.06693285 -0.029477546
0001e0 d3 3b e9 bd 21 a8 1f 3a 5a ba 25 bd ab 05 71 bd
       -0.11388364 0.0006090422 -0.04046092 -0.058843296
0001f0 38 da e3 bd 7f 98 67 bd 09 b7 5a bd 0a 27 f2 bd
       -0.11125606 -0.056541916 -0.053397212 -0.11823852
000200 a0 a5 e2 bc d6 0f 9a bc 77 6e 25 bd f0 bd 1a be
       -0.027666867 -0.01880638 -0.04038855 -0.15111518
000210 37 4c 5f 3d ad 85 11 bd 76 d9 c5 3c 72 14 6d bd
       0.054516044 -0.035527874 0.024151545 -0.057880826
000220 f0 c7 7f 3d e7 45 68 3d 0f 6a 77 3d 92 c3 a9 3d
       0.062446535 0.05670729 0.06040388 0.08289255
000230 27 2e 99 3d 98 82 46 3d ac e6 0a be 41 1a c5 bd
       0.07479506 0.048464388 -0.13564557 -0.09624148
000240 89 0b c1 bc d6 7e 63 bd db a5 90 3d 8d fc 7d 3c
       -0.02356507 -0.055540882 0.070628844 0.015502107
000250 39 04 bb bd 22 dc 05 be 89 3b 86 bd 44 47 f1 bc
       -0.09131665 -0.13072255 -0.06554324 -0.029452927
000260 2d c1 19 bd 7e 07 05 be 59 4f 51 3d 97 81 62 3d
       -0.037537742 -0.1299114 0.051101062 0.055299368
000270 2b 17 17 3e f4 b4 26 3d 15 d3 71 bd 3a d5 82 bd
       0.14754932 0.040699914 -0.059039194 -0.06388326
000280 ab 87 9c bd d6 d3 c2 3c d0 bd 0f 3e 53 f8 5c 3d
       -0.07643064 0.023782652 0.14037251 0.053947758
000290 0d 15 a9 3d e0 24 82 bd f0 cd 4f 3d 2e 64 e3 3c
       0.08255968 -0.063546896 0.050733507 0.02775773
0002a0 8a f2 e3 bd 14 3a 7c 3c 0f 98 6e 3d b5 8b c1 3b
       -0.11130245 0.015394706 0.058250483 0.005906547
0002b0 8e 9c 55 3c 89 4c ba bd f6 36 42 3c 50 9a b2 3d
       0.013037814 -0.09096629 0.011853924 0.08720839
0002c0 a5 2c d0 3d 86 60 81 3d 5a c4 5a bd bd 76 15 bd
       0.10164765 0.063172385 -0.05340991 -0.03649019
0002d0 de 8f 4b bd 60 dd 2a 3b cc 3f 85 3d 4a e3 64 3c
       -0.04969775 0.0026071891 0.06506309 0.013970206
0002e0 cd 83 b2 bd 63 c7 17 bc 8a ec c2 3d b4 13 54 3d
       -0.08716545 -0.009263846 0.095177725 0.051776603
0002f0 52 02 2d bd 0e 14 ac 3c 2c a0 24 3b c2 c4 67 3d
       -0.04223854 0.021005657 0.0025119884 0.056584127
000300 19 97 65 bc a1 db 92 bc f7 06 a2 3d 03 ac 02 bc
       -0.014013075 -0.017926993 0.07911485 -0.007975581
000310 b5 4d 29 3d 9d e1 40 bd 46 49 1a 3a d5 be dc 3c
       0.041333873 -0.04709016 0.00058855524 0.026946465
000320 04 42 a6 bd 88 bc 00 3d 56 7b 68 3d a3 d1 4e 3b
       -0.0811806 0.031429797 0.056758247 0.0031558059
000330 06 63 26 3e db 69 7b 3c 64 73 d5 3d b6 ea 86 bd
       0.16248712 0.015345062 0.104224 -0.06587736
000340 48 b3 9f 3d 2d 6c f3 bd 0b d0 a0 3d 43 f3 95 3d
       0.07797867 -0.11885867 0.07852181 0.07321789
000350 b1 e4 43 bd 46 28 90 bd 16 66 1e 3c 5b d5 9c bd
       -0.04782552 -0.070389315 0.009667894 -0.07657882
000360 81 c8 c1 bd 69 e0 90 3d 94 22 13 bc 0d 84 f4 3d
       -0.09462071 0.07074053 -0.008980412 0.11939249
000370 23 08 dc 3d 92 90 3a 3c e4 50 f2 bb c6 20 f4 3d
       0.107437395 0.011387007 -0.007394897 0.119203135
000380 b3 3c 1e bd 26 89 a2 3d 4b 35 f4 3c 62 45 2f bb
       -0.038632106 0.07936315 0.029810568 -0.0026744236
000390 1f 11 d0 3d 6c 42 5f bc 95 b9 a9 3d c7 0b 17 3c
       0.101595156 -0.013626676 0.0828735 0.0092191165
0003a0 8c ea 1b bb e5 75 e8 3b 15 4e 92 3d b1 ea a5 3c
       -0.0023790924 0.0070941322 0.07143799 0.020253511
0003b0 ac 28 b6 bd 85 e8 6d bc b8 4f 69 3d 77 19 ca bd
       -0.08894476 -0.014520769 0.05696079 -0.09868138
0003c0 fc 2b 14 bd 7a d4 81 bd ad b2 e3 3d 84 b3 18 3d
       -0.03617476 -0.06339355 0.11118064 0.037280574
0003d0 8c fa d6 3d cf f7 3c bd 76 b0 22 3e 8c 94 59 3b
       0.10497007 -0.046134766 0.15887627 0.0033200113
0003e0 ca 09 57 bd a5 db 8e bd 9f 87 af 3c 56 55 1b bd
       -0.05249957 -0.069754876 0.021426974 -0.03792318
0003f0 05 94 7d bd ed 73 92 bd 8a 7f 89 bd 75 93 ba bd
       -0.06190874 -0.07151017 -0.06713779 -0.091101564

lstm.bias_ih_l0 f4 [512]
000000 e2 e7 ac 3c bf ea 05 bd 42 be ea bd 05 21 22 bd
       0.021106664 -0.032694574 -0.1146207 -0.03958227
000010 b8 2b ac bd 8a f2 11 3d 28 64 b6 bb b2 44 ba 3c
       -0.08406776 0.035631694 -0.005566139 0.022737835
000020 a5 a4 9d bb 75 84 f4 bc c7 15 52 bd 93 40 1d bc
       -0.004810887 -0.029848317 -0.0512903 -0.009597915
000030 dd 0f eb bd 96 8c b4 bb c4 9f 5b bd 59 f9 14 3b
       -0.11477635 -0.005509923 -0.05361916 0.002273163
000040 43 e1 e0 bd 3d 70 e3 bd cf 71 12 be 85 7b a8 bd
       -0.10980465 -0.11105392 -0.14301227 -0.082266845
000050 a5 22 7b bc 6c 41 45 3a 11 89 97 3d cb 20 14 be
       -0.015328084 0.0007524702 0.0739919 -0.14465635
000060 19 88 1a be 16 94 4b bd 3e fd 6c bd dd de 91 3b
       -0.1509098 -0.049701773 -0.057858698 0.004451616
000070 07 e3 b3 bc 42 df 63 bd 91 b8 34 bd 8a 08 5c bd
       -0.021958841 -0.055632837 -0.04412133 -0.05371908
000080 5b 37 12 bc 56 24 04 3c 72 38 e6 bc c0 e3 7d 3c
       -0.008924331 0.008065304 -0.028103087 0.015496194
000090 5e d4 29 bd f1 cd 2c 3d a4 88 90 3d 7f 44 0e 3e
       -0.041462295 0.04218859 0.07057312 0.13893317
0000a0 39 f9 eb bd 9c 99 07 3d bd e2 80 bd 5a 50 18 be
       -0.11522145 0.033105478 -0.06293247 -0.14874402
0000b0 78 4d d3 3c 60 58 a4 bd 1a d2 66 3d 1e 68 b3 bc
       0.025793776 -0.08024669 0.056352712 -0.021900233
0000c0 e5 b7 c8 bd 72 6a e3 bd 71 77 a5 bd 21 08 c6 bd
       -0.098007 -0.11104287 -0.08079422 -0.09669519
0000d0 81 07 a2 3b 0b cd a2 3d 22 5a 4a 3b 0e 17 33 3c
       0.004944742 0.07949265 0.0030876477 0.01093079
0000e0 44 73 59 3d 86 21 da bd 5b f1 d6 bd 7a 6b eb bd
       0.05308844 -0.10650925 -0.10495254 -0.11495109
0000f0 bb 44 54 bd 74 76 96 bd 32 cd 08 3c 54 40 14 3d
       -0.05182336 -0.07346812 0.008349704 0.03619416
000100 ce d7 51 3d d1 32 d4 3d 37 24 1f 3c a2 f7 24 be
       0.051231198 0.10361255 0.009713224 -0.1611009
000110 f6 54 96 bd fa 41 1d be 8c d8 13 be 10 61 49 3d
       -0.07340424 -0.153572 -0.14438075 0.04916483
000120 c1 86 fb bb 42 6c 1e bd cb 59 b4 ba c1 fb 6d bd
       -0.007675976 -0.03867746 -0.001375967 -0.05810142
000130 5d fc 4e 3e 7e c4 a3 3c 59 83 07 bd 17 f3 90 bd
       0.20213456 0.019991156 -0.033084247 -0.07077616
000140 95 19 08 be 7c ad c4 bc f4 19 0a 3c 69 1f a8 bd
       -0.13291009 -0.024008505 0.008429039 -0.08209116
000150 7f a5 f0 bd fd 88 35 3d 75 b7 54 bd 00 58 99 bd
       -0.11750316 0.044320095 -0.05193277 -0.07487488
000160 f9 da be bd 30 86 a4 bc a5 47 0e bb 8a bf 83 bd
       -0.093191095 -0.020083517 -0.0021710184 -0.064330176
000170 68 6b 26 3d e6 a4 d7 bd 6c e7 8d 3c fe c0 13 bd
       0.040629774 -0.10529499 0.017322265 -0.036072724
000180 fc f1 d8 bc 9a b0 06 3b 07 ae 63 3c 1c 8f 92 bd
       -0.026482575 0.002055204 0.013896472 -0.07156202
000190 09 56 89 bd 50 98 1b be 89 20 c7 bc 46 08 fc bd
       -0.06705863 -0.15194821 -0.024307506 -0.123062655
0001a0 26 16 aa bd 8f c7 44 bd 6b a5 c8 bc 99 01 9c bc
       -0.08305006 -0.048041876 -0.02449294 -0.01904373
0001b0 1a c6 9a bc 61 8c 67 bd 44 c7 cf 39 2c 23 69 3d
       -0.01889329 -0.05653036 0.0003963058 0.05691831
0001c0 8e fe 24 3d da 72 01 be 06 f9 ec bd 99 21 c7 bd
       0.040281825 -0.12641469 -0.11570935 -0.09723205
0001d0 64 f0 6a bd 59 7d 11 be 30 2f 40 3d 01 5a 0c be
       -0.05735816 -0.14207973 0.04692 -0.13706209
0001e0 99 cc 6d bd 4d e8 a6 bd 95 58 b1 bc 52 6f b4 3d
       -0.058056448 -0.081497766 -0.021648685 0.08810295
0001f0 22 d6 b6 bd 62 dc 1b bd 07 f9 e9 bd 9d 15 61 bd
       -0.08927561 -0.03805197 -0.11424451 -0.054952253
000200 0c 59 d0 3c 52 16 fc bc 6a ca ac 3d 4f 1e 2b 3d
       0.025433086 -0.030772362 0.08437045 0.04177695
000210 a1 cf bd 3d b2 e7 0d 3e 79 46 c3 bc 86 cd 37 bd
       0.09268118 0.13857916 -0.023837315 -0.044873737
000220 69 cd a4 bd 29 5b 82 3c 50 67 1a be 21 45 74 3d
       -0.080469914 0.01591261 -0.15078473 0.05963624
000230 20 e4 eb bd 38 41 0a 3d 7f 29 f3 bc 16 1c cd 3d
       -0.11518121 0.033753604 -0.029682873 0.100151226
000240 1b 92 ea bd 49 16 a5 bd c7 3e 80 bd 05 fe b6 bd
       -0.11453649 -0.08060891 -0.06261974 -0.08935169
000250 c7 95 e4 bd 7e 59 a1 bc 70 61 36 3e 98 69 d3 bc
       -0.1116138 -0.019695994 0.17810607 -0.025807187
000260 df 94 c1 bc 95 11 3f 3e c7 f6 96 bd d7 bd 5d 3e
       -0.023630558 0.18659051 -0.07371288 0.2165445
000270 cd dc 02 3d 3f a8 27 bd 08 b1 b0 bd ff 26 a9 3d
       0.031948853 -0.040931936 -0.08627516 0.08259391
000280 ff 8c 54 3b 1f 23 1e 3e cb d2 ae bb e7 d4 b7 3c
       0.0032432673 0.15443085 -0.005335187 0.022440387
000290 01 ff 3e 3e 53 1e 87 3d ae 3e ab bd 28 e4 43 3d
       0.18651964 0.06597581 -0.083615646 0.04782501
0002a0 a9 cf 0d 3d d8 cc 70 3e 45 50 67 bd d1 23 01 3c
       0.03462187 0.23515642 -0.056473035 0.007882074
0002b0 7c db e7 bd 8a 8e 88 bb 6e 7f 71 ba b5 af 5a 3e
       -0.1132116 -0.0041673826 -0.0009212409 0.2135609
0002c0 50 47 5d 3d c9 5a 80 3d 5b 2a 05 be c9 7b 5a bd
       0.054023087 0.06267316 -0.13004439 -0.053340707
0002d0 31 a4 18 3d ea ae af 3d 99 2a 16 3c 24 73 bb 3c
       0.03726596 0.08578284 0.0091654295 0.022882052
0002e0 0d 38 a1 bc eb 3e f5 bc 0b 96 f4 3c 5d ed 04 be
       -0.019680047 -0.029937228 0.029856702 -0.12981172
0002f0 af 1a 84 bd e3 69 83 3d 3e 6e db bd 7c 86 f1 3d
       -0.06450402 0.06416681 -0.107143864 0.11793229
000300 86 ff 7f 3d bc 1a aa 3d 1e 11 73 3c c9 96 da bd
       0.062499546 0.083058804 0.014835624 -0.10673291
000310 cd 82 0f bb 52 80 2d bb f8 ba b3 3d 8c a3 74 3d
       -0.0021898032 -0.002647419 0.08775896 0.059726283
000320 44 30 9f bd 52 12 b3 bd 08 8d 01 be e9 0a 4b bc
       -0.07772878 -0.08743729 -0.12651455 -0.012392738
000330 6f 8e 94 3e 1a 44 04 3d c9 eb f3 3d 26 16 da 3d
       0.29014918 0.03229151 0.11910207 0.10648756
000340 fe 6f 1f bd a5 b2 45 bd 8b 8d b1 3c 74 3b d1 3d
       -0.038925163 -0.04826607 0.021673938 0.10216418
000350 23 3a dd bd 07 8b 41 3c 24 d6 65 3d 2d 6f 17 3d
       -0.10802104 0.011812932 0.056112424 0.03697126
000360 1e f1 45 3d 7f f3 5c 3e af c8 61 3e 1e 53 c3 ba
       0.04832565 0.21577261 0.22049211 -0.001490209
000370 3a d5 e2 3c e1 4b 31 bc 74 68 a7 bb 9f d3 8a 3c
       0.027689565 -0.010821314 -0.0051088873 0.016946612
000380 81 25 20 3d 9d 74 8a bc 72 f3 97 bd e1 33 aa bd
       0.039098267 -0.016901309 -0.074194804 -0.08310676
000390 05 c7 89 3c 7e 00 13 be 42 e3 bc 3d b7 38 ae bd
       0.016818533 -0.14355657 0.092230335 -0.08506911
0003a0 54 bd 75 3d c4 89 dc bd 38 21 cf bd 5c 2a 0d bd
       0.05999501 -0.10768464 -0.10113758 -0.034464225
0003b0 19 c2 70 3d 84 a8 dd bd 5c af 91 bd d2 38 9d bd
       0.058778856 -0.108231574 -0.07113525 -0.07676853
0003c0 15 e5 88 bd 56 ff 9a bd 31 d9 66 bd be 8a e5 bd
       -0.06684319 -0.07568233 -0.056359474 -0.112081036
0003d0 00 7d 5b 3d ec 91 a8 bd 08 c8 03 3e cc e2 8d bd
       0.053586006 -0.082309574 0.12869275 -0.06928024
0003e0 c4 4c 42 3d 44 a1 c5 bd 0c 2e d1 3d 57 36 66 3d
       0.04743649 -0.096498996 0.10213861 0.056204166
0003f0 24 b6 19 3e 58 dd 0f be 68 23 80 bc 95 8b 36 3c
       0.15010887 -0.1404928 -0.015641883 0.011141677

lstm.bias_hh_l0 f4 [512]
000000 e3 f4 7f 3d 06 bd 11 bd c1 ed 0f bd 66 ce 1e bd
       0.0624894 -0.035580657 -0.03513885 -0.038771056
000010 42 51 b5 bd c1 34 04 3d d7 55 fa 3c b1 06 8d bd
       -0.08853389 0.032276873 0.03055851 -0.06886042
000020 04 62 09 be 78 06 93 bd 2e 08 d8 bc b3 6b d9 bb
       -0.13416296 -0.07178968 -0.026371088 -0.006635153
000030 60 50 81 3a ea 25 7a 3b f4 ec ad bd 85 d0 31 3d
       0.0009865873 0.0038169571 -0.08492461 0.04341175
000040 9f e3 b7 3a 80 c3 1d be 58 0f 9f bd 29 f4 92 bd
       0.0014029628 -0.15406609 -0.077665985 -0.07175476
000050 d8 0d 04 be 49 05 4d bd 3c b6 f3 3d 95 ed 49 bd
       -0.12895906 -0.05005387 0.11899993 -0.04929884
000060 a3 50 38 bd d5 1a 79 bd 69 91 c5 bd 4a b7 b6 bd
       -0.044998776 -0.060816605 -0.096468754 -0.08921678
000070 7c 65 a5 bd a4 47 24 bd f6 ca f4 bd 72 b5 32 be
       -0.08075997 -0.040107384 -0.11952774 -0.17452028
000080 29 87 4e bd 8b 9b ea bd 88 40 96 bd fb 57 9a bc
       -0.050421868 -0.11455449 -0.07336527 -0.01884078
000090 f2 9d 06 bd 26 77 3c bd 49 9e 26 3d f2 d8 ad 3d
       -0.032865472 -0.046012066 0.040678296 0.08488645
0000a0 c6 2c c1 3b 15 91 aa bd a2 cc cd bd 47 d9 04 be
       0.00589523 -0.083284535 -0.10048796 -0.1297351
0000b0 51 82 8c bd 28 0f d3 bc 3d 90 47 bc 38 ef 98 3d
       -0.068607934 -0.025764063 -0.012180385 0.07467502
0000c0 61 0a a4 bd a7 6d 1f 3c e3 89 31 bd e3 c6 35 3d
       -0.08009792 0.009730733 -0.04334439 0.044379126
0000d0 0a f4 c9 3c 04 26 1a 3d 75 05 4d bd dc 2a e3 3b
       0.0246525 0.03763391 -0.050054032 0.0069325995
0000e0 4e 89 8a 3d c9 84 ad bb d5 24 ab bd 52 72 19 be
       0.0676447 -0.0052953702 -0.083566345 -0.14985016
0000f0 b0 d1 31 bc bd c7 5d bc 4f 7c 60 3c 24 57 b2 bd
       -0.010853216 -0.013536391 0.0137015125 -0.08708027
000100 f7 d7 56 bd 1b 4b 4c 3d 5a d5 6e 3d 70 e8 a1 bd
       -0.052452054 0.049876314 0.058308937 -0.07905662
000110 96 e9 7e 3b 3e 5b 09 be f2 5b 0e be 8a 89 02 bd
       0.0038896552 -0.13413712 -0.13902262 -0.03186945
000120 25 36 9c bd de f7 54 3d 02 3c e1 bd 78 5f cb bc
       -0.07627515 0.051994197 -0.10997774 -0.024825796
000130 3d 52 9a 3d 47 d2 e0 3c d2 4e c2 3d 78 a1 8a bd
       0.07535217 0.027444018 0.0948769 -0.06769079
000140 c9 60 7a bd 15 10 7d bd 85 09 95 bd 5d 80 99 3d
       -0.061127458 -0.061782915 -0.07277206 0.074951865
000150 ab 85 7f bd 8a 14 05 3d db b1 2b 3d 86 10 94 bd
       -0.062383335 0.03249029 0.041917663 -0.07229714
000160 3e 4b 61 bd db 82 11 bd 22 6f 7f 3c fe 73 01 bd
       -0.055003397 -0.035525184 0.015590461 -0.03160476
000170 14 b2 5e bd 62 05 56 bd 26 07 96 bd 7c 45 9f bc
       -0.054369047 -0.052251227 -0.07325582 -0.019442312
000180 61 50 7e bd 91 0c ad bd 7b f3 d5 bd 54 f3 f0 bc
       -0.062088374 -0.084496625 -0.10446831 -0.029412903
000190 37 e1 68 bd f4 1c 0d be 8a 24 6f 3c c9 30 1c be
       -0.056855407 -0.13780576 0.014596114 -0.15252985
0001a0 83 ef 47 3d d4 5e e4 bd 0f d3 fa bd 5d 1b 8a bd
       0.0488124 -0.111508995 -0.122472875 -0.067435004
0001b0 03 99 bc bb 6b 4a 2f 3d 39 c1 d2 bd 79 0a b1 bc
       -0.005755545 0.04279558 -0.102907605 -0.021611439
0001c0 6b 71 89 bd 74 67 aa bd b6 ee b1 bd 52 4c 6c bd
       -0.06711086 -0.08320513 -0.086881086 -0.057689972
0001d0 ef 70 8e bd ad 94 85 bd ef 85 35 bc aa a3 01 bd
       -0.06955134 -0.06522498 -0.011079296 -0.031650223
0001e0 a8 9e 81 3c c9 f6 18 bd 40 ae 40 bc 82 c9 97 bc
       0.015822724 -0.037344728 -0.011760294 -0.018528704
0001f0 af 43 4c 3c d1 ac 60 bd 61 81 d1 bd 2b a8 d8 3c
       0.012467309 -0.05485231 -0.10229755 0.026447376
000200 53 db a8 3d 49 42 c2 bc a8 8a a9 3d 5d 32 37 3e
       0.08244958 -0.023713248 0.082784 0.17890306
000210 86 49 72 bd 40 31 f8 3b 05 3c f7 3d 5c e8 5b 3d
       -0.05915215 0.0075742304 0.12071995 0.053688392
000220 d2 a3 d5 bd f0 66 34 bc f7 5c 82 bd aa 3f b5 3d
       -0.10431637 -0.01101087 -0.06365388 0.088500336
000230 92 ad 2b bd 14 f6 ff 3d dc 44 a6 bd fc 65 02 bc
       -0.041913576 0.124981076 -0.08118603 -0.007958885
000240 aa 37 65 bd a7 db f7 bd fa 61 17 3c 09 c4 b0 bd
       -0.05596129 -0.12102442 0.009239668 -0.08631141
000250 d5 18 d7 bd 81 8f f2 bd 2a 7b 7b 3e 28 f3 5a 3c
       -0.10502783 -0.118437774 0.24558702 0.013363637
000260 35 ad db 3c 28 e2 2d 3e 36 5a b0 bc 46 25 ea 3d
       0.02681599 0.16980803 -0.02152739 0.114328906
000270 98 7d c5 bc 2e c9 64 3d d5 81 90 bd 0d eb aa 3d
       -0.02410774 0.055855922 -0.070560135 0.08345614
000280 71 31 7c bb e8 3f a3 bc 93 e4 17 3e 95 e4 18 3c
       -0.0038481618 -0.019927934 0.14833288 0.009331842
000290 b5 6a ae 3d b2 9a 4c bd 76 e7 ad 3c 94 82 09 3e
       0.085164465 -0.049952216 0.021228533 0.13428718
0002a0 e9 1c 18 bd f9 d6 e3 3d de cf c2 3c 0f ea 5c bd
       -0.037136946 0.11124987 0.02378076 -0.053934153
0002b0 9e f9 de bd af 2b 95 bc 84 4b a7 bd c3 c5 4e 3e
       -0.108874545 -0.018209307 -0.081687 0.20192628
0002c0 4c 77 41 bd b0 88 7b 3d d9 af c0 3c 2d 4b 17 bd
       -0.04723291 0.061409652 0.02352135 -0.036936928
0002d0 38 0b 31 3b 93 10 2e 3e cb fc f2 bc 97 04 67 bd
       0.0027014744 0.1699851 -0.029661557 -0.05640086
0002e0 5e 8e f4 bd 8b 63 ba bd 9c 78 b9 bc 7a a4 17 be
       -0.11941217 -0.091010176 -0.022640519 -0.14808837
0002f0 9e 80 7f 3d 6b 1a 03 bc 3b 92 8d bd 2e 67 cf 3d
       0.06237852 -0.008001904 -0.06912657 0.10127102
000300 23 9f 82 bc 64 e8 08 3e 5e 70 61 bc 8b 74 6a bc
       -0.015945023 0.133699 -0.013759701 -0.014310013
000310 dc 57 02 be e4 44 b0 bc e1 1e f6 3d 41 d4 23 bd
       -0.12728828 -0.021517225 0.120176084 -0.039997343
000320 4d 47 4b 3d 93 34 d7 3b 79 93 f1 bc 67 69 f1 bd
       0.049628545 0.0065675466 -0.029489266 -0.11787682
000330 7d 50 90 3e d8 0c d5 bb 23 b0 ac 3d e8 cc 90 3d
       0.28186408 -0.0065017752 0.08432033 0.07070333
000340 3b b8 ec bb 44 62 19 be 95 27 9f bb 58 67 e7 3d
       -0.0072241104 -0.14978892 -0.0048570135 0.11299008
000350 1a e3 00 3b 77 55 e2 3c 27 4c 70 3d f2 6b 83 bd
       0.0019666613 0.027628643 0.058666375 -0.06417073
000360 a5 1c ce 3d 3f 9e 1c 3e 3e 6b 86 3e 81 a7 cf bd
       0.10064057 0.15294741 0.26253694 -0.10139371
000370 49 48 52 ba 85 de 19 3c 06 98 28 3c c5 15 cf ba
       -0.00080216356 0.009391432 0.010290151 -0.0015799335
000380 e0 de 9c bc 9d 7d 5d bd c5 48 88 bd 55 5e 08 3c
       -0.019149244 -0.054074872 -0.06654505 0.008323272
000390 d7 46 49 3d 0e 71 df bc 1f 80 15 bd 52 24 10 be
       0.049139824 -0.027275588 -0.03649914 -0.14076355
0003a0 32 02 ad 3d 2f 01 1c 3b 75 c1 51 bd 1d 2b 0c be
       0.08447684 0.0023804416 -0.051209886 -0.13688321
0003b0 2a eb ba 3d ea 22 90 bd 8d 30 d5 bd 0d ac b5 bc
       0.09126885 -0.07037909 -0.10409651 -0.022176767
0003c0 7e ef e6 3c b1 5a 80 3c 42 cf 16 3d 71 7a 06 be
       0.02819037 0.015668245 0.03681875 -0.13132645
0003d0 1d 34 06 3e db d4 57 3d 73 d0 88 3d df a6 3f bd
       0.13105817 0.05269323 0.066803835 -0.04679
0003e0 df c4 b9 3d 3a a1 98 bd 6a 21 a6 3d 35 f4 b3 3d
       0.09070753 -0.074526265 0.08111842 0.08786813
0003f0 ff f7 48 bc 7e fb 91 bd 44 81 f1 bc 2f 20 1f 3e
       -0.012266158 -0.071280465 -0.029480584 0.15539621

fc.weight f4 [2, 128]
000000 03 d9 81 3d f4 95 b9 bc f9 81 86 bd a0 5d fb 3c
       0.0634022 -0.022654511 -0.06567759 0.030684292
000010 bc 52 83 bd 6d 19 4d 3c 48 3d 60 be e3 31 4d be
       -0.06412265 0.012518269 -0.21898377 -0.20038562
000020 9d 93 5c 3c 59 2f fd 3d 0c d8 68 bc 66 b5 ae bd
       0.013462928 0.123625465 -0.014211666 -0.08530693
000030 0e c1 32 3d e5 d7 ad bd 1a 06 e2 3d 6d 58 4a bd
       0.043641143 -0.08488444 0.1103632 -0.049400736
000040 32 73 32 bd 8b 03 87 3c 69 91 a6 bd 12 d2 bf 3d
       -0.04356689 0.016481182 -0.081332035 0.093662396
000050 ab 46 1c bd e2 bf 22 be 63 f4 01 be 21 f4 2e be
       -0.03815333 -0.1589351 -0.12690882 -0.17085315
000060 46 18 b5 3d 05 8c e6 3c ee 3b b0 ba a3 ea 7b 3d
       0.088425204 0.028142938 -0.0013445595 0.061503064
000070 83 26 33 3c 0d f5 8e 3c 50 47 ae bd da a8 09 3e
       0.010934475 0.017450834 -0.085096955 0.13443318
000080 09 5b 0a 3e 48 c7 00 bb 90 7f c8 bd 10 ba f5 bc
       0.1351129 -0.001965003 -0.097899556 -0.029995948
000090 fe c4 a7 3b ea c8 ef bd 5f 33 77 bd 39 15 a5 3d
       0.005119919 -0.11708243 -0.060351726 0.080606885
0000a0 21 31 20 3d 71 6d 4f 3e 40 53 b7 bc fa 7c 37 be
       0.039109353 0.20256592 -0.022378564 -0.17918769
0000b0 ad 17 c3 bc 94 bc 09 bd df 5c fe 3d 37 66 b1 bc
       -0.023815 -0.033627108 0.124200575 -0.021655185
0000c0 0c 54 9a ba 45 39 27 be 6c 79 c3 3d 63 54 39 3e
       -0.0011774315 -0.1633044 0.09544644 0.18098597
0000d0 a9 31 92 bd 1c 6b 37 be a4 98 e3 bd 77 64 17 be
       -0.07138378 -0.17911953 -0.11113098 -0.14784418
0000e0 b8 1e 97 bd 88 26 91 bd bb c1 3a be 57 58 8e ba
       -0.07378906 -0.070874274 -0.18237965 -0.0010860068
0000f0 42 8a d5 bd 9c 6e 36 3e 41 19 fc 3d 51 3a d4 bd
       -0.10426761 0.17815632 0.12309504 -0.103626855
000100 f6 0f ea 3d 9f 59 34 3d 60 8b 72 3c ea 2d ae 3d
       0.114288256 0.04403078 0.014803737 0.08504851
000110 93 6b 60 bd b4 43 d1 bd 2e 1c 32 be bf e9 03 3e
       -0.05479009 -0.102179915 -0.17393562 0.12882136
000120 fa e4 03 3e 90 c8 3e be 90 3a 6d bb 0b ed f4 3d
       0.12880316 -0.18631196 -0.0036198236 0.11959275
000130 2a e9 b0 bd 20 41 08 3e 2a 02 02 3d b1 41 44 bd
       -0.086382225 0.13306093 0.031740345 -0.04791421
000140 4b 60 3d bd 0e bb f7 bc a1 f4 b3 bd a5 34 42 3d
       -0.04623441 -0.030240562 -0.08786894 0.047413487
000150 1d b7 08 3e 23 01 11 be f6 ad b1 3d 8d 2d 15 3e
       0.13351102 -0.1416059 0.086757585 0.14568157
000160 6d bf 46 3c 93 17 37 be 07 97 00 3e f8 27 0e 3e
       0.0121306 -0.17880087 0.12557612 0.13882434
000170 4a dc bc bd 58 ec 22 3e 88 98 cf bd 13 82 36 be
       -0.09221704 0.1591047 -0.10136515 -0.17823057
000180 6c f5 9e 3c e9 28 dc bd 97 b4 88 bd 5b ab 46 3d
       0.019404136 -0.107499905 -0.0667507 0.04850326
000190 4e 29 92 bd 74 16 a8 bd c0 cb 4b bd a0 78 c3 3d
       -0.071367845 -0.082074076 -0.049754858 0.09544492
0001a0 55 83 0f be ed 67 94 3d e6 45 fb 3d 63 82 e7 3d
       -0.14014943 0.07246385 0.122691914 0.11304166
0001b0 e5 29 5b 3e 33 c3 e2 3d cf 17 d6 3d 03 0d 5e 3e
       0.214027 0.110723875 0.1045376 0.21684651
0001c0 c2 9f 97 3d 9d 22 05 3e a5 b3 e4 bd 9a b1 e0 3d
       0.07403518 0.13001485 -0.11167077 0.10971375
0001d0 8f 65 27 be 3f fd e3 bb e7 f5 f6 bd 37 d2 93 3b
       -0.16347335 -0.0069576795 -0.12058621 0.0045111435
0001e0 a1 08 c1 bd 16 04 d5 3d ca 68 ff bd 5c 10 29 bd
       -0.09425474 0.1040117 -0.12471159 -0.041275367
0001f0 99 0a be 3b d7 11 15 be 9d af c3 bd d4 5d 80 3d
       0.005799603 -0.14557587 -0.0955498 0.06267896
000200 aa 40 03 be 16 8f 38 bd 07 15 1a bd e0 4a b4 3d
       -0.12817636 -0.045058332 -0.03761771 0.08803344
000210 41 30 f9 3c b3 36 1e 3d ef 66 d6 3d d3 45 80 3e
       0.030418517 0.038626384 0.10468852 0.25053272
000220 8e d0 cf 3c 31 9e d2 bc 05 04 df 3c fe f3 81 3d
       0.025368001 -0.025710197 0.027223596 0.06345366
000230 5b 15 00 bd 2d b8 27 3e b6 a3 d2 bd 4f 87 35 3e
       -0.031270366 0.16378851 -0.10285132 0.17727397
000240 02 d3 cd 3d d6 a5 32 bc be 97 67 bd b1 d0 12 be
       0.10050012 -0.010903796 -0.056541197 -0.14337422
000250 4b 02 98 3b ba 94 34 3e 2b c8 3c 3e aa f5 e4 3d
       0.004638945 0.1763486 0.18435733 0.11179669
000260 b7 28 f2 bd 26 1d 27 bd 36 7b 10 3e 91 e8 58 bd
       -0.11824172 -0.040799282 0.14109501 -0.052956168
000270 a5 61 5e 3d e0 57 06 bd 6c 4d 1a 3e c3 f4 c6 bd
       0.05429234 -0.032798648 0.15068597 -0.09714653
000280 6a 7c 0e bd 73 be 37 3d 6d f7 1d 3e fa db 86 bc
       -0.03478662 0.04485936 0.15426417 -0.016462315
000290 27 77 ce bd 75 d9 8b 3d 96 0f a7 3d 62 57 e1 3c
       -0.1008132 0.06828586 0.0815727 0.027507488
0002a0 28 22 80 3d 5e 9f 61 be 2e 51 08 bd 14 8f 1e 3e
       0.06256515 -0.2203345 -0.033280544 0.15484267
0002b0 3c 6b 14 3e 3f 0c 39 3e 6c 38 6d be 76 79 d7 3d
       0.14494032 0.18071078 -0.23166054 0.10521214
0002c0 2b 05 c7 3d 3c 7a e2 3d 17 10 78 3b 62 c2 30 be
       0.097177826 0.110584706 0.0037851387 -0.17261651
0002d0 36 20 3e 3d af f3 19 3d 7d 7b 1b 3e 6a dc b5 3d
       0.046417437 0.03758591 0.15183826 0.08879931
0002e0 66 27 e5 3d b9 5a 00 3e aa e9 21 3e f4 ac c9 3c
       0.11189155 0.12534608 0.15811792 0.024618603
0002f0 06 aa ac bc 79 bf a0 bd cd d5 e7 bd 93 25 c8 3d
       -0.021077167 -0.078490205 -0.11320076 0.09772792
000300 f1 70 d5 bd f6 04 46 bc 5b cd d9 bd 1d be 8d bd
       -0.104219325 -0.012086144 -0.106348716 -0.06921027
000310 de 63 3f bb 9f a1 2a 3e 22 bf 3e 3e d2 cc ad bd
       -0.0029203813 0.16663216 0.18627599 -0.08486332
000320 cf aa 15 3c 47 01 de 3d e4 66 42 bd 10 6e fb bc
       0.009134962 0.108400874 -0.047461405 -0.03069213
000330 86 6f 1e 3e 7c 18 58 be 13 9f a6 bd 41 e6 22 bd
       0.1547223 -0.2110309 -0.0813581 -0.03977037
000340 8b 94 23 3d 92 9d 9d bd cb ff b0 3d 52 db eb bc
       0.039936583 -0.0769607 0.08642539 -0.028791104
000350 59 a6 80 bd 7b c0 70 3d be cc 8a bd a8 c1 cd bd
       -0.06281728 0.058777314 -0.06777333 -0.100467026
000360 21 39 f6 3d 9b b7 80 3e 3c 4d 50 be f8 c1 f9 bd
       0.12022615 0.2514008 -0.20341963 -0.121952
000370 fc 2b a5 3c 36 00 43 be 28 b2 f5 3d 90 1f 4f 3e
       0.020162575 -0.19043049 0.11996871 0.20226884
000380 6f 79 ac bd e0 66 c2 3b 87 ad 79 3d 89 35 af 3d
       -0.08421599 0.005932674 0.060956504 0.08555133
000390 d6 ce fe 3c 21 fe 46 3d ee 3c c7 3d 87 98 d4 bd
       0.031104486 0.0485822 0.09728418 -0.10380655
0003a0 26 46 94 3d c0 fe c5 3d ce 69 c3 bd 83 ef 11 be
       0.07239942 0.0966773 -0.09541665 -0.14251523
0003b0 7b 2e 65 be ff 1b 0c be 62 2b d2 bc 5e 90 42 be
       -0.22381012 -0.13682555 -0.025655452 -0.19000384
0003c0 6d 4b 73 bd 6f 9e 8c bd 2c 27 bf 3d be 0e 3f be
       -0.059398104 -0.06866156 0.09333643 -0.18657967
0003d0 d7 cb 3c 3e 51 35 c3 3c 45 bc b2 3d fe c8 28 be
       0.18437134 0.023829134 0.08727316 -0.16482922
0003e0 14 ab 4c 3d 38 3a 03 be 93 d4 c1 3d b9 fd 03 3e
       0.04996784 -0.12815177 0.094643734 0.12889756
0003f0 a1 0f 4b bc 63 bf e6 3d e3 5a 05 3e 68 bf 72 bd
       -0.012393863 0.11266973 0.13022952 -0.05926457

fc.bias f4 [2]
000000 ca 0d 81 3c c7 58 5f bd
       0.015753645 -0.054528024
