Models/cnn_lstm_model_stream_Nstream_full_0,7.pth (torch, 408264 bytes, 8 tensors)

conv1.weight f4 [64, 8, 3]
00000000: cdfc 773e 2a71 283e a5a9 3c3e 924a 933e
00000010: 658e cc3d cdf2 713e 2330 0abe 9742 5c3e
00000020: 479d 3c3e 56e3 023d e446 813e 924f 493e
00000030: c57b 483e 8df5 c03e de7e a63d 0380 05be
00000040: c3be 9ebd 95d0 63be 20c6 33be 6189 bd3d
00000050: e4b6 eebd 7fd8 41bc 85e9 4f3c f169 683e
00000060: 3f74 eabb f5a2 2f3e 6eac 0fbd 582d af39
00000070: 0d2c 1f3d a76e 913e 8e4b 16bb 1fa1 2c3b
00000080: 3892 8abe 3fe6 dcbd 052e d4be 807d a8be
00000090: 3d76 a33c 9f0b 4bbe 8c4d fbbc 4195 2a3e
000000a0: 57b6 8a3e ebee cabd cf40 cf3d d5ff 3dbe
000000b0: 3868 f7bd f28d 0e3d c74a e33c a39c 97bd
000000c0: b25e 093e f701 693e 6184 3bbd 23ed 413e
000000d0: fdc7 f93e 2ca9 3c3e 3b30 af3d 7ebe 6fbe
000000e0: d20b 203e 5db2 e7be 8ca2 bdbd 7d9b 37be
000000f0: 6149 e43b fe47 cbbd 6450 c13b 905a 473e
00000100: d98d 503e 6460 103e e6e4 63be f621 2a3e
00000110: 490b a2bd 65bd f3bc 6f19 61bb 726b dfb8
00000120: c14f 0cbe d78b d43c c01c 9c3e e113 7b3d
00000130: cb51 883e 3084 af3b 6e2b 03bf ae0c c9be
00000140: f42f 1abe ff75 ef3b e196 85be 4c67 2abe
00000150: 4c59 a43d 76c0 26be 8c0e 26be 6065 d1bc
00000160: bba5 82bb 3dfc 9bbd 3ca0 863e b722 503e
00000170: 6eea 74be b511 213d 34de 8fbd 9564 4d3e
00000180: 0258 47be 17c8 5ebe f8e7 263e f757 78be
00000190: c44b ffbe e66e 03bf b021 6fbe 0d58 c8bd
000001a0: ba31 78be c367 3abe 537c a2be dd1f c83c
000001b0: ba3e 8d3e 3f7f 4abd 9b56 7e3e bfd1 f33d
000001c0: 0ccb 123e 0133 bbbc 9eb8 603e 61eb cb3e
000001d0: 0a16 063e f274 b43e 9afd af3e 8100 583e
000001e0: 1f86 f9bd 5261 44be 31d3 febd a761 7cbe
000001f0: 6c8b 54bd 8de7 2c3e d7c2 643e c461 8b3e
00000200: 4265 883e 8f3f 15be 7ff0 3cbc e4f9 36be
00000210: f499 0b3e c858 e7bd a5f7 83be fc75 283e
00000220: 7dbf 61be 9b19 493e 179d 3dbe 87ac c2bd
00000230: 451c c9bc 08a5 0dbe f003 e33c f600 303d
00000240: c33a adbe 5269 26be 390c 6fbd f7e6 ed3e
00000250: 3f6e 083f 559f 093f f566 5f3c e454 bdbd
00000260: 398a 9dbd f79f 9d3e 1b03 b53e 90c4 27bd
00000270: e606 9c3d 9359 fe3d bdf1 5ebc f676 793b
00000280: aae5 823a 46f8 92bd b7fc a93e eb4b ad3e
00000290: e706 903c 3e68 b23d b6a0 3a3e 8c88 fa3d
000002a0: 16a9 2fbe f264 8cbe ed17 13be f874 dabe
000002b0: 51ea d4be e927 4ebb 5674 123d c522 31be
000002c0: 4521 07be 987f 6a3d 8cf3 1f3e ef69 983e
000002d0: 779d 7fbe 28d3 c1ba d8fe c5bd b9bd bfbd
000002e0: e5ad 1d3e 5611 933b ccdf 9f3d c1aa 34be
000002f0: 265f fdbe 2919 e9bd feba 01be 0137 99bd
00000300: afbe d73d 6487 593e c1ef 8c3e ac11 44be
00000310: 4326 9a3c 3f3f 89be f878 6ebe cfe8 66be
00000320: 2f6b 3bbe f88a 933e 9680 89bd de44 c93e
00000330: 1778 283e 7a4f 933d 16f7 2c3e 3744 f8bd
00000340: 6c90 09be 5efc 00be 3b0a 943d 8d59 22bd
00000350: c487 cebd a041 7abd 47d5 71bd ac44 9cbd
00000360: 8ccb e03d ff75 c83d 332d 1fbe 56b4 413e
00000370: 666f edbe 7c5b 1ebf fbdd 653d 0a05 bc3e
00000380: e662 3e3e 3a90 acbb 3cac 8c3d cf0a ce3d
00000390: ecf9 2dbe 613d b0be 639e b03d 9f4e 02be
000003a0: d582 343e 0db6 5dbe e155 21be 4e80 a9bd
000003b0: a8c7 bbbc e93d 323e 0465 b53c 9796 0e3e
000003c0: 3137 833e fcf7 8f3e ae59 dbbd 320c 9a3d
000003d0: a866 bc3d a88b 5fbe e278 73be 7fdf 653c
000003e0: a356 2bbe 0860 553e 9745 2d3e 5dac 1abd
000003f0: 46a8 2d3e b39b 803e 608e e53d bd9a 38be
0.2421753 0.16449419 0.18424089 0.2876783 0.09988097 0.23627777 -0.13494925 0.21509777
0.18419372 0.031955086 0.25249398 0.1965926 0.19578464 0.3768734 0.08129667 -0.13037114
-0.07751229 -0.22247536 -0.17556047 0.092547186 -0.11655977 -0.011831402 0.012689953 0.22696663
-0.007154971 0.17152007 -0.03507655 0.00033412385 0.03886037 0.28404734 -0.0022933218 0.0026341153
-0.2706468 -0.107861035 -0.4144136 -0.3290825 0.019953841 -0.19828652 -0.030676626 0.16658498
0.2709224 -0.09908851 0.10119783 -0.18554623 -0.12080425 0.03480334 0.027745618 -0.07402923
0.1341503 0.22754656 -0.045780543 0.18938117 0.4878539 0.18423909 0.08554121 -0.23412511
0.15629509 -0.45253268 -0.09259519 -0.17930408 0.0069667553 -0.09925841 0.005899476 0.1946814
0.2036661 0.1409927 -0.22255287 0.16614518 -0.07912309 -0.029753396 -0.0034347435 -0.00010653482
-0.13702299 0.025945587 0.30490685 0.061298255 0.26624903 0.005356334 -0.51238143 -0.39267486
-0.15057355 0.0073077674 -0.26091674 -0.16640967 0.080248445 -0.16284356 -0.16216487 -0.025561035
-0.003987042 -0.0761647 0.26294124 0.20325743 -0.23917553 0.039323527 -0.07024804 0.200579
-0.19467166 -0.21756016 0.16299427 -0.24252306 -0.49862492 -0.5134109 -0.23352695 -0.09782419
-0.24237719 -0.18203644 -0.31735477 0.024429256 0.2758692 -0.049437758 0.24837725 0.1190524
0.14335269 -0.022851469 0.21945426 0.39828017 0.13094345 0.35245472 0.3437317 0.21093942
-0.12183785 -0.1917775 -0.12442625 -0.24646626 -0.051890776 0.16885205 0.2233995 0.27223027
0.26639754 -0.14575027 -0.011531948 -0.17868763 0.13632947 -0.112962306 -0.25774875 0.16451257
-0.22045703 0.19638674 -0.18516956 -0.09505563 -0.024549613 -0.13832486 0.027711838 0.042969666
-0.33833894 -0.16251114 -0.058361266 0.46465275 0.5329322 0.53758746 0.013635387 -0.09244707
-0.076923795 0.30786106 0.35353932 -0.04095894 0.07618503 0.12419429 -0.01360744 0.003806529
0.0009986658 -0.07176261 0.3320062 0.33846983 0.017581416 0.08711289 0.18225369 0.122330755
-0.17154345 -0.27420765 -0.14364596 -0.42667365 -0.4158502 -0.0031456894 0.035755478 -0.1729842
-0.13196285 0.05725059 0.1562025 0.2976832 -0.24962412 -0.0014787661 -0.09667748 -0.093623586
0.15398367 0.0044881506 0.07806358 -0.17643262 -0.49486655 -0.11381752 -0.12668988 -0.07481194
0.10534417 0.21243054 0.27526668 -0.19147366 0.018817073 -0.26806065 -0.23288333 -0.22549747
-0.18302606 0.28816962 -0.06713979 0.39310354 0.1645206 0.07192893 0.16891131 -0.12122386
-0.13433999 -0.1259627 0.07228514 -0.039636184 -0.10084489 -0.06109774 -0.059041288 -0.076302856
0.109763235 0.09788131 -0.15544586 0.18916449 -0.46374053 -0.61858344 0.0561199 0.36722594
0.18592414 -0.0052662166 0.068687886 0.10060655 -0.16989869 -0.34421828 0.0862396 -0.12725304
0.17628033 -0.21651478 -0.15755416 -0.08276425 -0.022922352 0.1740643 0.022142895 0.13924633
0.25628045 0.28118885 -0.107104644 0.07521857 0.091992676 -0.21830618 -0.23776582 0.014030336
-0.16732268 0.20837414 0.16921078 -0.037762035 0.16958722 0.2511879 0.112087965 -0.18027778

conv1.bias f4 [64]
00000000: 2c50 a03d 3f65 df3b 53f0 48be 1428 64be
00000010: 4ca8 c03d 38d9 103e 2e76 1abe 575d 4d3d
00000020: 9320 c23d 488f 753d 17d4 f3bd 3600 f43c
00000030: ff84 3fbe c723 82bd cfc0 ac3d 20bf 3c3c
00000040: 8ab6 3b3d 168c 09be c1c5 dd3d 15f3 f8bd
00000050: 06cc bdbd 92f8 03be 43d6 eebd be66 1abe
00000060: d7ea 26be 6802 d23d 141c 88be 34c4 0dbb
00000070: e980 a4bd 43b1 48be 9e89 e73c c1df b9bc
00000080: 4493 283d 88a7 623d d042 cebd 6353 bbbe
00000090: 8b19 cbbd c0c0 483e 8354 0ebd 3487 823c
000000a0: 870c 0e3e 1965 0fbe 1e11 24be f704 c1bd
000000b0: 3c27 d7bc fe28 693e 598d 783d babc 6f3c
000000c0: 39e2 e23c d5e4 09be e434 71be 86d9 123d
000000d0: eaf2 1f3e ee13 e3bd 0ac6 9abe a671 9cbd
000000e0: 239f 68bd 7a4d a33d 82b9 72be e90a 2f3d
000000f0: 71bf 1ebe a422 713d b904 56be 73fc 053e
0.078277916 0.0068174894 -0.19622926 -0.22280914 0.094071 0.14145362 -0.15084144 0.050137844
0.09478869 0.059951097 -0.11905687 0.029785257 -0.18703078 -0.0635448 0.08435213 0.011520177
0.04582838 -0.13432345 0.10828734 -0.12155739 -0.0926743 -0.12887791 -0.11661961 -0.15078256
-0.16300522 0.10254365 -0.26583922 -0.0021631839 -0.080324 -0.1959887 0.028263863 -0.022689702
0.04115607 0.05533555 -0.10071337 -0.36587057 -0.09916981 0.19604778 -0.034748565 0.01593361
0.13871966 -0.1400341 -0.16022155 -0.09424775 -0.026263826 0.22769544 0.060681675 0.014632398
0.027695762 -0.13466199 -0.23555332 0.035851978 0.15620008 -0.11087786 -0.30229217 -0.07638864
-0.05679239 0.07973762 -0.23703578 0.042735014 -0.15502717 0.058870926 -0.20900239 0.13084583

lstm.weight_ih_l0 f4 [512, 64]
00000000: 7d5a 61be eb68 213e 7df6 3ebe cc6c abbe
00000010: 2538 91bd a9ed 26be 979f e6bd 2a2f 6e3d
00000020: dfb6 debe a82f ffbc 3a3e 8ebe a853 833e
00000030: a5de 92be 0274 6bbe 0f4f 57be a48b 3a3d
00000040: 5834 00be d165 61be 3603 78be af04 393d
00000050: d650 843d e6d6 c6be c445 37bd 4e0a 9f3e
00000060: 6ae9 8abe 8a35 163c aa4d e0bd c721 49be
00000070: 3af2 47bd e5e1 7bbe 5e5e 5bbe ed57 aa3e
00000080: 118f 0e3e f7cf 2abe e69e 25be 531a 99be
00000090: ec84 f2bd 14cc 21be 7390 263e ea71 aebd
000000a0: bac0 df3c bb1e 903e cd6c 2bbd 7914 6abe
000000b0: 76b1 1bbe 588e a5be 5955 65be 727b d23d
000000c0: 7f01 c2bc 2f45 e7bd 8219 21be b169 84be
000000d0: 2f53 7ebc 51e7 abbd e9e7 64be b555 06be
000000e0: 11bd a1bd 7d4a 47be 270a f2bd fd6c 89bc
000000f0: 6e0f 3dbe a677 0a3d 5933 98be f4f7 bdbd
00000100: ee00 07be f3fa 083e 6ccc a03e d818 a23e
00000110: d9cc 7e3e 3d36 14be 65e5 5f3d 7c1a 88be
00000120: 4fd6 a0bd aefc 073e 4f6b d13d 401f f43c
00000130: 2cb2 9fbd 1420 c53d 4fb8 27be 357c 0d3e
00000140: 757c 2fbd 8733 f8bb 958b 1abe f136 37bd
00000150: af0a ca3e c32f fc3d 5061 40bd ba75 0c3d
00000160: 1248 73bd ca81 3e3e 6fa0 273e 9ba7 2a3d
00000170: a393 623d 5bdd dcbd ded5 81bd 5e45 c73d
00000180: 66e3 153e dd99 ecbd 2f89 37be c345 b8bd
00000190: 441d 663d 1917 31bd ed85 e4bd 844f d1bd
000001a0: 8ed1 063e ce01 a23d d070 d2bd 3d67 03be
000001b0: 1138 423e 1ca0 08be 5ff9 ebbb ddd2 0dbe
000001c0: 46f0 0bbe 42ed bebd 8c93 813e e51e 23bd
000001d0: 4bee 1c3e aad4 2abe d83a 07be b4f5 47bd
000001e0: 5b6e bfbd 4079 193e aee8 8a3d 9a38 a2bd
000001f0: 5afe 293c 2a9c 0b3e 13b6 2bbe 1654 43bd
00000200: d248 c93d c852 4fbe e455 00bc 750b 1dbd
00000210: 9e64 22bb 1e4a 4f3a f493 913d cda2 76be
00000220: 35f5 b7bb b2fc a8bd d6ac 6b3c fa2d 2bbe
00000230: c70b 0a3d cb7e 93bd 1013 2bbe ba39 19bc
00000240: aa87 81bb f9c6 72bd 01ba 52be fe1a 18bd
00000250: 0259 833c b0e7 553d 28da 18be 8a20 afbd
00000260: c39a fb3b a436 e7bc 37c4 fb3b 86d7 293d
00000270: 2219 103c 1adf 59be 27d5 913b 8dfb 24be
00000280: 697c 76bd 4e96 c63c 128d dabd 10e0 23be
00000290: a046 e2bd de16 a5bc 8f20 37bd 54ed 52be
000002a0: e97f 86bd 9e28 b2bd b1cd d5bd 0e34 563c
000002b0: 45e3 dc3b 2d29 8e3a fc25 adbd 5e15 3abe
000002c0: 873f 4ebe 0170 6dbe 2c30 11bd 7b5a a8bc
000002d0: 4044 9cbd b276 a7bd 559b a73d f638 cfbd
000002e0: c31c a2bd 6c0b 07be fe19 173d ee15 30be
000002f0: 5e75 8abd b06f 7dbc 5513 52bc 0900 6aba
00000300: 74c6 23bc 098c 57be c6a3 cebc 323e e0bd
00000310: 7c01 d33d d806 56be 6728 6a3e 21eb babd
00000320: 35e1 45be c90d 543d bd1d ba3d c9ca f2bc
00000330: a2fa 42be 420a 3fbe f688 07be 906b 6e3e
00000340: cf75 cc3d 7fd2 953d 44f9 f33d 9de7 a9be
00000350: 60fd 813d 68ba 0abe af0b 2abe 617f ac3d
00000360: 8579 c9bd 2f6d d0bd d6ce dabc 5991 abbd
00000370: 6b0c 8e3d d1cd 3abd dae1 38be cfab f1bd
00000380: fd9e dbbd a033 b73d dbf4 1ebe b1c8 2bbd
00000390: 2cc1 cebd 8efa 0d3e 6a0e d13d 0b3b 21be
000003a0: 50d7 b23e 4869 aa3c 7541 22be f6c1 c4bd
000003b0: 4509 17be 24e6 9c3c 3a5f d33d 6024 12be
000003c0: 1d05 0abe 647f 38be c7fe d73d 1f2f 02be
000003d0: c28f d03d 02cc 12be cbcc 82be 407e 12be
000003e0: 7ae2 91be 66d5 acbd a7a7 9fbd 4d82 83be
000003f0: bdbf 5bbe a521 143e b8f1 513e b8f3 f9bc
-0.22007175 0.1576268 -0.18648715 -0.33481443 -0.07090787 -0.16301598 -0.11260908 0.058150448
-0.43498895 -0.031150654 -0.2778185 0.25649762 -0.2868549 -0.22993472 -0.21026252 0.045543328
-0.12519968 -0.22011496 -0.24219975 0.045170482 0.06460731 -0.3883583 -0.044744268 0.3106255
-0.27131206 0.009168038 -0.10952313 -0.19641791 -0.04881499 -0.2459789 -0.21422717 0.33270207
0.13921763 -0.16680895 -0.16173896 -0.29902896 -0.11841759 -0.15800506 0.1626604 -0.08517821
0.027313579 0.28148445 -0.041851807 -0.22859372 -0.15204415 -0.32335162 -0.22395839 0.102774516
-0.023682354 -0.112924926 -0.15732387 -0.25861886 -0.015522762 -0.083937295 -0.22354092 -0.13118632
-0.0789739 -0.19462009 -0.11818343 -0.016775602 -0.18462917 0.033805512 -0.29726675 -0.09275809
-0.13183948 0.1337698 0.31405962 0.3165958 0.2488283 -0.14473815 0.054662127 -0.26582706
-0.07853376 0.13279983 0.102255456 0.029800057 -0.077976555 0.09625259 -0.16378902 0.13816912
-0.0428433 -0.007574502 -0.15092309 -0.04473013 0.39461276 0.12313797 -0.046967804 0.03429196
-0.059394903 0.18604198 0.16369794 0.041663747 0.05531658 -0.10784408 -0.0633962 0.097300276
0.14637527 -0.115527846 -0.17923425 -0.08997681 0.056180254 -0.04323492 -0.11158357 -0.102202445
0.13165876 0.079105005 -0.102754235 -0.12832351 0.189667 -0.13342327 -0.007201358 -0.13849969
-0.13665876 -0.09322597 0.25307882 -0.039824385 0.15325277 -0.16682687 -0.13206041 -0.048818305
-0.093472205 0.1498766 0.067826614 -0.07920952 0.010375584 0.1363379 -0.16768675 -0.047687612
0.098283425 -0.20246422 -0.007832978 -0.038341004 -0.002477921 0.00079074677 0.07108298 -0.24085541
-0.0056139478 -0.08251323 0.014384469 -0.16716757 0.033702638 -0.07201918 -0.1670649 -0.009352142
-0.00395294 -0.059271786 -0.20578767 -0.037135117 0.016033653 0.052222908 -0.1492697 -0.08551128
0.007678361 -0.028224297 0.0076833027 0.041465305 0.008795055 -0.21276513 0.0044504586 -0.16111584
-0.06017724 0.024241593 -0.10671438 -0.16003442 -0.11048627 -0.020152505 -0.044708785 -0.20598346
-0.06567366 -0.08699153 -0.10439623 0.013073934 0.00674096 0.0010846012 -0.084545106 -0.18172213
-0.20141421 -0.23187257 -0.03544633 -0.020550957 -0.07630205 -0.08176936 0.08183924 -0.10118286
-0.07915642 -0.13187951 0.036890022 -0.17195866 -0.06760667 -0.015468523 -0.012821992 -0.0008926397
-0.009996045 -0.21049513 -0.025224578 -0.10949363 0.103030175 -0.20901048 0.22866975 -0.091268785
-0.19324191 0.05177096 0.090877034 -0.029637711 -0.19040921 -0.18656257 -0.1323584 0.2328322
0.09983408 0.073155396 0.11912778 -0.3318452 0.063471556 -0.13547671 -0.1660602 0.08422733
-0.09837631 -0.10177075 -0.026709955 -0.08377332 0.06935962 -0.045606438 -0.18054906 -0.11800348
-0.10723684 0.089453936 -0.15523092 -0.04193944 -0.10095438 0.1386511 0.102078274 -0.1574518
0.34929895 0.020802155 -0.15845282 -0.096073076 -0.1474963 0.019152708 0.103208974 -0.14271688
-0.13478513 -0.18017346 0.10546642 -0.12713288 0.101836696 -0.14335635 -0.2554687 -0.14305973
-0.284931 -0.0843914 -0.07795649 -0.2568535 -0.21459861 0.1446596 0.20502365 -0.030511722

lstm.weight_hh_l0 f4 [512, 128]
00000000: cf99 f23b 3e4d e83b 885e 31bd 4e3d 7fbe
00000010: 3609 733e fc00 7e3e e25e cf3b a3d3 243e
00000020: dd04 fdbd 007f 303e b4e1 313e 306e 723e
00000030: b315 b73c cb85 ed3b 40bc 333d 1a91 26be
00000040: 9452 8dbc d6b0 0fbe 88ab 79bd 7901 f53d
00000050: 6787 2d3e b3fb 5abe 4529 983e c710 b5be
00000060: 03b7 66be f1ba 343d 8229 453e 5413 0b3e
00000070: be71 82bd f1f3 243e 9394 7a3e d9c9 ed3d
00000080: e4c3 423d c62d 79bd d8d5 5abe 36d4 aebd
00000090: e172 9a3d 1a32 ca3c fc4b 263b 3535 af3e
000000a0: 4b0d 1d3e fac6 353e ea74 9cbd a289 97bd
000000b0: 8272 433e 757c 7dbc 3469 af3d dd4c 4f3d
000000c0: d081 adbc e702 12bd c39c 2abe d944 b5be
000000d0: e187 42bd 9a8d 90bd f6d1 a7bc 1f65 0a3f
000000e0: 5589 3cbe 2367 ac3d 7d94 fc3b 9f05 a13d
000000f0: 539a 213c 2798 903d d751 813b 4eaa f7bc
00000100: bf0f 27be ddd7 aabd 0ceb da3d 80df f9bd
00000110: ca4f 82be 37ff f3bd a71d 97bd 909b 25be
00000120: e241 7b3d a527 91be dc81 773e 720a 30be
00000130: 1cae a63d 362c 0d3d 5f22 7cbe 889c 073e
00000140: c895 3e3d ba2e ce3c c176 31be cbfd 183e
00000150: 6533 143d 280f a2bd 8e61 46be 7b95 1d3e
00000160: 99e1 823d cee7 a33c 76e6 e63d f7f0 93be
00000170: 1572 a03c b9dc 013e 0351 503e 3a94 23be
00000180: 6e25 d73d c8bc ebbc 0db4 4fbe 6457 40be
00000190: bff0 8fbc 6e5a 23be a4e4 323e 442b bcbd
000001a0: e438 35bc f5fe 513e 1aed cb3c e67f c5bd
000001b0: b5ca 39be ab7c 153e 8290 35be 059d 29be
000001c0: 86c6 c9bb a026 013e 1157 04bd 042f 47be
000001d0: 941c b73d b414 453e 8e12 28bb 5354 1d3c
000001e0: b563 213d c22c aebd b970 50be fdd5 22bd
000001f0: fcde 47be 9a7e 433d 4f7b 073e d7a6 57be
00000200: 500a c6bd 81c5 9a3d 7a97 24be 0bfa a6bd
00000210: 2655 873e c776 8d3e 7782 463c 59fe 1a3e
00000220: ada4 1abe 0711 453d dbb6 1e3e e7d6 1d3e
00000230: 542d fb3d b5db e33d 3ef6 923d 4d6e e2bd
00000240: edaf b73d a835 48be a467 173e 0d86 f1bd
00000250: f03a 08be c25d 8abe 0f51 593e a632 f7bd
00000260: 3fd4 c2bd f4fc 0b3d 6d80 793e f80f 463e
00000270: 9d55 35be 48a0 653d 9634 363e ac36 933e
00000280: d324 423e 98e3 0cbe 1d8e f7bd d045 4ebd
00000290: cdca 79bd 6b9c 103e d511 49be d5db 1dbd
000002a0: 7f99 823e 8748 bb3e 886a 9fbe 9add 093e
000002b0: 9f56 d93e 2391 51be 2b21 5e3e abe9 6fbc
000002c0: cb4a 293e f2d4 1bbe 4125 2b3b 2ff6 f8bd
000002d0: 1049 df3d dec1 13be 722d 0ebe 5a6b 7cbd
000002e0: 2aad 973e 98f3 3dbe b32d b5bd c159 8a3c
000002f0: 147c 34be d1ab 26be 6b9c 073e a3e9 ad39
00000300: 475c 17be fc60 1abe e733 cb3d 1fd4 84be
00000310: b373 47be 0e9c 313e 6db3 6cbe 007a 76bd
00000320: 27d5 3c3e 1ad5 6bbe 7c59 1c3e a258 8b3e
00000330: c4fe 82be 4cd8 7e3d f0cc aa3c feaa 58bb
00000340: 5962 57bd 01f5 0bbe 99c9 5cbe 60b9 953e
00000350: a129 febc feef 0ebd e48b 583d 2002 cf3e
00000360: ab66 233e 8faf 3f3e edf2 253d 7a12 6cbe
00000370: 8037 cb3d 6b6b 883d 9d22 863e 31f5 20be
00000380: 293b ef3e 65fb ea3b 8c60 3abe 214a 833e
00000390: eca0 8cbe 4047 a0be 3d51 a03e 409f 1fbe
000003a0: 9cdc 183d 99ee d73d 91de b93d 39bc 5fbe
000003b0: 6253 8ebd 17c9 593e 97ea 21be 10e8 e53d
000003c0: 2710 80be 02f6 213e 3a42 a939 7a3f 29be
000003d0: ab85 5abd d074 08be a30d 25bd 70bf 94be
000003e0: a79d c83d eea2 cebd b203 c9be 53aa 6e3d
000003f0: b693 cebc d558 863e 1a12 183e 8cdc 92be
0.0074035893 0.007089286 -0.043303043 -0.2492573 0.23733982 0.24805063 0.0063284496 0.16096358
-0.12354443 0.17235947 0.17371255 0.23674846 0.022349214 0.0072486154 0.0438807 -0.1626629
-0.01725129 -0.14032301 -0.0609546 0.119631715 0.16946183 -0.21385078 0.29718986 -0.35364363
-0.22530751 0.044123594 0.19254115 0.13581592 -0.06369351 0.16108681 0.24470739 0.11610765
0.047550097 -0.06083467 -0.21370637 -0.0853657 0.07541443 0.024682093 0.002537488 0.3422028
0.15337102 0.17751685 -0.07639487 -0.07399298 0.1908665 -0.015471567 0.08564988 0.050610412
-0.021180063 -0.0356473 -0.16661362 -0.3540409 -0.047492865 -0.07058258 -0.02048586 0.5406055
-0.18411763 0.08418109 0.007708131 0.078624 0.009863454 0.07060271 0.0039465236 -0.030232575
-0.163146 -0.08341954 0.10689363 -0.12200832 -0.254515 -0.11913913 -0.073787026 -0.16172624
0.061342128 -0.2835056 0.24170631 -0.17191485 0.081386775 0.03446599 -0.24622487 0.13243306
0.04652956 0.025168765 -0.17330457 0.14940564 0.036181826 -0.07913047 -0.19373152 0.15389054
0.063906856 0.020007994 0.11274426 -0.2889478 0.019585649 0.12681855 0.20343404 -0.15974513
0.10505186 -0.028776541 -0.20283528 -0.18783337 -0.017570851 -0.15952465 0.17470032 -0.0918794
-0.011060927 0.20507415 0.024893332 -0.09643535 -0.18143733 0.14598338 -0.17730907 -0.16563804
-0.006157699 0.1261239 -0.032309595 -0.19451529 0.08940998 0.19246179 -0.0025645825 0.009602624
0.03940173 -0.085046306 -0.203555 -0.039754856 -0.19518656 0.04772816 0.13230632 -0.21059738
-0.09669936 0.07557202 -0.16073409 -0.08153161 0.2643215 0.27629682 0.012116066 0.15136088
-0.15101881 0.04811194 0.15499441 0.1541401 0.12264505 0.1112589 0.07175873 -0.110561945
0.08969102 -0.19551718 0.1478563 -0.11793146 -0.13303733 -0.27024657 0.21222328 -0.12070207
-0.09513139 0.03417678 0.24365397 0.19342029 -0.1770844 0.05606106 0.17793497 0.2875265
0.1895936 -0.13758695 -0.12087653 -0.050359547 -0.06098442 0.14122169 -0.19635709 -0.038539726
0.25507733 0.3657877 -0.31135964 0.1346344 0.424489 -0.20465522 0.2169234 -0.014643113
0.16532438 -0.15217951 0.0026114734 -0.12156331 0.109026074 -0.14429423 -0.13884524 -0.061625816
0.296243 -0.18549955 -0.08846607 0.016888501 -0.17625457 -0.1627648 0.13243262 0.00033171204
-0.14781295 -0.15076059 0.09922009 -0.25943086 -0.1947773 0.17344686 -0.2311532 -0.060174942
0.18440686 -0.2303051 0.1526851 0.2721606 -0.25584996 0.062217996 0.020849675 -0.0033060904
-0.052584026 -0.1366768 -0.21561278 0.29242992 -0.03102571 -0.034896843 0.052867785 0.4043131
0.15957133 0.18719314 0.040514875 -0.23053923 0.09922695 0.06661113 0.26198283 -0.15718533
0.46724823 0.007171082 -0.18200892 0.25642493 -0.27466524 -0.3130436 0.3131198 -0.15588093
0.037319764 0.10543556 0.09075654 -0.21849145 -0.06949498 0.21268116 -0.15812145 0.11225903
-0.25012323 0.15816501 0.00032283535 -0.1652812 -0.053350132 -0.1332581 -0.040296208 -0.29052305
0.09795695 -0.1008967 -0.39260632 0.058267903 -0.025216918 0.26239648 0.14850655 -0.2868389

lstm.bias_ih_l0 f4 [512]
00000000: f11d 8dbe a602 69be 3987 e7bc 3d6e 76bd
00000010: 2836 c4bd 7299 83bd 4fb7 b3bd d39b cc3d
00000020: d6df cd3d 6b88 82bd 17e9 72bd 81a7 24be
00000030: 4958 82bd 7f5e 36be e9b5 bf3c 98fb a2be
00000040: 7d74 f3bd 0ac7 02be 4406 f7bd 0a15 83be
00000050: d177 113c 5ba2 45be b925 67bd 4a90 10be
00000060: c571 11be 43d6 08bd 9d1a 14bc 5988 c93d
00000070: 5f27 05be f42a 3dbe 77b0 10bc 4ce2 7abe
00000080: 28f7 45be f46e 993c 0b81 48be 48a9 4cbe
00000090: 1622 84be 21e3 85be ea65 28bd 28a7 03be
000000a0: d0de 533e 94f0 ef3d ef2e 2c3e 0e3b a3bd
000000b0: eb51 5b3e 7db3 4438 4558 42bd f302 72be
000000c0: ad35 56be 9701 03be cda8 82bd 4a01 04bd
000000d0: 0715 4bbe 16dd 85be fe7a 2ebe 167d 4abe
000000e0: a62c d2bd ebbc 4e3c 311b c6bd 6f6b d1bd
000000f0: 6429 3ebe 8152 83bd a2d9 79be 10d8 fabd
00000100: 4e59 31be 7be7 b9bd 014e f0bd 01b9 f63c
00000110: 2e5f 593d 8e1c b9be b17b f6bd 71df 96bc
00000120: b680 d0bc 476c c03d f534 cdbd ffb9 0fbe
00000130: 4259 81be fbca fdbd ff2b 8dbd 1aee 6abe
00000140: 8b11 6fbd a86b d4bd 5d5a e4bd 6924 0fbd
00000150: 2e23 18be 0d7a 25be 88b4 93bd 9de4 abbb
00000160: a4f7 23be 11f2 ffbd 0c63 64be b80d 63be
00000170: 9b26 8abd 676e 58be 2531 96bd e94f cabd
00000180: 4ac0 94bd 1a59 19be a713 c2bd 3657 92bd
00000190: e347 6ebe 9721 703d fc39 a73c 9bac 94bd
000001a0: 74ff 76bd 1cd9 ef3c a2a2 3abe 1083 01bd
000001b0: 49b3 87bd 5f3d 953d c209 aebd 47d0 58be
000001c0: 7912 18be 2874 5abe 6c1d 02be 37ce 023d
000001d0: 2758 d03c 0ed5 b6bd d1f6 6cbe a4fd 41bd
000001e0: 14c1 2ebe f4c6 4cbe 8a37 1cbe 044b 44bd
000001f0: be89 0fbe 6dee cebd 1064 78be 36df 19bd
00000200: a512 053d 15b8 883d f897 5cbb a533 623e
00000210: 4e99 b83d 9810 ca3d 01e2 c93a 5a59 be3c
00000220: 295c 0d3e 1eb7 d5bb 1ad4 51bc 35e7 ab3b
00000230: 6a96 20bd 592b 3abe 0354 d9bd 931c 863d
00000240: ac60 f73c 5ffe 533d ec07 3cbd d9b4 6b3e
00000250: 7f74 2ebe 3d9c 4d3e a1d4 2c3d 9b8a 423d
00000260: 1b54 13be 3962 03bd f56f c33d 0331 e63d
00000270: 12b0 1dbe 9998 cfbd 7851 483d 7fb6 25bd
00000280: 51de 89bd 9c19 f1bd b3e4 7bbd 5c2d 22be
00000290: ed4c ba3d f7ec 19bd 0c7c e4bd 946d acbc
000002a0: 3281 023e 032e d63c 663e 303e d82f 7cbd
000002b0: 7ee9 903d 9632 48be 0972 2bbc 87b7 40be
000002c0: ecb8 33be 389a 32be d354 ab3e 7ff7 283c
000002d0: e71c 013e cb6c 0ebe 3ff7 9dbd 636d 86bd
000002e0: 35b2 36bc 2a82 463e f39c ed3c 4969 f4bd
000002f0: b11b e0bd f4eb 11bd 291c 68bd cbdf 02be
00000300: fb12 10be 7ac1 4f3d 748c 2fbe b974 343e
00000310: 4b83 163c da94 8d3e f3ff c5bd fec5 853e
00000320: 16bc 2cbd 988b 1c3e a436 94bd 662d 8dbd
00000330: 5553 d23d 1ea8 673e 2eae 73bb aef6 4dbe
00000340: 16e9 2cbe 60e8 bfbc 2a39 b5bc e9b5 223d
00000350: 515c 36bd 6747 8f3d 77e3 f63c 5be5 a03d
00000360: 0f44 2cbd 62c6 c43b 0dd5 3dbe 33f3 b7bc
00000370: d36d 18be 6454 483d d2bb 1d3e bbb9 03be
00000380: 6598 453d e2c6 85bd 41ab 51bd 49e5 d1bd
00000390: 43f6 27be c814 d83d 35cf 81bc 76b8 6ebc
000003a0: ae60 40bc 9d20 c8bd 8c3b 45bd b63e 943d
000003b0: 09a4 ae3b 7787 b13d b7b9 173e 5955 9fbb
000003c0: 6b64 c2bd 99f7 67bd e2ea 23be fe17 09be
000003d0: 508e 07be 9ba5 cc3c 1f70 993c 4b5e 383a
000003e0: 582f 01bd 9e2f f43d cbb6 313e fc06 babd
000003f0: 90bb 3bbd b3cc e0bd 39c4 8a3e 22f8 9fbc
-0.27561906 -0.22754917 -0.028262721 -0.060163725 -0.09580642 -0.06425752 -0.08775198 0.099906586
0.10052459 -0.06373676 -0.059304323 -0.16079523 -0.06364495 -0.17809485 0.023402171 -0.31832576
-0.11887453 -0.1277124 -0.12061742 -0.2560199 0.008878664 -0.19300215 -0.05643246 -0.14117542
-0.14203556 -0.03340746 -0.009039548 0.098404594 -0.130033 -0.18473417 -0.008831135 -0.24500388
-0.19332564 0.018729664 -0.19580476 -0.1998645 -0.25807256 -0.26149848 -0.041112818 -0.12856734
0.20690465 0.117158085 0.16814779 -0.07970248 0.21417968 4.6897203e-05 -0.04744746 -0.23633938
-0.20918913 -0.12793575 -0.063798524 -0.03222779 -0.1983224 -0.26145238 -0.17039105 -0.19774279
-0.10262422 0.012618284 -0.09673155 -0.102255695 -0.18570477 -0.06412221 -0.24399427 -0.12248242
-0.17319223 -0.090773545 -0.11733628 0.030117514 0.053069286 -0.36154598 -0.12035311 -0.018417092
-0.025452 0.09395652 -0.100198664 -0.14035796 -0.2526341 -0.12392231 -0.06893157 -0.22942391
-0.05836634 -0.10372096 -0.11150048 -0.034946833 -0.1485717 -0.1615984 -0.07212168 -0.0052457587
-0.16012436 -0.124973424 -0.22303408 -0.22173202 -0.06745645 -0.21135865 -0.07333592 -0.09878523
-0.07263239 -0.14975396 -0.09476405 -0.071455404 -0.2326961 0.058625784 0.020413391 -0.072594844
-0.060302213 0.02927833 -0.18226102 -0.03161913 -0.06625993 0.07287096 -0.08497955 -0.21173202
-0.14850797 -0.21333373 -0.12706536 0.031934943 0.02543266 -0.08927356 -0.23141028 -0.04736103
-0.17065841 -0.1999777 -0.15255561 -0.047923103 -0.14017388 -0.1010407 -0.24256921 -0.037566386
0.032488484 0.06675736 -0.0033659916 0.22090013 0.090136155 0.09866446 0.0015402437 0.023235966
0.13804688 -0.0065220734 -0.012806917 0.005246068 -0.039205946 -0.18180598 -0.10611727 0.06548419
0.030197464 0.05175626 -0.045905992 0.23018207 -0.17036627 0.20079131 0.042194966 0.047495466
-0.14387552 -0.032076094 0.095428385 0.11239817 -0.15399197 -0.101365276 0.04890582 -0.040457245
-0.067318566 -0.11772463 -0.0614974 -0.15837616 0.09096704 -0.037579503 -0.111564726 -0.021048345
0.12744597 0.026144987 0.17211303 -0.061569065 0.07075785 -0.19550547 -0.0104642 -0.1882001
-0.17551011 -0.17441642 0.33463153 0.010312914 0.12608682 -0.13908689 -0.07713174 -0.065638326
-0.011150886 0.19385591 0.029005503 -0.11934144 -0.10942782 -0.035625413 -0.05666748 -0.12780683
-0.1406974 0.050721623 -0.17143422 0.17622651 0.009186576 0.27652627 -0.09667959 0.2612762
-0.04217156 0.15287626 -0.07236984 -0.06893425 0.102698006 0.22622725 -0.0037182677 -0.20113632
-0.1688579 -0.023426235 -0.022121985 0.039724264 -0.044521634 0.06996041 0.03013776 0.07856246
-0.042057093 0.0060050944 -0.18538304 -0.022454834 -0.14885645 0.048908606 0.15403679 -0.1286382
0.048241038 -0.065320745 -0.05118871 -0.10248811 -0.16402535 0.10550839 -0.015845874 -0.014570346
-0.0117418 -0.097718455 -0.04815249 0.07238524 0.005329613 0.08668416 0.14816938 -0.004862469
-0.094918095 -0.056632612 -0.1600757 -0.13388059 -0.13237882 0.02498131 0.018730221 0.0007033094
-0.03153929 0.11923145 0.17354886 -0.090833634 -0.04583317 -0.10976543 0.2710283 -0.019527499

lstm.bias_hh_l0 f4 [512]
00000000: 7b8b 3cbe fad9 3dbe 41e9 08be d8cb e7bd
00000010: 5d25 fe3c 325d 4f3d a757 45be ede5 fd3d
00000020: 94a9 fbbc 91e2 28bd 9bc7 87bd b7e5 18be
00000030: 3651 c13b 0da3 c6bd 7341 473c f597 45be
00000040: d3c9 373c 169a 29be e758 fabd 5d4a 92be
00000050: 52fd 473d fa95 36be 26a3 a9bd fc49 43be
00000060: a9b2 5dbe b793 0fbe 51c7 853d fdd4 8f3d
00000070: faf7 d6bd 2251 1abe 887d 84bd 5521 40be
00000080: f14a f9bd 977d 4abd 1546 4cbe 02ae 41be
00000090: 69f4 51be 7067 6bbe 36ca 353b fef8 40be
000000a0: bad9 083e e4ef 203d 7894 e23d 45bb 19be
000000b0: 783a 5a3e e24a 143d a6a7 19bc 824f 21be
000000c0: 9b88 77be 5cf6 61bb 513c 80bd 54d6 18be
000000d0: 839f 72bd 15e8 03be f73f 30be 4019 40be
000000e0: 96ea 783c bc46 7fbc a680 0fbe 8ca7 2ebe
000000f0: cad2 37be 37f7 48be b173 bcbd dfa7 3ebe
00000100: 6ad2 29bd 3f77 bcbd 95fc 63be d780 b63c
00000110: 5172 c53d b676 9cbe 2ab0 8dbd ea7f 2d3d
00000120: e71b 14be b5e7 c83d d1ba e7bd f5d4 0dbe
00000130: 4b33 6cbe 3cf8 16be e785 36bd 0f8b 8cbe
00000140: ffc0 30be 34da cdbd 0563 8ebd a35a 9dbd
00000150: 50b3 83bd db57 33be 1aa8 b5bd 0d50 1d3e
00000160: 4132 0bbd cca6 45be 0ae3 f4bd 1e41 6dbe
00000170: 6b48 cabc 7f5d 01be 5bec 31be f95a 57be
00000180: 566e 8dbd 13af 39bd 04e3 05be b9bd c8bd
00000190: 1d9e 80be 79c2 91bc 1fb0 09bd 1dbc e2bd
000001a0: 311f 3abe 2f34 71bb 3e52 52be 3a76 253d
000001b0: 25b6 283c f1a9 fc3d 9be5 853a 3543 32be
000001c0: d3d5 03be 0eb5 b1bd f4a0 43be f993 ea3c
000001d0: a22f 8dbd e896 c6bd c920 79be d004 843d
000001e0: 6a1c bdbd 8c54 0dbe db18 dbbd b34a 2dbe
000001f0: b9b9 a7bd 83f2 cfbd 882f 7bbe f2bd 01bb
00000200: 6e77 14bd b11c 16bd 3537 36bd c5ec 033e
00000210: 3e6f a53d be28 8b3d 7923 693b a720 bc3d
00000220: abb9 013e 7fe7 663d e4ea dcbc 213a a0bb
00000230: d500 17bc dd8d 29be 1c7b 8ebc c59b f13d
00000240: 67a4 bb3d fb73 b5bd e322 79bd 406c 8a3e
00000250: bf0c 00bd 8372 103e a072 dc3c 5e54 253d
00000260: 3239 72be e60c 19be d062 303e 6ba1 5f3e
00000270: 3ccc 1dbe 5dca 04be 1deb 903d 2e70 0bbe
00000280: 9ea3 01be da43 0bbd 52d8 b3bd 988b 91bd
00000290: d0e7 16bd e2bc f6bd 7f2d c13c a428 e43b
000002a0: 5846 3c3e 725f b03d c9ab 4b3e f3a3 35be
000002b0: 341e a43d 65e3 babd 77a0 4dbd 5a47 9cbd
000002c0: 9111 44be 24e0 2fbe 028a 8b3e 2b08 d6bd
000002d0: 2f7e 113d 3a92 2abe 3fa1 043c 4786 773d
000002e0: 9e5c 423d a4c2 623e 2155 253e e024 84bd
000002f0: 6750 5a3d 5efd 05bd 80da 17be 8b68 e8bd
00000300: 4bd6 c2bc 0ad4 cbbc 253b acbd a1cf 2f3d
00000310: ed96 183e 20a4 373e 9f1f 0dbe 303d 423e
00000320: a71b b3bc 7a16 e83c c9ea 71bd d363 a8bd
00000330: 3f28 52bc 79f4 f33d 294a 54bd c282 49be
00000340: db88 abbd 3c8e bbbd a37e 0cbe a2ca 643b
00000350: ae78 dbbd 653e 0dbd 72fb 1c3e 96c3 3e3c
00000360: 3307 9cbc daa8 c23d bfab 12be 7548 29bc
00000370: 3c97 babd 458c f03b d49d 0e3e 20e1 01be
00000380: 0226 2f3c e144 dd3c 226f 9ebd 21eb cdbd
00000390: 07ca a7bd 6a1e 143e 2102 833d 567e 5dbd
000003a0: 7e5e 0ebe f169 15bd 1a42 97bd eba3 303c
000003b0: 722e e13c c922 b63d ef58 1e3e fb13 e53b
000003c0: 7b43 b4bd 9346 42bd 3fa8 bbbd 25d1 6ebd
000003d0: 35da 8bbd 849e f03d 8346 633d 689e e5bc
000003e0: 2ee3 3f3d a6f5 1c3a 697b 433e 5355 0ebe
000003f0: 3251 ccbd dc78 e0bd c1fb 573e 8f1c 15be
-0.18412583 -0.18540183 -0.1337023 -0.11318177 0.031023676 0.050625987 -0.19271718 0.123973705
-0.03072051 -0.041231696 -0.066298686 -0.1493138 0.0058995737 -0.09699068 0.0121616 -0.19296248
0.011217552 -0.16562685 -0.12223988 -0.2857236 0.04882557 -0.17830649 -0.08283071 -0.19071192
-0.21650185 -0.14021192 0.06532157 0.07023046 -0.104965165 -0.15070012 -0.06469256 -0.18762715
-0.12172497 -0.049436178 -0.19948609 -0.18914035 -0.20503391 -0.22988677 0.0027738935 -0.18844983
0.13364306 0.039291278 0.110634744 -0.15012844 0.21311367 0.036204226 -0.009378349 -0.15752986
-0.24173205 -0.0034479117 -0.062615044 -0.1492551 -0.059234153 -0.12881501 -0.172119 -0.18759632
0.015192648 -0.015580829 -0.14013919 -0.17056102 -0.17951503 -0.19625555 -0.09201754 -0.18618725
-0.041460432 -0.09202432 -0.22264321 0.022278232 0.09640945 -0.3055932 -0.06918366 0.042358316
-0.14463769 0.098098196 -0.11314929 -0.13850768 -0.23066442 -0.14743131 -0.044561293 -0.27449843
-0.17261122 -0.100513846 -0.0695248 -0.07683303 -0.064306855 -0.17513983 -0.088699535 0.15362568
-0.033983473 -0.19301909 -0.11957367 -0.23169371 -0.024692735 -0.12633322 -0.17375319 -0.21030797
-0.069058105 -0.04533298 -0.13074881 -0.09801812 -0.2512063 -0.017792927 -0.033615228 -0.11071036
-0.18175961 -0.0036804785 -0.20539185 0.040395953 0.010297333 0.12337101 0.0010215522 -0.1740845
-0.12874536 -0.086771116 -0.19104367 0.028635012 -0.06893851 -0.09696752 -0.24328913 0.064462304
-0.09233935 -0.13801783 -0.106981 -0.16923027 -0.08189721 -0.10153677 -0.2452985 -0.0019797054
-0.03624671 -0.036648456 -0.044486243 0.12883289 0.080778584 0.0679488 0.0035574122 0.091859154
0.12668483 0.056373116 -0.026967473 -0.004889742 -0.009216507 -0.16558023 -0.017392687 0.11797289
0.09162217 -0.08860012 -0.060824286 0.27035713 -0.031262156 0.14106183 0.026910126 0.040363662
-0.23654631 -0.14946327 0.17225194 0.2183892 -0.1540994 -0.1296782 0.07076094 -0.13617012
-0.12660071 -0.034000255 -0.08781494 -0.071067035 -0.036842167 -0.12047745 0.023581265 0.0069628526
0.18386209 0.08611955 0.1988975 -0.17738323 0.08013573 -0.09125403 -0.05020186 -0.07630797
-0.19147326 -0.17175347 0.2725373 -0.10450777 0.03552073 -0.16657344 0.008095085 0.06043079
0.047451608 0.22144562 0.16145755 -0.06452346 0.053299334 -0.032712333 -0.14829445 -0.11348065
-0.023783823 -0.024881382 -0.084097184 0.04292262 0.14901324 0.17933702 -0.13781594 0.18968654
-0.021863772 0.02833103 -0.0590618 -0.08222165 -0.012826978 0.11911864 -0.051828537 -0.19678786
-0.083757125 -0.091579884 -0.13720183 0.0034910818 -0.10716377 -0.034483332 0.15330294 0.011643311
-0.019046402 0.09504862 -0.14323328 -0.0103322165 -0.09110877 0.00734094 0.13927394 -0.12683535
0.010690214 0.027010383 -0.07736041 -0.10054613 -0.081928305 0.14464727 0.063968904 -0.05407556
-0.13903233 -0.036477987 -0.07385655 0.010781269 0.027487967 0.088933535 0.15463613 0.0069909072
-0.088019334 -0.047430586 -0.0916295 -0.058304925 -0.06828729 0.117489845 0.055487167 -0.028029636
0.046847515 0.0005987532 0.19090046 -0.13899736 -0.09976424 -0.10960552 0.2109213 -0.14561675

fc.weight f4 [2, 128]
00000000: 7a76 88be 5a6f 4c3e c810 8bbe 8cdd 0c3e
00000010: 1bd2 b53d b3e4 423e e6c2 94be 05bf 5cbe
00000020: e6eb 583c 927a 3f3e 3981 993a fc6b 903e
00000030: 4468 883e 2bf5 7bbd 2cfc 5d3e f3ec 89be
00000040: 5ebf 76be 9041 8dbe 1ee0 c43e 0824 d2be
00000050: 3519 d93b f61c 68be 759e 8ebd a7d7 61bc
00000060: 824f 11bc 8c8a 28be f417 d53e ee08 bebe
00000070: ef7a ea3d 89c0 19be 4a63 8f3e 2344 b13e
00000080: cd96 bd3e 111e 7e3e 3e50 6abe d5ff ccbe
00000090: d0d9 f23d 4861 e73e 254b 8bbe 264b 953e
000000a0: a319 903e d7db 663e 0014 b5be 2d6d e8be
000000b0: b787 213e 4c30 54be 5f9d 1dbe 92bb 9c3d
000000c0: fbaa 8b3d 9493 363e 2621 d93e 80b5 bfbe
000000d0: 31cb 893e 7d6a 52bd a26c 3c3d aee2 163e
000000e0: 8510 e5bc e626 c63d 0659 25bc efcb c0be
000000f0: 4de6 febc 57fd f6be 5995 0ebe d77b ffbc
00000100: 4d86 49be 47cf 8f3e 5c60 903e 1eee 11be
00000110: b52d d7bd 2dc3 733e d298 263e 2e0a 9dbe
00000120: 3e64 a33e ccf7 24be 21e0 8f3e 020f 7d3e
00000130: 2d3f f3be d9e6 8fbe e051 4a3e 842f 07bf
00000140: 755b 813c b8ed 72bb 4f21 23be f32d 113e
00000150: 406e 0dbe 94aa 5fbe e85c cf3e 8ada b73c
00000160: 9b1a 26be e6dd ea3e 746d b43e 3864 82be
00000170: b571 143d fa97 36be 5478 cd3e 021a 65be
00000180: 8118 373e 08c8 8a3e 0612 103e 4c2d d03e
00000190: 4516 ebbe aabd bd3d 2187 a8be d7be de3e
000001a0: 7662 1d3e d516 50bd 8045 32bd 6f29 f4bd
000001b0: 7938 48be ad01 16be 4495 70be 1904 213e
000001c0: 04f3 b2be 66c1 0abe ba16 1abe 0646 e23d
000001d0: 79a7 66be a256 99be 689d a3be c9f7 2abe
000001e0: 0f11 b4be 0484 95be 2c54 afbe 7863 953e
000001f0: 610c 673d 7d3b a83d dd8a 64be c181 0dbe
00000200: 1f64 453e ced6 95be 121e 033e 015e 1bbe
00000210: 39ed 34be 6b50 16be 667e 683e a618 543e
00000220: a090 363c 71fb fdbd efff 75bd 29f3 94be
00000230: ebbc 9cbe fa16 fb3d 0231 9dbe 2a34 bd3e
00000240: a885 013e e36b 553e 9074 7abe b36b af3e
00000250: cc74 67bd f182 043e 7ea3 113e b4b3 81bc
00000260: b583 163d f65a 933e 314b dcbe 71f3 9a3e
00000270: 1cdc 50be 7747 4d3d 4112 77be 70ba c9be
00000280: 73af 95be 010e 4bbe 4c7c 773e c830 c93e
00000290: 1626 14be 2d6b c0be 281f 793e ce96 33be
000002a0: abc9 77be 55a7 45be 0487 a73e 60a7 f23e
000002b0: 31f5 04be ecca a53e fcc4 883d 221a 18bd
000002c0: 370a 2abe 810f 63be 15b5 a5be 2739 df3e
000002d0: 8f46 86be 2247 9dbd 0e10 e83d fe71 5fbe
000002e0: 783a 853d 4a91 dcbd fe00 fdbc ef5b 953e
000002f0: be9f 1c3e d025 c03e 11a3 ae3d db68 a93d
00000300: 9c1a 413e 4fa2 95be a39b 91be a3a6 b33d
00000310: 351f e33d a813 48be ecf7 66be cbd6 923e
00000320: 316b 9fbe 726b 0d3e 6397 a7be 201b 29be
00000330: 22c7 113f b4fb 863e e06c 5abe 0a1a bd3e
00000340: 3e71 43bd 31ec 123e 58e6 fc3d 9a9a 3abe
00000350: 4dd6 dc3d 2110 893e 9fd5 ccbe f84a 8ebc
00000360: a5e4 a13d e52a eebe d56a c9be a71e f03d
00000370: 6d01 47be af3c 703e c076 b1be cad4 8c3e
00000380: b81c 87be 9045 cdbe 14b2 03be 02e1 b1be
00000390: a073 d43e c057 46be db88 673e 4842 f3be
000003a0: 13cb 90be 40d6 19bd 3f56 163e c642 0c3e
000003b0: b095 7a3e 0e93 a43d c5ab 743e 3bcb 5fbe
000003c0: 5bd5 d23e c7d6 f23d b2fd b93d 59c4 293d
000003d0: 2b60 903e 7ac4 5f3e 9d58 ad3e f508 f83d
000003e0: 1d86 b33e e4c6 963e 26bf 553e 9ba0 4bbe
000003f0: 7f61 53bd 9e1b 94bd cccb 883e d584 203e
-0.2665289 0.19964352 -0.2716124 0.13756388 0.08877965 0.19032554 -0.29054946 -0.21557243
0.013239836 0.186991 0.0011711485 0.28207386 0.26642048 -0.061513107 0.21678227 -0.2693859
-0.24096438 -0.27589083 0.38452238 -0.41043115 0.0066253194 -0.22667298 -0.06963817 -0.013784326
-0.008869054 -0.16459101 0.41619837 -0.37116188 0.11449229 -0.15014853 0.2800544 0.34622297
0.37029114 0.24816157 -0.22882172 -0.40038934 0.11857951 0.45191407 -0.27205768 0.29158896
0.2814456 0.225448 -0.3536682 -0.45395795 0.15774427 -0.20721549 -0.15392064 0.07652964
0.06819721 0.17829734 0.42408103 -0.3744316 0.26912835 -0.051371086 0.046002038 0.14734909
-0.027961979 0.09675388 -0.010092026 -0.3765559 -0.031115675 -0.48240158 -0.13924159 -0.031186981
-0.19680138 0.28087828 0.28198516 -0.14250991 -0.10506765 0.23804922 0.16269234 -0.3067183
0.31912416 -0.16110152 0.28100684 0.24712756 -0.47509137 -0.2810581 0.19757795 -0.5280688
0.01579068 -0.003706796 -0.15930675 0.14177684 -0.13811588 -0.21842414 0.4050057 0.022443075
-0.16221087 0.4587242 0.35239756 -0.25467086 0.036241252 -0.17831412 0.40130866 -0.22373202
0.17880441 0.27105737 0.14069375 0.4065956 -0.45915428 0.09264691 -0.32915595 0.43504974
0.15369591 -0.050803024 -0.04352331 -0.11921965 -0.19552793 -0.14649077 -0.2349444 0.1572422
-0.3495103 -0.13550338 -0.15047732 0.11048512 -0.22524823 -0.29948908 -0.3195603 -0.16696085
-0.35169265 -0.29202282 -0.34243906 0.2917745 0.05640829 0.082144715 -0.22318597 -0.13819028
0.19276474 -0.29265445 0.1280444 -0.15172578 -0.17668618 -0.14679115 0.22704467 0.20712528
0.01114288 -0.12401474 -0.06005853 -0.29091766 -0.30612883 0.12260242 -0.30701452 0.3695386
0.12648642 0.20841937 -0.24458528 0.34261855 -0.05650787 0.12940575 0.14222524 -0.01583276
0.0367467 0.28780335 -0.43026116 0.30263856 -0.20396465 0.050116982 -0.24128057 -0.39400053
-0.2923542 -0.19829561 0.24168509 0.3929503 -0.14467654 -0.3758177 0.24328291 -0.17537996
-0.24198024 -0.19302113 0.32720196 0.47393322 -0.12984158 0.3238138 0.06678197 -0.037134297
-0.16605459 -0.22173883 -0.32364717 0.4359829 -0.26225707 -0.07679583 0.11331187 -0.21820828
0.06505293 -0.10769899 -0.030884262 0.29171702 0.15295312 0.3752885 0.08527196 0.08271953
0.18857807 -0.29225394 -0.28439054 0.08772018 0.11089937 -0.19538748 -0.22555512 0.286795
-0.31136468 0.13810518 -0.32732686 -0.16514254 0.5694448 0.2636391 -0.21330595 0.3693393
-0.047715418 0.14347912 0.12348622 -0.18223038 0.10783062 0.26770118 -0.4000673 -0.017369732
0.079049386 -0.465171 -0.3933932 0.117245965 -0.19434138 0.23460649 -0.34660912 0.27506095
-0.26389098 -0.40092134 -0.128609 -0.3474198 0.41494465 -0.19369411 0.226108 -0.47511506
-0.28279933 -0.03755784 0.14681338 0.13697347 0.24471164 0.08035861 0.2389365 -0.2185487
0.41178402 0.11857372 0.09081592 0.041447017 0.2819837 0.21852294 0.3385667 0.121110834
0.35063258 0.29448617 0.20873699 -0.19885485 -0.05160665 -0.0723183 0.26717985 0.15675671

fc.bias f4 [2]
00000000: 0a8e eebd 6e15 0f3e
-0.116481856 0.13973019
