Models/cnn_lstm_model_stream_Nstream_full_0,7_2.pth (torch, 408264 bytes, 8 tensors)

conv1.weight f4 [64, 8, 3]
00000000: bfd0 68be a832 a8be d3c4 98bd 9e89 80bc
00000010: 6bb2 53be e52f 283d b076 e63d 1f10 e5bd
00000020: 144e b43d 9368 3fbd 6cd9 7ebe 18a7 1dbe
00000030: 8221 2abe e662 8cbd e488 383e 1914 10bd
00000040: 3f58 12bc d503 333d 8da6 003e 6ef7 c4be
00000050: d280 1f3e eeb6 d439 f371 31be 1bfc 5e3c
00000060: 5e7e babe 2c8a 99be 6312 9cbd 2543 11be
00000070: f510 733e 897d 863e 2d8b 2d3e d26a 933e
00000080: 320d 013d 195d 11be bfc4 b7bd 5878 51bc
00000090: d0fe 63be 4f7e 51be c65e 92be 3abe 13be
000000a0: 5f78 26be 8f99 953d 6405 4b3d db32 d53c
000000b0: 9e07 48be 5734 59ba c94f 5d3d 2294 0b3d
000000c0: c92f 8e3c 7037 863e 47d3 b43e 0684 9b3c
000000d0: 6c0c ae3e e301 973c 7201 f13d 2f3a cb3c
000000e0: 4c1c 133e f040 e9bd 7efc 47be 9f0d c6bd
000000f0: 9b17 3fbd a800 1a3e 411b a73d f930 16bd
00000100: 65df f3bc d731 19be 1f9d 073e 4d1f 533d
00000110: 3a19 4dbd 89b5 ac3e 1d34 fb3d 9ebf 6b3e
00000120: 9e4e 18be 3bad c33d d9be acbd 304b 2b3e
00000130: 5ea5 bc3e d255 56bd 7353 01be 3a00 ed3d
00000140: dde0 d63e c925 ab3d d3fe 763d 6a7d 33be
00000150: 95ea c0bd 28a8 953d 18b5 70be b207 2dbe
00000160: d557 9d3d 5907 0e3e f16f 6e3e ee84 c23c
00000170: cfee 8dbe 77ee e3bd 9259 e93c 307f 073d
00000180: a461 a4bd 5f5c 54be 29ba be3d 2228 ad3a
00000190: b845 073d a543 6c3e bfc3 00be c577 cabe
000001a0: f980 84bd 8489 45be b98b a9bb 8cc6 93be
000001b0: ca1f f6bd 9127 d33d e40a 97be a13c 97bc
000001c0: 97ca 6c3d abc5 d3bd 7935 9038 bf1d 96bd
000001d0: 9dd2 d73d b65e 133c 8747 863d 2175 70bd
000001e0: 587b 863e bdcd 84bd 7eda 05be ea5c 013f
000001f0: 2eaf 113e eb5b ea3e 5277 70bd b2a2 613e
00000200: 65b1 1f3e 8a8c 353e ce39 2d3e 5bd4 17be
00000210: a71d d6bd d8e3 373e dd1b f9bc 4413 133d
00000220: 7091 103e a2e0 74bc c9e8 3f3e f839 f13d
00000230: 5ff7 18be e02b 053c e53c 64bc fb81 a7bc
00000240: 0d65 893e d149 8a3e 68ed 663e 6c5d afbd
00000250: 7e7a bbbd a84d debd 5fa9 92bd 4f94 a93d
00000260: 8391 fa3d 6063 613e 9356 c33e 896e 873e
00000270: 4a14 4b3e 3218 c33c 2c08 5e3e 5928 4dbe
00000280: 768c fcbd 22a0 02bb 2e74 0cbe 6447 623e
00000290: 91e0 073e 401e 3b3d 4109 4bbd 3aff 253e
000002a0: cdfa 25be 45a7 813e 7d41 6a3d a900 c63d
000002b0: a99e 96be 10be d2be ea2c 053e 27e0 913d
000002c0: 41b1 113d d9f6 f9bd 7f59 50be c939 23be
000002d0: c9d7 17be 7c3b 94be 7374 203e 91a1 6b3e
000002e0: e496 223e 6cc9 4b3e eae8 0e3d d991 8bbd
000002f0: 9ae4 973d b903 c93d 1b4c 0e3e 7cd7 e7bb
00000300: f49e 10bd 6777 5e3d 3f4a 3a3e fa00 7e3d
00000310: ed4f 4f3e e5f9 00bd 6477 873e b9b3 753e
00000320: f027 8c3e b59f 84be 0b0c 56bd bf14 e3bd
00000330: 6013 0dbe 9e27 1aba 7192 8abd 56a9 393e
00000340: 6408 6cbe 3501 9e3d 41d7 82bd 2d94 dfbc
00000350: 16ec a8be 381d d4bd b8fb 60be 2c35 28be
00000360: 6576 edbd 90b3 1c3e 473e c5bd a058 fa3d
00000370: 47e9 8ebd 02f4 2abe fc3d 663e f553 ad3e
00000380: 01ba 813e fd5f 3b3e c291 ed3d c647 33be
00000390: c5b6 fbbd 9f17 2cbe daff e23d fd40 80bd
000003a0: f9db 173e 714b 66bc 7916 3cbe cd50 b0be
000003b0: 2d5d f23d 264b d0bd cbd4 25be 8881 483e
000003c0: 8fcd 8e3d 9670 5a3d 1148 163d a17d edbd
000003d0: 046d 3a3d 35d0 fb3d 0c58 69bc d78a 3d3e
000003e0: 41f5 a83c 9198 4b3e cc85 e3bd 88f3 36bd
000003f0: 7fc6 e9bd 2634 893c 4cf4 8cbd ce15 b4bd
-0.2273588 -0.32851148 -0.07459416 -0.015690621 -0.2067353 0.0410613 0.112531066 -0.111847155
0.08803955 -0.04673059 -0.24887627 -0.15395772 -0.16614345 -0.06854801 0.1802097 -0.035175417
-0.008932172 0.043704826 0.12563534 -0.38470024 0.15576485 0.00040572084 -0.17328624 0.013609911
-0.36424536 -0.2998823 -0.076206945 -0.1418577 0.23736937 0.2626765 0.16947623 0.28792435
0.031506725 -0.1419567 -0.08973073 -0.01278504 -0.22265172 -0.20458339 -0.2858793 -0.14428034
-0.16256855 0.073046796 0.049565688 0.026025226 -0.19534156 -0.00082856923 0.054031167 0.034076817
0.01735677 0.2621417 0.35317442 0.018983852 0.33993852 0.018433517 0.11767854 0.024808018
0.14366263 -0.11389339 -0.19529912 -0.09670567 -0.04665337 0.15039313 0.08159495 -0.036667798
-0.029769609 -0.14960419 0.1324353 0.051543523 -0.050072886 0.3373225 0.12265799 0.23022315
-0.1487374 0.095545255 -0.08434839 0.167279 0.36844915 -0.05232794 -0.1262949 0.11572309
0.41968432 0.08356816 0.060301613 -0.1752831 -0.09419743 0.07307464 -0.23506582 -0.16897467
0.07682768 0.1386999 0.2328489 0.023745026 -0.2772126 -0.11129468 0.028485093 0.03308028
-0.08026436 -0.20738362 0.09312851 0.0013210813 0.033025473 0.2307268 -0.12574671 -0.39544502
-0.06469912 -0.1929074 -0.005174127 -0.28862417 -0.12017782 0.10310281 -0.29500496 -0.018461527
0.057810392 -0.103404365 6.876415e-05 -0.07329892 0.10538218 0.008994749 0.065566115 -0.058705453
0.2626598 -0.06484554 -0.1307163 0.505324 0.14226982 0.45773253 -0.058707543 0.2203472
0.15595014 0.17729393 0.16916582 -0.14827101 -0.104548745 0.17958009 -0.030408794 0.035907045
0.1411798 -0.014946135 0.18741144 0.11778635 -0.14938115 0.008128136 -0.013930534 -0.020447722
0.26834908 0.27009442 0.22551501 -0.08562741 -0.09154223 -0.108546555 -0.07161211 0.08280241
0.122347854 0.22010565 0.38151988 0.2645152 0.19831958 0.023815248 0.21682805 -0.20034923
-0.12331478 -0.0019931872 -0.13716194 0.22097546 0.13269259 0.045683146 -0.049569372 0.16210642
-0.16208954 0.2532293 0.05719136 0.09668095 -0.29417923 -0.4116063 0.13005415 0.07122832
0.035569433 -0.122052856 -0.2034664 -0.15940012 -0.14828409 -0.28951633 0.15669422 0.23010851
0.15877873 0.19901055 0.034890093 -0.068149276 0.07416649 0.09815163 0.1389622 -0.0070752483
-0.03530784 0.05431309 0.18192385 0.06201265 0.20245333 -0.031488318 0.26458275 0.2399434
0.2737422 -0.25903097 -0.05225758 -0.110879414 -0.13776922 -0.0005880537 -0.06766213 0.18131003
-0.23050076 0.07715074 -0.06388713 -0.027292335 -0.3299262 -0.103571355 -0.21971023 -0.16426533
-0.115948476 0.15302873 -0.09631019 0.12223935 -0.06978088 -0.16694644 0.22484583 0.33853117
0.25337222 0.18298335 0.11600067 -0.17507848 -0.1229072 -0.16805886 0.11083956 -0.062623955
0.14830007 -0.014056073 -0.18367948 -0.34436646 0.11834178 -0.101705834 -0.16194455 0.19580662
0.06972801 0.053330027 0.03668982 -0.115962274 0.04551412 0.12295572 -0.014242183 0.18509994
0.020624759 0.19882418 -0.11109504 -0.044665843 -0.11414813 0.0167485 -0.068825334 -0.087932214

conv1.bias f4 [64]
00000000: 3b73 273e 6700 cc3c b1b0 07be 4cef 7d3c
00000010: 8a33 4dbc aa7e 57be da3e 24be c6f5 363e
00000020: 0b2a 5e3e eaec f6bd 121e 0cbd b388 143e
00000030: 1b9a 1abe cd6f a43c ac55 68be 9527 603e
00000040: 95a0 b7bd d037 d3bb 2f5d 6abd c8d4 3ebd
00000050: 6d9c d9bc b213 3a3d cf4c b5bb 0c8c e43d
00000060: 37b9 4dbe c2bc 15be 3895 ba3d d7d0 32bd
00000070: 0916 2bbd f8ad 2cbd de77 f73d 904b 983c
00000080: fd18 6cbd ab8d d93c 50ad dabd e849 bb3d
00000090: 6ba0 83bd dd00 f5bd b94a aabd e0f5 853e
000000a0: 63ef 1cbe 2904 043e c307 d73d 3290 86be
000000b0: 480a cbbd b217 653d a033 013e 7d04 a2bd
000000c0: bbd1 513e 998a 87bd 1b84 c13b 889a abbe
000000d0: c755 76bd 444e bebc 06e9 41be 35cb 103e
000000e0: 3854 8e3d c573 ea3d 435c 72be 0690 483c
000000f0: 3d75 233d 9aea 25bd 41c7 723d 7e2f 163d
0.1635255 0.024902536 -0.13250996 0.015498947 -0.012524495 -0.21044412 -0.16039601 0.17867193
0.21695726 -0.120569065 -0.034208365 0.14505272 -0.15097849 0.020072842 -0.22688931 0.218901
-0.089661755 -0.0064458624 -0.057217773 -0.046589643 -0.026563847 0.04542894 -0.005532838 0.11159524
-0.20090185 -0.14622787 0.091104925 -0.043656196 -0.04176906 -0.042158097 0.1208341 0.018590719
-0.05764102 0.02655681 -0.10677588 0.09144956 -0.06427082 -0.11963055 -0.083150335 0.2616415
-0.15325694 0.12892212 0.10499527 -0.26281887 -0.0991407 0.0559308 0.1261735 -0.07911012
0.20490162 -0.06618232 0.005905641 -0.33516335 -0.060140397 -0.02323068 -0.18936548 0.14140017
0.06949657 0.114478625 -0.23668008 0.012241369 0.03990673 -0.040506937 0.059272055 0.036666386

lstm.weight_ih_l0 f4 [512, 64]
00000000: 78e2 e9bd 39b4 e43b 725d e1bd cb97 c5bd
00000010: 14bb a3bd e2c4 3dbd f8d3 9b3e 23d1 84be
00000020: 9b11 21be 4656 9dbd c480 c9bc bd3c 05be
00000030: 825f 0bbe 28bb d3bd d0c2 84bc 9845 0fbe
00000040: 5630 03bd c8ac acbd 2c09 553d f65c a7bd
00000050: 13fa 45be 89ec ecbc 5263 53bc 823d 8cbc
00000060: 3023 18be c624 06be 5c3b f4bc 7a65 19be
00000070: 3543 93bd 1ace 70bd 573d ddbc cb25 82bd
00000080: 82e4 f2bc ed23 8e3c 0813 39be 65fa d9bd
00000090: 7a71 aebe a126 89bd 78a0 dfbc ebf6 92bd
000000a0: 303f 00be c064 12be bc84 c7bc c7aa 373d
000000b0: e978 07be 0b5f 53bd 1123 2fbe 5d04 a4be
000000c0: c69d 1fbe 6090 f0bc fa29 95bd f5d3 b9bb
000000d0: 43c0 c0bd 5d3f babc 58b5 0dbd 69e7 b53b
000000e0: e218 81bd 3c0d 34be 9cc3 dcbc 4a9c d43d
000000f0: 762d 92bd 253e e1bd b971 a9bc 171c d6bc
00000100: 12ff 65be 96b5 d53d 249d 163d 9785 d9bd
00000110: 270e 9dbd e1c1 20bd b119 973d 1665 cdbd
00000120: 6316 e5bd 069b 76be 5677 a1bc f6cd a1bd
00000130: 9752 efbd babe 3ebe e135 833d d783 fbbd
00000140: e177 0abe c8a4 5ebe 01a0 f2bd c9cc 5abe
00000150: 99b5 8abc 6f78 21be 2320 66be a3a1 1bbd
00000160: f3d1 0cbe 22f2 68be 1d31 25be 59c5 82bd
00000170: 0bf6 16bd dad7 dbbd 39d9 3dbd c168 8fbc
00000180: 8920 5abe d312 c5bd 4158 05be cbd7 35be
00000190: 0326 35bd c3d9 dbbd 2623 3cbe 9a6b 3fbe
000001a0: 0b16 30bc 507b c2bd b3ed 4cbd 3cb5 5cbe
000001b0: 646b 123c 2558 57be b6ff 84be 3161 213c
000001c0: 30cd a8ba 3538 38be 7ffc 75bd 4115 e1bd
000001d0: bb3c 28be 1c6c 63bd bc5f 9cbe 1273 1fbd
000001e0: cc78 7dbe eda9 f4bd 3706 b7bd 6cbd e03d
000001f0: 444e 08be a28c c8bd bed7 29be ea63 15be
00000200: 59f7 babe d78a 74be 2b91 853e 75ef 4a3d
00000210: 7acc 23be 5a70 513e 39ef 763e b22f 1cbe
00000220: 741d 4ebc 5472 58bd 161c f13c c6b6 5bbd
00000230: 08f4 bebd 0cae 37be 49fd 103f c9ff 85bd
00000240: 6477 c4be 66b6 bd3d b563 7f3d 1dff 643e
00000250: 7252 30be 7056 82be 5c1e 0fbe 590b 0dbe
00000260: b801 f03a 9317 2bbd 6dda 013b cecb 26be
00000270: 8707 f3bd 2038 03bd 747e 8abe 1c38 09be
00000280: 3038 21be 7f13 883e 0241 28bd a41b 0fbe
00000290: 6d87 18bd 800a 743e aedc fabd b691 dc3d
000002a0: 9aee 10be b434 29be 4a29 99be bec9 a33e
000002b0: ea01 adbe da55 363e 42bb 743e 0cb8 313e
000002c0: fc62 05be c20b a3be 0058 843d c38c b5bd
000002d0: 2aef 48bd 6581 f73d 37a3 50bd 6802 373d
000002e0: d25f 59be e1c4 243e bfe3 43be 4c2a 56be
000002f0: f113 e2bd abb1 c0bd 25fe 78be 3f49 7cbe
00000300: ae90 ffbc 4656 ebbd 8677 81be 10c9 03bd
00000310: 41ae f83d 5893 073e a891 5fbd 6fa2 babe
00000320: a9d0 7fbe d77f 1cbe 59b9 5dbd 5e14 2abe
00000330: 55a7 6b3e 5c14 6dbe ca2e 4abe f8aa fcbc
00000340: a6ba 793e c292 3cbe 9a51 703d 01c4 c0bd
00000350: e185 07be 7f87 b2bd fcbf 74be b703 173e
00000360: 27b6 963e a752 e83b 7936 d8bd f3d5 d6bd
00000370: cd64 3a3d 29e1 df3d ebc1 67bd 8d81 0a3d
00000380: 15c8 bebe 304a 00bd e6c3 16bd dfb8 c9bd
00000390: b5f2 c0be 7b2b 9fbd 7172 41be 42af 02be
000003a0: 519d b0bd 3938 35bd a650 533d 055f 4fbd
000003b0: 2e35 193d fb7e 37be 74e4 9abe 3847 bc3c
000003c0: 806f a4bc bdf1 503e 079d 7c3d e455 39bd
000003d0: d684 0fbe eafb d9bc 7085 91bc 4249 77be
000003e0: 26f8 f4bd df66 cebe 75b7 4d3e fe39 413e
000003f0: 7789 55be 2d1d fb3d 7bed 6cbe 49cf bfbd
-0.114201486 0.006979492 -0.110041514 -0.09648093 -0.07994667 -0.04633034 0.30435157 -0.2594081
-0.15729372 -0.07682471 -0.024597533 -0.13011451 -0.13610652 -0.103384316 -0.016206175 -0.13991392
-0.03202852 -0.08431393 0.0520107 -0.08172028 -0.19333677 -0.028921383 -0.012902098 -0.017119173
-0.14857173 -0.13099965 -0.029813461 -0.14980116 -0.07190553 -0.058790304 -0.027006788 -0.06354865
-0.029649977 0.017351115 -0.18073666 -0.10643462 -0.3407095 -0.06696821 -0.027298197 -0.07176002
-0.12524104 -0.14296246 -0.024355285 0.0448406 -0.13229717 -0.051604312 -0.1710322 -0.3203458
-0.1558753 -0.029365718 -0.07283397 -0.005671019 -0.09411671 -0.022735292 -0.03459677 0.005551268
-0.06303574 -0.17583174 -0.026948743 0.10381372 -0.07137577 -0.10998181 -0.02068411 -0.026136441
-0.22460583 0.104350254 0.036770955 -0.10621183 -0.07668715 -0.039247397 0.07377947 -0.10029046
-0.111859106 -0.24082574 -0.019710224 -0.07900612 -0.11685675 -0.18627444 0.06406761 -0.12281006
-0.13522293 -0.21742547 -0.118469246 -0.21367182 -0.016932296 -0.15768598 -0.22473197 -0.037995946
-0.13751964 -0.22748616 -0.16132016 -0.06385297 -0.03685574 -0.1073453 -0.046349738 -0.017506005
-0.21301474 -0.09622731 -0.13021947 -0.177581 -0.044225704 -0.10734894 -0.18372783 -0.1869339
-0.010747443 -0.09496176 -0.050031375 -0.2155351 0.008936737 -0.21029718 -0.25976342 0.009849832
-0.0012878533 -0.17990191 -0.060055252 -0.10990382 -0.16429417 -0.055523023 -0.3054179 -0.0389281
-0.24753112 -0.11946473 -0.08936732 0.10973629 -0.13311106 -0.097924486 -0.16586205 -0.14588895
-0.36516836 -0.23881088 0.26087317 0.04954477 -0.1599597 0.20453015 0.24114694 -0.1525257
-0.012580264 -0.052843407 0.029432338 -0.053641103 -0.09323889 -0.17937487 0.5663648 -0.06542928
-0.38372338 0.09263305 0.062350947 0.22362943 -0.1721895 -0.25456572 -0.13976425 -0.1377386
0.0018311059 -0.04177053 0.001981403 -0.16288683 -0.1186667 -0.032035947 -0.270496 -0.1340031
-0.1574409 0.26577374 -0.04107762 -0.13975388 -0.037238527 0.2383213 -0.122491226 0.1076998
-0.1415352 -0.16524011 -0.29914314 0.31989855 -0.33790523 0.17806187 0.23899558 0.17355365
-0.13026041 -0.31844908 0.06462097 -0.08864739 -0.04905621 0.12085227 -0.050936904 0.04468003
-0.21227959 0.16090728 -0.19129847 -0.20914572 -0.1103896 -0.094088875 -0.24315698 -0.24637316
-0.031196918 -0.11491065 -0.25286502 -0.03217417 0.12142611 0.13239801 -0.054582268 -0.36452052
-0.24981941 -0.15283142 -0.05413184 -0.16609332 0.23013051 -0.23152298 -0.19744411 -0.030843243
0.24387607 -0.18415359 0.05867157 -0.09412385 -0.13234664 -0.0871725 -0.23901361 0.14747511
0.29435846 0.007089931 -0.10557265 -0.10490026 0.045506287 0.10931618 -0.05658142 0.033814956
-0.37262025 -0.03132075 -0.036807917 -0.098497145 -0.3768517 -0.07771965 -0.18891312 -0.12762168
-0.08623756 -0.04424307 0.051590584 -0.050627727 0.03740423 -0.17919533 -0.3025242 0.022983178
-0.020072699 0.20404716 0.06167319 -0.045247927 -0.14015517 -0.02660938 -0.017763823 -0.2414904
-0.11961393 -0.4031286 0.20089515 0.18869779 -0.2085322 0.12261424 -0.23137467 -0.093657084

lstm.weight_hh_l0 f4 [512, 128]
00000000: 284e 263d 3432 873d b126 39bd 1773 02be
00000010: 6ab2 1ebd 990b 50bd df84 86bd 5456 21be
00000020: e318 bfbd c1d4 183d 3c1b 8b3d f002 8b3a
00000030: fb04 e9bd 6472 723c 941e 813c 98fe 083e
00000040: 48a0 b83c c802 543c ee14 ce3d f16a 1abc
00000050: dcc4 91bd b093 87bc a275 9bbd 929d 4d3d
00000060: df61 2fbd f100 603d 2b9f a4bc 0964 12be
00000070: ff2e 1e3d dc28 de3c e8eb a0bd 2271 d63d
00000080: f99b 013c f5c5 5cbb 5d46 0abd fedc bfbd
00000090: 63f3 69bc 8646 093e f374 14bc e032 b5bb
000000a0: 3900 1bbe b554 a73d 8086 63be 7235 acbc
000000b0: 5973 9e3d 7ee5 78bc 0262 033d 0cc5 b53c
000000c0: 0cd7 323d 1a72 d8bb 6a47 683d d39c 8aba
000000d0: 2f1a be3d 21dc 27bc e204 273d f422 063d
000000e0: 7a5b 09bd ecf1 1ebd 0455 ccbd ee87 b03c
000000f0: fe26 e33c 79fc ac3d e86e febd 24db 35be
00000100: 174e 7c3b 27ba f03c 6784 91bd 5513 65bd
00000110: d47a 8ebd 757b bf3c 0827 a7bd 6681 463d
00000120: 7312 863d 2e73 c1bd 7099 b3bd 2b54 903d
00000130: 6b0e dbbd 9c16 953d b4e6 533e 26f3 84bd
00000140: 7bb6 ec3c 99bf f33c 2bbc e1bd b142 8dbc
00000150: 94d5 e6b9 da7a 83bd d115 f1bc c3f6 a2bd
00000160: c980 7a3d faba 9abd f01e 0fbd ab92 94bc
00000170: 03d9 b9bc 67c2 49bd 8c18 f9bd 1627 ff3d
00000180: df89 abbc 9066 bf3d f4c5 b83d 9d33 46bd
00000190: d913 c73c e7ad 2d3b 86de babd 0631 92bc
000001a0: 6ba8 a0bd ef47 753d 29ad d43b 6aa7 243e
000001b0: cd9d df3d ebaa 0c3d 7146 3bbe 8abf cb3d
000001c0: 3bc6 8f3a 92c8 8cbd 3ac9 a8bd 1eaa 103d
000001d0: 9563 273e 7f95 ac3d ba6f 2dbd f6ff a23d
000001e0: e4dd 343e 8695 54be 92df 23bc 3e5f 1e3e
000001f0: 6afa af3d 5e4f 103e 72a4 a1bd 9b04 e03d
00000200: 4b04 45bd d8cf 053d d8aa 15bd e954 4cbe
00000210: dca7 c6bd f504 d1bd 8730 1fbe a637 2bbe
00000220: a789 cf3d 9f97 213e ac31 f3bd 4fd5 173e
00000230: de39 b23d 71a3 023d f74b 923c 0b3c b2bd
00000240: c7c7 0fbe 9781 38be 61b8 7bbd 98fd e23d
00000250: f3e0 32be dd6e ec3d 10ed 9ebd c284 183d
00000260: c01c 1ebd e1e7 1cbd 9ed7 17bd 2979 88bd
00000270: ef37 80bd e4f3 0a3c 9716 44be 13f9 5f3d
00000280: 1788 9f3d f035 07be 58e0 21be 1b69 b43d
00000290: 0071 b23d c52a 513c 1210 533e 1569 f53d
000002a0: 543a a13d 6262 463b f506 b7bd 72c5 5dbc
000002b0: 6ad3 483d 3659 4bbd 1b7c b0ba 6c66 8ebd
000002c0: 82f4 94bd 85f8 4c3e 5ccb 133e 219e 853d
000002d0: 2292 1abe 5abc 003e 07c4 3fbd 13fa 653d
000002e0: 7fe0 20bd 7e88 e0bd f7ff 4dbe c24a 41bd
000002f0: 4751 093e 5c83 d5bd 922b a1bc 5d7d 22be
00000300: cc5d aabd 874b 3bbd 9ffc 1cbe 74de 30be
00000310: 6e41 643e 2734 793d de35 46bd d24a 0f3e
00000320: 5538 0d3e 1c30 26be b3e7 29be 29b5 efbd
00000330: 8c72 1a3e f495 263c 8154 153e 7f58 43bd
00000340: 4e76 febd 3e2c c23b 1e26 2ebe 770b 5f3e
00000350: 9722 de3d 6de8 c33d d8b8 9dbc 7bd0 c43d
00000360: dc04 2bbb 6937 af3b 5cc1 8d3d 23d7 e4bd
00000370: cef3 0d3e f47e 0dbe c145 1bbe 2fc4 e8bc
00000380: ee07 c33d 2b5f af3d 223f a63d 5b5b b13c
00000390: ceda 2ebe 5c36 2ebd f5f6 26be 37dd 7f3e
000003a0: d01c 2fbd 595c 4b3d a506 863d ee0c 8a3e
000003b0: 0271 3fbd aa1d 933c 28cb 03be b4ac f93d
000003c0: b40e 00bd 705e 253d 809b 78bd b51e d2bd
000003d0: de81 1e3e 597c 803e 0dad 14be 4274 493c
000003e0: 2dce e93d b72a 66bd f189 9f3d b89e c3bd
000003f0: 5f04 fa3d 0046 e33d aed9 0abe c725 ad3d
0.04060188 0.06601372 -0.045202915 -0.12739216 -0.038744368 -0.05079231 -0.06568312 -0.15755588
-0.09330919 0.037312273 0.06792304 0.0010605734 -0.11377903 0.014797781 0.015761651 0.1337837
0.022537366 0.012940116 0.10062586 -0.009424911 -0.07117626 -0.016549915 -0.07590796 0.0501991
-0.042817947 0.054688398 -0.020095428 -0.14295973 0.038619038 0.027119093 -0.078574955 0.10470797
0.007910722 -0.0033687328 -0.03375851 -0.09368323 -0.014279219 0.13405809 -0.009061086 -0.0055297464
-0.15136804 0.081704535 -0.22219276 -0.021021578 0.077368446 -0.015191434 0.03207589 0.022188686
0.043662116 -0.006605399 0.05670873 -0.0010575302 0.09282338 -0.010245354 0.04077614 0.032748178
-0.033534504 -0.038804933 -0.09977153 0.021549191 0.027728554 0.08446593 -0.124234974 -0.17759377
0.0038498694 0.02938564 -0.07105332 -0.05592664 -0.06957021 0.023374299 -0.081617415 0.048463248
0.06546488 -0.09445797 -0.087695 0.07047304 -0.106961094 0.07279703 0.20693475 -0.064916894
0.028895607 0.029754447 -0.11022218 -0.017243715 -0.00044028147 -0.064199165 -0.029429348 -0.07957222
0.061157975 -0.07555194 -0.034941614 -0.018136343 -0.022686487 -0.049257662 -0.12162885 0.12458627
-0.020939765 0.09345734 0.090221316 -0.048389066 0.024301456 0.002650136 -0.09124474 -0.017845642
-0.07844623 0.059883054 0.006490369 0.16079488 0.1091877 0.034342688 -0.1828859 0.099486426
0.0010969111 -0.06874193 -0.08241506 0.035318486 0.16346581 0.084269516 -0.04234288 0.07958977
0.1766277 -0.20760164 -0.010002034 0.1546602 0.085926846 0.14092776 -0.078926936 0.109383784
-0.048099797 0.03266892 -0.036539882 -0.19954266 -0.096999854 -0.102060236 -0.15545855 -0.16720447
0.10133677 0.15780495 -0.118747085 0.14827465 0.087024435 0.03189415 0.017858488 -0.087028585
-0.14041053 -0.18018185 -0.061455134 0.110835254 -0.17468624 0.11544583 -0.0776006 0.037235983
-0.038601637 -0.038307074 -0.037070863 -0.066637345 -0.062606685 0.008481 -0.19149242 0.054680895
0.07789629 -0.1320417 -0.15808237 0.0880911 0.08712959 0.012766545 0.20611599 0.119829334
0.07872453 0.0030271043 -0.08936874 -0.013535844 0.049029745 -0.049645625 -0.0013464721 -0.06953129
-0.07273199 0.20016678 0.14433044 0.06524301 -0.15094808 0.1257185 -0.046817806 0.056146692
-0.039276596 -0.10963534 -0.20117174 -0.047190435 0.13409911 -0.104254454 -0.019674096 -0.15868135
-0.083186716 -0.045726325 -0.15330742 -0.17272359 0.22290584 0.060840752 -0.048391216 0.13993385
0.1379102 -0.1622929 -0.16592292 -0.117044754 0.15082759 0.010167588 0.14583017 -0.04769182
-0.124249086 0.0059256842 -0.17006728 0.21781717 0.10846441 0.09565816 -0.01925318 0.09610077
-0.0026095426 0.0053471816 0.06921646 -0.111738466 0.13862535 -0.1381796 -0.15163328 -0.02841386
0.09522997 0.08563074 0.081175104 0.021650007 -0.17075655 -0.04253231 -0.16305144 0.2498673
-0.042752087 0.049648616 0.06544236 0.2696299 -0.046738632 0.01795848 -0.12870467 0.12191144
-0.031264022 0.040373266 -0.06069517 -0.10259763 0.15479228 0.2509487 -0.14519139 0.012295784
0.11416278 -0.05619308 0.07789982 -0.095517576 0.12207865 0.11097336 -0.135596 0.08454471

lstm.bias_ih_l0 f4 [512]
00000000: fd28 21bd 1fc6 09be de64 97bd f03c ebbc
00000010: 271a a23d 3801 04be e42f f1bd 6bf9 0dbc
00000020: 8daf 1cbe 60f3 e93d 9dd7 13be 0521 043e
00000030: 29b0 663b 704a 56be ae63 03bc c764 5dbe
00000040: c4af 1abe 441b 333d 427b cbbd 3658 aabd
00000050: f230 f83d 9da6 0f3e 5b89 383d 220f f1bc
00000060: abce 0abe 1aa1 943c 7fec 05be 9205 92bc
00000070: 8dab 7dbd 4367 cc3c 4bcd a8bc 5f59 f83d
00000080: 4cb5 9cbd 650d 44bd 8787 21be e04e 37be
00000090: ccc0 d43c ab3a 773c e2cb 4fbb a3e1 6cbd
000000a0: 6088 95bd 97ea 65bd 1a27 f1bc 4d2a b4bd
000000b0: 478e c8bd ef36 aebd 851d 87bd ce40 3abe
000000c0: 5e52 c1bc 7928 d4bd f18d 0fbd 7c16 09be
000000d0: a20c f7bd 5bb8 59bd 1ec2 a6bd 2298 ffbd
000000e0: aae2 4ebe 2ac8 06bd 0476 aebd 6582 cfba
000000f0: 9035 963d c23e 0b3c de39 b0bd cabc b03c
00000100: 6356 a6bc d5f1 763d 8f72 38bd 0dd0 633d
00000110: 9adc c13c 7aa9 c73d dd19 ebbc 54a4 39bd
00000120: f422 583c c66f 3fbd 37d7 19bd 6c44 cebd
00000130: 05a2 eebd 9698 73bd 04e6 78bc 1b81 c8bd
00000140: 9d46 a13d 920e 153d b874 ac3c 6a98 3abe
00000150: 2cd0 3cbe c406 153c a203 c4bd b704 35be
00000160: 4cbd 47bd aa16 efbd 2ae3 07bd a60d 1ebe
00000170: c580 5b3b 9691 edbd ffb1 0f3c ad8a 4ebe
00000180: 54dd 383d 4365 e0bc 13ae b83c 7d87 f43c
00000190: b8a5 ec3b a595 96bd cfa2 b2bd 0508 e2bc
000001a0: 1dd2 febd a994 a4bd 4c0d e7bd 8205 12be
000001b0: 4485 b3bd 1408 bd3b 8f22 40bd 4ffe de3b
000001c0: 79fa edbd 443a 27be 1143 073a c20b 45be
000001d0: 9fc5 56be 5261 7e3d 8aed a2bc e0cf 1b3d
000001e0: d34c a23c a374 b73d 23c4 1e3d 753a 62bd
000001f0: 4281 a0bb 2358 853d 4ae8 89bd 1063 35bd
00000200: 80c1 f0bd 0790 f5bd b9df 023e 05fe 353d
00000210: e786 033e aa36 03be 8d9c 3a3d 1923 163e
00000220: 364b 2cbe 72ec 9e3d d9fa 663e d218 9e3d
00000230: 92bf 1dbd 611f 16be 168b 98bd e32d 38be
00000240: 30cd b83b 51fa 873c e8c6 ccbd a296 1cbe
00000250: 7778 3b3e 7d84 a83d 84ba 943b 7084 82bd
00000260: bd89 a6bc b0a4 db3d db69 d9bd d3fc 623d
00000270: 5860 91bc 4e34 933c 9b61 88bd 60f1 0c3e
00000280: f4e8 17be 61bb 4fbd c11c 313d e809 2dbd
00000290: aca2 8cbd 03f7 373d 9e56 60bd 065c 5ebd
000002a0: 1e1e 413e 25be c0bc b1ed 0dbc 475b 00be
000002b0: 46ae f4bd be90 a2bd eda0 2dbc 7077 13bd
000002c0: b8ac 18bd 9ad3 8abd 0e83 ecbb b9a2 3bbd
000002d0: 7ec5 3d3d bd92 5fbd 8ff9 373d 36ff 08be
000002e0: 063e a9bc 90e8 e2bd 2a52 213d e409 0cbd
000002f0: 0b32 1c3c 0348 31bd 7d90 cebc 7bed b43d
00000300: aafb 283c ddb4 e6bc 3c24 ecbc 7568 163e
00000310: 47d3 94bc 7f90 1c3c 70a3 87bd 6f28 d53d
00000320: 297e f2bc fdaa 52bd e117 cfbc cd94 3dbe
00000330: f11e f43b b7d9 37bb e484 e43d d795 c33a
00000340: 60d3 163e 40ef 6abc ceaa 283c c632 7b3d
00000350: 075c d63d 3cfc 60bd f14c c7bb 1e96 aa3d
00000360: 47f3 6abd 460b 1ebe 0522 95bd b248 0cbb
00000370: cc0c e7bd 7e91 533d 882d ed3c f8c0 cabd
00000380: 3992 793c c0e0 2a3d 7f86 b2bd 5172 86bd
00000390: 25ea a7bd 03b4 943c bf6d 8b39 f719 65bd
000003a0: 3a9c e8bd 9e3d 30be 1228 a7bd e0db 0ebd
000003b0: aaa6 37be 5465 36bc 5ac4 b13d 7c12 86bd
000003c0: bb49 4bbd 3b61 28bd 861c 91bd bcaa 913d
000003d0: d863 26be 92f1 7f3d a91c a93d 8f6c c13c
000003e0: a225 393e 25cc 1f3c 16ee 563d ed70 f4bd
000003f0: d67a 1bbd e471 6a3b 10eb 0abe 3d0c 38bc
-0.03934573 -0.13454483 -0.07392286 -0.02871558 0.079151444 -0.1289109 -0.117767125 -0.008665423
-0.15301342 0.11423373 -0.14437719 0.12903221 0.0035200214 -0.20926833 -0.008019371 -0.21620475
-0.15106112 0.043727174 -0.09935619 -0.08317606 0.121187106 0.14028402 0.045052867 -0.029426161
-0.135554 0.018143225 -0.13078497 -0.017824922 -0.06193118 0.024951583 -0.020605704 0.12126421
-0.07651767 -0.047864337 -0.15774356 -0.17901182 0.025970839 0.015089671 -0.0031707217 -0.05783237
-0.07301402 -0.056131925 -0.02943759 -0.08797131 -0.09792762 -0.085065715 -0.06597427 -0.18188784
-0.023598846 -0.10359282 -0.035047475 -0.13387483 -0.120629564 -0.05315433 -0.08142494 -0.12480189
-0.20203653 -0.032905735 -0.085186034 -0.0015831707 0.07334435 0.008498849 -0.08604787 0.021574397
-0.020304864 0.060289223 -0.045031127 0.055618335 0.023664761 0.09749122 -0.028698856 -0.04532273
0.013191927 -0.046737455 -0.03755876 -0.10071644 -0.116519965 -0.05947169 -0.015191559 -0.0979025
0.078747965 0.03639085 0.02105175 -0.18222204 -0.18438786 0.009095851 -0.095710054 -0.1767758
-0.048764512 -0.11674245 -0.033175625 -0.15434894 0.00334935 -0.11600034 0.008770465 -0.20170088
0.04513295 -0.027392035 0.022543943 0.029849762 0.0072219037 -0.07352761 -0.087224595 -0.027591715
-0.1244242 -0.08036167 -0.11281833 -0.14259914 -0.08765653 0.0057687853 -0.046907958 0.0068052183
-0.116200395 -0.1633082 0.0005159835 -0.19242766 -0.20973824 0.06210453 -0.019888658 0.038040042
0.019812023 0.089577936 0.03876127 -0.05523153 -0.004898221 0.06510951 -0.06733759 -0.044283926
-0.11755657 -0.11990362 0.12780656 0.044431705 0.1284443 -0.12813821 0.045559455 0.14661826
-0.16825566 0.07759942 0.22556628 0.07719578 -0.038512774 -0.14660408 -0.074484035 -0.17986254
0.0056396946 0.016598852 -0.09998876 -0.15291837 0.18307672 0.08228395 0.004538836 -0.06372917
-0.02032935 0.10724771 -0.106158935 0.055416893 -0.017746136 0.017969277 -0.06659242 0.13763952
-0.14834958 -0.050715808 0.043240312 -0.042245775 -0.06866965 0.044913303 -0.054770105 -0.05428698
0.18859145 -0.023528168 -0.008662627 -0.1253482 -0.119473025 -0.07937764 -0.01059745 -0.036002576
-0.037274092 -0.06778641 -0.0072177714 -0.04580948 0.04633092 -0.0545833 0.044915732 -0.13378605
-0.020659458 -0.11079514 0.039385 -0.03418912 0.009533416 -0.043281566 -0.025215382 0.08834358
0.010313908 -0.028162414 -0.028825872 0.14688285 -0.018167151 0.009555935 -0.0662297 0.10408103
-0.029601173 -0.0514326 -0.025279941 -0.18513794 0.0074499776 -0.0028053352 0.111581594 0.0014921975
0.1472907 -0.014339268 0.010294629 0.06132772 0.104667716 -0.05492805 -0.00608217 0.08329414
-0.057360914 -0.15433988 -0.07281879 -0.0021405634 -0.11281738 0.051652424 0.028952375 -0.09900087
0.015232616 0.041718245 -0.08717059 -0.06564773 -0.081989564 0.018152243 0.00026593913 -0.055932965
-0.11357923 -0.17211005 -0.0816194 -0.034877658 -0.17934671 -0.011132557 0.08680029 -0.06546494
-0.04963086 -0.04110835 -0.070855185 0.07112643 -0.16249025 0.06248624 0.082574196 0.023611335
0.18080762 0.009753262 0.05247315 -0.119356014 -0.037958942 0.003577345 -0.13566232 -0.011233387

lstm.bias_hh_l0 f4 [512]
00000000: cc5a 08be 5529 40be e9f6 2cbe 48fa 4fbd
00000010: ad68 c6bc 0e6c 3fbe 58c9 72bb fed2 a1bd
00000020: 21c2 94bd 1603 9d3c 65e9 76be 1289 a13d
00000030: fe93 c4bd 88f9 d2bd b2a6 e33c bdf8 5bbe
00000040: 40a8 48be f69e 913d 9ad3 00be 9d17 03be
00000050: 12ba 963d 2eca 483c f3b1 193d f47d d9bd
00000060: e4eb 92bd 78e4 56bc b7d3 f4bd 9aa2 8dbd
00000070: f8d9 2fbe 9258 013e 91d4 b2bc 9a2e c13d
00000080: 7431 0cbe 5db5 48be 3be2 e2bd 7102 ccbd
00000090: c0e0 64bd 59a5 a7bd 1ef1 483d 3953 1fbe
000000a0: 372b 0fbe e921 1cbd dd36 aabd 0188 1ebe
000000b0: 4645 fbbd b1b3 5cbe b811 d43b b7ff 50bd
000000c0: 6292 97ba 7de7 aebd f16e ccbc a50b a9bd
000000d0: 9016 91bd 5525 1abe d864 d9bd 919d 18bc
000000e0: 1917 8bbd 5111 1cbe 4115 f83b 1fb7 d73c
000000f0: 7bc9 46bc 8464 dcbd 39ee ddbd 339f a83d
00000100: 594d 8a3c 3015 11bb 2723 b1bd ae47 85bd
00000110: 6cc7 523d 971c 30bd e3ad b8bd b75a f0bc
00000120: da34 583b a795 c1bd 433a acbc 1489 33be
00000130: 2fa6 3ebd 3cd2 fcbd 8158 0abe f170 f0bd
00000140: b1f7 22bc 74d4 b5bc dd3d 63bd 357b ecbd
00000150: 9edd 17be bb90 b7bd 8a36 62be 01dd 4abe
00000160: 9148 21bd 2e51 cdbd fae0 05be 82f9 e8bd
00000170: 4bf9 96bc c2d7 9abd f9f4 4abd 6f4e 8bbd
00000180: 75d1 b83d a4b6 0b3d cdc1 74bd 47c2 83bc
00000190: 3217 e6ba 4ba1 a1bd f187 b4bd d459 a73d
000001a0: a7f7 55bd 2394 2fbd 021a be3c 9df0 cbbc
000001b0: 12e9 97bd 40a0 843d 87c1 dcbc d7a9 443d
000001c0: 053b efbd 961a 06be d464 94bd c616 21be
000001d0: 6f15 5fbe 341c 82ba 20a9 aebd f373 eebd
000001e0: 1a79 81bc ded6 20bd bd62 55bd d3e7 65bd
000001f0: 76b0 c4bd 54c6 873c e265 2cbd b648 23be
00000200: d358 fdbd 702c 32be f195 c13d c1c2 b6bd
00000210: 1876 bb3d 524a 01be 1063 91bd f18e 193e
00000220: 4708 0fbe 40eb 0b3e c8cd e83d cc9b c03d
00000230: ea2f 44bc 181b 96bd 64e4 d93c 97ff 32be
00000240: 5555 2a3d aea7 abbd d001 febd 0cbe e3bd
00000250: cc76 673e aae8 e0bc 68f9 043e eeb1 013c
00000260: 61cc bd3c a239 a73d 8e86 6cbd 440b 6fbd
00000270: 2343 11be cc9d ff3d 3184 3abd 6226 443d
00000280: 5d82 9abc d4ec ecbd b6e0 12ba 9aef 3fbe
00000290: 7fe0 623d 276f 94b6 a5be d0bc 86b8 a0bd
000002a0: 1417 213e 6533 ed3d 3300 3d3d ba45 56be
000002b0: d3e7 4cbe c612 9ebc a22c d6bd c166 30be
000002c0: f294 d13c 85bd 1cbe 4cd7 153d f383 38bd
000002d0: cc8d eebd 4a71 bcbc f9e6 223d 8ec4 31bd
000002e0: 84e1 1cbd dc9a 463d 43bd 833d fb55 ae3d
000002f0: 7c7d 1abd b99c 65bd e281 14bd 121f 4c3c
00000300: 045e fb3c 9225 8dbc 2cbd e7bc 234f 0b3e
00000310: 5948 d53d a4d0 57bb 2ada 8a3d 7327 a5bc
00000320: ad68 2f3d 7fa2 16bd 1f0e f9bd 4b39 f2bd
00000330: 62c9 a7bd c607 0ebe ea8b d73d 43b7 02bd
00000340: 1099 033e 2ddc fc3d 8ae9 b8bd 56ec 6e3d
00000350: b93b 003d b600 57bd c65c 17bd d211 05bb
00000360: 442a b93b 91da 47be 62ec 8fbd 7e60 e83d
00000370: 7c85 26be abe1 ad3d 711e 44bd a635 53bd
00000380: 7403 b83d 01a9 77bd a0c6 0dbc 5030 c2bd
00000390: 1870 88bc 283a cc3d e17b d1bd cdef c13d
000003a0: c3d7 06be d59d 94bd 5033 3bbe 2840 a13b
000003b0: 9b68 b7bd b1a9 06be 837a 0bbd 946a 51bd
000003c0: 8d2e afbd 252d a9bd b1b3 afbb 4daa 083b
000003d0: bdf1 e8bd 20c8 cf3d 46b1 17bd 6898 593d
000003e0: 595e d83c b9af c03d e092 7b3c 29f3 45bd
000003f0: 89bc 8cbd 3c43 2e3c 5604 87bd ca91 863d
-0.13315886 -0.18765767 -0.16891064 -0.050775796 -0.024219835 -0.18693563 -0.003704628 -0.07901572
-0.0726359 0.01916651 -0.2411247 0.07887472 -0.0959854 -0.103015006 0.027789447 -0.21481605
-0.19595432 0.071103975 -0.1258072 -0.12801977 0.07359709 0.012255235 0.03752322 -0.10619727
-0.07173899 -0.013115995 -0.11954444 -0.069157794 -0.17172992 0.12631443 -0.021829875 0.09432717
-0.1369074 -0.19600435 -0.11078306 -0.09961403 -0.0558784 -0.081858344 0.049058072 -0.1555909
-0.13981329 -0.038118277 -0.083112456 -0.15481569 -0.12269072 -0.21552922 0.006471839 -0.05102512
-0.0011564011 -0.08540247 -0.024955245 -0.08254174 -0.070843816 -0.15053304 -0.106149375 -0.0093149105
-0.06791515 -0.1524098 0.007570893 0.026332436 -0.012132998 -0.10761359 -0.10836453 0.0823349
0.016882585 -0.0022137873 -0.08649283 -0.065078124 0.051459715 -0.042996015 -0.09017541 -0.029340131
0.0032990486 -0.09452372 -0.021023875 -0.1753276 -0.046545204 -0.123447865 -0.13510324 -0.11740292
-0.00994675 -0.022196032 -0.05547892 -0.115469374 -0.14830634 -0.08963152 -0.22091118 -0.19810869
-0.039375845 -0.100252494 -0.13074103 -0.11375715 -0.018429419 -0.07560684 -0.04955003 -0.068020694
0.09024326 0.034109727 -0.059755135 -0.01608385 -0.001755452 -0.07892092 -0.08814991 0.0817143
-0.052238133 -0.042865884 0.02320576 -0.024895007 -0.074175015 0.06475878 -0.02694775 0.048013534
-0.11681179 -0.13096079 -0.07245794 -0.15731344 -0.2178552 -0.0009926618 -0.08528352 -0.11643209
-0.015804816 -0.039267413 -0.052096117 -0.056129288 -0.0960397 0.016574062 -0.04208935 -0.15945706
-0.123704575 -0.17399764 0.09452427 -0.08923865 0.09153384 -0.12626007 -0.07098973 0.14995934
-0.13968001 0.1366396 0.11367375 0.09404716 -0.011974314 -0.073293865 0.026598163 -0.17480312
0.041585285 -0.08381592 -0.124026895 -0.11120233 0.22603911 -0.027454693 0.12985766 0.007915957
0.023168745 0.081652895 -0.05774551 -0.058360353 -0.14185767 0.12481269 -0.045536224 0.047888167
-0.01886099 -0.11568609 -0.00056029425 -0.18743744 0.055389877 -4.4236835e-06 -0.025481531 -0.07847695
0.1573146 0.11582068 0.046142768 -0.20925036 -0.20010309 -0.019296061 -0.10457732 -0.17226698
0.025583718 -0.15306671 0.036582276 -0.04504771 -0.11648139 -0.02300324 0.039771054 -0.04340034
-0.038301006 0.04848753 0.06432583 0.08512493 -0.037717327 -0.056057665 -0.03625668 0.01245858
0.030684479 -0.017229829 -0.028288446 0.13604407 0.1041419 -0.0032930756 0.06779893 -0.020160412
0.042824436 -0.036776062 -0.121608965 -0.11827334 -0.081927076 -0.13870153 0.10524733 -0.031913053
0.12851357 0.12346683 -0.09028919 0.058330856 0.031306956 -0.052490912 -0.03695371 -0.0020304811
0.0056507904 -0.1951697 -0.07027508 0.113465294 -0.16261858 0.084903084 -0.047880594 -0.051564835
0.08985034 -0.06046391 -0.008653313 -0.09481871 -0.016655013 0.0997203 -0.10228706 0.094695665
-0.13168244 -0.072566666 -0.18281293 0.004920978 -0.08955499 -0.1315067 -0.034052383 -0.05112703
-0.08553801 -0.08260564 -0.005361997 0.002085346 -0.11374233 0.10145593 -0.037034295 0.05312386
0.026412176 0.094085164 0.015354842 -0.0483276 -0.06871898 0.010636147 -0.06592624 0.06570776

fc.weight f4 [2, 128]
00000000: 6135 803d 076b aebc faca febe 34aa d8be
00000010: a7cf 9dbe 9dd0 193f 353e 0fbf 63e6 393d
00000020: 7e5a 893d 064d 47bd 2b40 983e 4b4a e43d
00000030: 578a 18be a201 76bd 9ca5 91be c2f2 62bc
00000040: f232 903e 3189 1e3c 050d 143e 14f4 30be
00000050: 24d5 0f3d 17fe d6be 68ed ae3e 3b9e 923e
00000060: 6cac 86be bda4 fa3c 8cd6 25be 46f7 c53d
00000070: 658b 333c 883b 31bc cdf9 263e 9318 b9bc
00000080: ceb4 843a ed01 083e 3a11 ce3e 90d1 f33d
00000090: 00ee e83d e627 ff3c 067e d53e 972d b73e
000000a0: da6a d3be 0d87 f6bd c4b4 e93d a581 0dbe
000000b0: 0035 9cbe cf68 a53e 88c2 36be d4c5 113e
000000c0: 32c1 07bf 74ff c23e c7a7 b13e b93e 00be
000000d0: ad8c 18bf 32ab cabe 7faa a63d 8e37 cdbd
000000e0: ce99 7a3e 8155 64be 3bd8 9bbe cfd7 d13c
000000f0: 26b0 193e 066e 833e c39c f8be 3278 a0be
00000100: 5131 91be b562 953e c2ae 303e 9936 d33b
00000110: 8b5b 93be 7649 00bd 51d2 d93d ff35 29bd
00000120: ae75 f93e d420 be3d 509a c73e b371 cc3e
00000130: 6b47 6bbe f367 733e f574 fbbc 260c 813e
00000140: 62ce 5b3c c0b2 983e 4200 fc3d e890 fdbe
00000150: a64b e1be 6337 20be 48d2 4c3e 6548 aabe
00000160: 2b73 0bbf 69a3 83bd e98f 88be 18bf 75be
00000170: 16d0 a83d 69a8 1e3e 0c3f 273e 067f 1dbe
00000180: 4b66 c9bd 5a5e 713d 1769 a7be 3005 903e
00000190: 8fa3 a6be 1d53 51bd d766 823e af41 3fbd
000001a0: f813 d23d c8d8 d03b c423 7abe dd7d a03e
000001b0: 629c e2bb b25c ae3e e3bc 8bbe a8b8 dfbc
000001c0: 1d82 d23c d3a6 c93e e69b 99be bd2b 733c
000001d0: c027 e0be 7123 183e 76d8 683d 53ab 24bd
000001e0: 1ab4 503e 0ce6 2dbd f344 113e 025d 5fbe
000001f0: 3fab 14bd 1aec f53d f34c db3e b34c b9be
00000200: 305f 12bd d36b b43d e45d c03e 3861 b13e
00000210: d35d 723e c515 19bf 3e6d 023f f336 3dbd
00000220: 20f4 8e3c 8268 7e3d 71e0 bcbe 64e9 36be
00000230: 18e7 b73d 2445 213e d6ca 903e 3db8 18be
00000240: 6cdc 9fbe 3af9 4e3c 059f a9bd 0fd4 813e
00000250: 9b75 38bd 4b5c 013f 5a31 96be bb05 7fbe
00000260: 760f 583e 947c 86bd 7991 793e a2fd 05be
00000270: 8b65 a2bc 91b4 3c3c 5aa7 4fbe 353e 933d
00000280: 8e5a d33d 4f1e 40bd 5fc1 cabe 3563 38bd
00000290: a6fc 32be 4060 1e3d 66cb cfbe 1d7d 62be
000002a0: be77 8c3e 5bfd 2d3d e3e7 d7bd 27e7 883e
000002b0: baad 8f3e 27dd c1be b152 c23d 81a6 45be
000002c0: 76d0 053f 7e01 9abe f818 a0be d5c6 853e
000002d0: e2f6 273f 9a95 a63e 0350 c03c a97f f33d
000002e0: 9743 c2be 12d4 783e beaf b63e 27f4 68bd
000002f0: 2671 48be 62ef 0dbe 5091 cf3e 5648 cc3e
00000300: 492e 963e 3dbb 2dbe 650d 75bd 7804 b2bb
00000310: 42fd 993e 92c6 0f3e bb6e 2dbe f834 f2bd
00000320: 7b87 e4be 479e 03bc c8ef b7be 4b4e d2be
00000330: bdf6 783e e277 94be 403c cf3d 7387 86be
00000340: 0cbb 613d 7a53 2dbe 5f3d 1abd b7a7 e53e
00000350: 8def be3e 8e1b 943e e169 3ebe 862a ea3e
00000360: bfa6 133f c1da 5e3d f8ce 9d3e 27bc 683e
00000370: d34f a1bd 6c5f 6cbe 37e5 3abe f402 823e
00000380: 258a df3d b537 12bd 2969 5f3e 1f06 59be
00000390: 9a4e 8f3e 3749 9b3d 0e6d 7dbe 8fe6 a43d
000003a0: c895 aabd 79ec edbd 496c 4f3e f298 cbbe
000003b0: f344 fabb 1f52 c0be b314 473e 01ac a63d
000003c0: 9889 c2bd 9215 c1be 94e5 a53e 03f5 e13c
000003d0: 2c15 d83e 7c0e 09be 9451 3cbc 2224 033e
000003e0: b799 0abe ae52 583c 228b 7cbd b1f9 b93e
000003f0: d408 c6bd c861 d3bd 165a c5be 6c7a 9c3e
0.06260181 -0.021291269 -0.49764234 -0.42317355 -0.3082249 0.60083944 -0.55954295 0.04538573
0.06706713 -0.04865744 0.29736456 0.11146983 -0.14896522 -0.06006015 -0.28446662 -0.013851823
0.28163868 0.009676264 0.14458092 -0.17280608 0.035115376 -0.4199073 0.34165502 0.28636345
-0.26303422 0.030596131 -0.16195124 0.09666304 0.010958527 -0.010817416 0.16306229 -0.022594726
0.0010124685 0.13281985 0.40247518 0.11905205 0.1137352 0.031146955 0.4169771 0.3577697
-0.4129246 -0.12037478 0.114114314 -0.13818987 -0.30509186 0.32306525 -0.17847645 0.14235622
-0.5302917 0.3808552 0.34698316 -0.12523927 -0.59589654 -0.39583737 0.08137988 -0.10020362
0.24472734 -0.22298242 -0.30438408 0.0256156 0.15008602 0.2566988 -0.485571 -0.31341702
-0.28357938 0.2917687 0.17254165 0.0064457175 -0.2878078 -0.031320058 0.10635818 -0.04131126
0.48722595 0.09283605 0.3898492 0.39930496 -0.22976463 0.23770122 -0.030695418 0.2520458
0.013415905 0.29823875 0.12304737 -0.49524617 -0.44003028 -0.15646128 0.20002091 -0.33258358
-0.5447261 -0.064276524 -0.26672295 -0.23998678 0.08242814 0.15493931 0.16332644 -0.15380487
-0.09833964 0.05892787 -0.32697365 0.28128958 -0.3254666 -0.051104654 0.25469086 -0.0466935
0.10257715 0.0063734986 -0.24427706 0.31346026 -0.006915615 0.34055096 -0.27292547 -0.02730973
0.025696808 0.3938509 -0.30001754 0.014841971 -0.43780327 0.1485727 0.05684706 -0.04020245
0.20381203 -0.042455718 0.14186458 -0.21812823 -0.036296126 0.120079234 0.42832145 -0.3619133
-0.03573531 0.08809628 0.37571633 0.34644485 0.23668604 -0.5979884 0.5094794 -0.04619498
0.017450392 0.062111385 -0.36889985 -0.17862469 0.089796245 0.15749031 0.28279752 -0.14914031
-0.31222856 0.012632662 -0.08282284 0.253571 -0.045034032 0.5053145 -0.29334527 -0.2490453
0.21099648 -0.0656673 0.243719 -0.13085034 -0.01982381 0.01151766 -0.20278683 0.071895994
0.10320006 -0.046903905 -0.39600655 -0.045016486 -0.1747919 0.03866601 -0.40584868 -0.2211804
0.27435106 0.042477947 -0.10542276 0.26738855 0.2806223 -0.37864038 0.094884284 -0.19301797
0.5227121 -0.30079263 -0.3126905 0.2612826 0.6561109 0.32536012 0.023475653 0.118895836
-0.37942192 0.24299648 0.35680956 -0.056873467 -0.19574413 -0.13860849 0.40540552 0.39898938
0.29332188 -0.16965957 -0.059827227 -0.0054326616 0.30076033 0.14040592 -0.16936772 -0.11826509
-0.44634613 -0.008033342 -0.35925126 -0.41075358 0.24312873 -0.28997713 0.10118914 -0.26275215
0.055110022 -0.16926375 -0.037656184 0.4485452 0.37292138 0.28927273 -0.18595077 0.45735568
0.5767631 0.05440784 0.30821967 0.22728024 -0.078765534 -0.23083276 -0.18251501 0.25392878
0.10915021 -0.035697658 0.21817459 -0.21193741 0.27989656 0.07582324 -0.24748632 0.08051788
-0.0832935 -0.11617369 0.20256151 -0.39765126 -0.007637614 -0.37562653 0.1944149 0.08138276
-0.094989 -0.3771177 0.32401717 0.027582651 0.42203653 -0.13384432 -0.011494059 0.12806752
-0.135352 0.013203306 -0.061656125 0.36323312 -0.096696526 -0.10321385 -0.38545293 0.3056215

fc.bias f4 [2]
00000000: 47a7 4bbd b175 8e3d
-0.049720075 0.069560416
