Models/cnn_lstm_model_stream_Nstream_little_0,75.pth (torch, 408328 bytes, 8 tensors)

conv1.weight f4 [64, 8, 3]
000000 f2 ae 5f 3d c1 00 c8 3c 96 02 63 3e dc 53 07 be
       0.0546102 0.024414422 0.22168955 -0.13215584
000010 be 07 a7 bd 4c 2b 80 3d 99 e1 40 bc 6f 4c 10 be
       -0.081557736 0.06258258 -0.011772537 -0.14091657
000020 38 d5 9f be ca 93 95 be 52 74 3d be c5 f5 01 bd
       -0.3121736 -0.29214317 -0.18501404 -0.031728525
000030 f8 39 a9 bd 63 60 92 bd 62 b3 15 bd 2d df 85 3d
       -0.0826301 -0.071472906 -0.036548026 0.06536708
000040 f5 e8 a5 bd bf c3 98 3c 55 fd b3 bd dd d0 0f 3d
       -0.08101074 0.018648027 -0.087885536 0.035111297
000050 db b5 ed 3d f7 44 2a be 7c 96 4c 3e b7 ea 45 3d
       0.11606952 -0.1662787 0.1997928 0.048319545
000060 53 17 0a 3e 79 b1 83 3d 57 29 06 be 48 d1 ae bd
       0.1348546 0.064303346 -0.13101707 -0.08536011
000070 36 42 8d bc ce a0 01 be 29 2b b7 bc 61 16 c9 3d
       -0.017243486 -0.12658998 -0.022359448 0.098187216
000080 f2 83 ae 3d c8 4c b6 3e cd 1c c8 3e bf 84 99 3e
       0.0852126 0.35605454 0.39084473 0.2998409
000090 e4 16 4f 3e d4 79 bf 3d d8 27 44 3e 2f 3b a5 bd
       0.20223576 0.09349409 0.19155824 -0.08067929
0000a0 87 68 a8 bd 74 81 c0 ba 75 ba 1b bc 6b 5c 89 bd
       -0.08223062 -0.0014687018 -0.009504904 -0.067070805
0000b0 78 21 2a be 7c b0 fb 3d 50 35 f3 bd b1 aa 6a 3e
       -0.1661433 0.12289521 -0.11875403 0.22916676
0000c0 b0 7b 76 bd 54 64 39 3e 49 31 be 3d 47 72 79 3e
       -0.06017655 0.18104678 0.09286744 0.2436
0000d0 c0 20 d9 bd fb 07 9f 3e 48 06 bf 3d 8b 4a cd 3d
       -0.1060195 0.31060776 0.0932737 0.100239836
0000e0 bd cc c5 bd 35 3d 8f 3c 55 50 01 be 35 4d 0e bd
       -0.09658191 0.01748524 -0.126283 -0.0347416
0000f0 49 c3 eb 3c fa 4f 87 bd 69 4f 08 be 69 10 8b 3e
       0.028779643 -0.06607051 -0.13311543 0.27160957
000100 2f b7 db 3d e1 5a 9e 3d 63 11 7b 3d bd 09 af bd
       0.10728299 0.077321775 0.06129588 -0.08546779
000110 7a ee 06 be b4 b6 b6 3d 83 a5 63 bd 25 5d aa bd
       -0.13176909 0.089215666 -0.055577766 -0.08318547
000120 5b 6b 23 bd 15 bc b0 3e 41 e8 56 3e 3e 76 95 bd
       -0.039897304 0.34518495 0.20987035 -0.072979435
000130 00 af 73 3d 8d c1 d6 3d 0e 62 af 3d 5e 05 66 be
       0.059493065 0.10486136 0.08563624 -0.22462985
000140 bd 4a 82 3d 99 0f a4 bc 14 61 7c bc e3 3e 40 bd
       0.063619114 -0.020026969 -0.015404005 -0.046934973
000150 e0 11 71 3d aa 8b 07 3e 41 8e 0f 3e 51 e7 8b be
       0.058854938 0.13236871 0.1401911 -0.27324918
000160 e2 3d 18 be b5 ba bd bd 50 94 29 be fd 77 c2 3d
       -0.14867356 -0.09264127 -0.16560483 0.09495542
000170 e2 d3 fc bd ad 6c f9 3c b9 fe b3 bd aa 64 1f be
       -0.12345101 0.030447328 -0.08788819 -0.15565744
000180 8a d9 30 3d 0e 33 6b be 24 38 c8 3c ef 87 d8 3d
       0.04317621 -0.22968695 0.024440832 0.10572802
000190 f3 9e 8e be 6e 98 ab 3d ed d7 b3 3d 36 bf f4 bd
       -0.27855644 0.08378683 0.08781419 -0.11950533
0001a0 46 60 5e 3d 8b 39 7f be 30 dd e9 bd 86 d3 72 be
       0.054291032 -0.24924295 -0.11419141 -0.23713502
0001b0 3b 06 48 3e b5 50 62 3e a5 9d 5b 3e 04 38 9d 3e
       0.19533627 0.221011 0.21446855 0.307068
0001c0 c9 cb 0e be 3a de 3c 3e 0f 3a 72 be 2b 70 76 3d
       -0.13944925 0.18444148 -0.2365496 0.060165565
0001d0 c4 6b cf 3d fa a7 04 be a3 29 9d 3d 75 30 77 3e
       0.101279765 -0.12954703 0.07673957 0.24139579
0001e0 05 d5 d1 3d 17 2f 3d 3e a4 12 fb bd e0 f8 6f bb
       0.102457084 0.18474995 -0.12259415 -0.0036616847
0001f0 3f 42 70 bc 17 6a b6 3d f1 78 d3 3b 68 ea 27 be
       -0.014664232 0.08906954 0.0064536263 -0.16398013
000200 5f cb 68 3e 6f 81 82 3d df d0 b0 bd d6 e2 8b 3e
       0.2273383 0.06372344 -0.08633589 0.273215
000210 d0 58 35 bd 51 c4 e3 3d 39 56 ac bd 51 70 04 3e
       -0.04427415 0.11121429 -0.08414883 0.1293347
000220 34 04 4c 3e ad 92 62 3e 68 69 43 bd 98 c5 98 be
       0.19923478 0.22126265 -0.047707945 -0.29838252
000230 cd 7e 5e be 81 41 e3 3c ef 99 3c 3d 64 41 9c 3d
       -0.21728058 0.027741196 0.04604524 0.0762966
000240 f1 6d 43 3e ec 80 8f bd d7 ee 93 3e 34 50 d0 3d
       0.19084908 -0.07007012 0.28893158 0.101715475
000250 21 19 a0 be 7b 7b ef 3d 48 34 ca 3d 8a ac 73 bd
       -0.31269172 0.11693474 0.09873253 -0.059490718
000260 a3 dd 14 be 3c 47 a3 be ff 3d 94 3c 3c ba 54 be
       -0.14537673 -0.31890285 0.018095968 -0.20774168
000270 77 40 9c 3e 6a c0 bc bd 67 bb 58 3e d4 d9 7c bd
       0.30517933 -0.092163876 0.21165238 -0.061731175
000280 82 aa 18 be a8 f4 b6 bd d5 9b 06 bd 96 b3 76 bd
       -0.14908794 -0.08933383 -0.032863457 -0.06022986
000290 02 1e 52 be 2c 00 b5 bd 18 29 8f bd 72 29 05 be
       -0.2051926 -0.088379234 -0.0699026 -0.13004091
0002a0 37 a6 ee bd fb 59 32 3e f8 84 75 bd 20 36 84 be
       -0.11652797 0.17417137 -0.059941262 -0.25822544
0002b0 2b 6c 2f be 11 94 49 be 19 d5 5a bd 1f e1 ff 3d
       -0.17131107 -0.19685389 -0.053425882 0.1249411
0002c0 e1 b3 a7 3d c0 92 4b be 96 27 89 be 8d d3 10 bd
       0.08188606 -0.198802 -0.26788014 -0.035358
0002d0 3c fc 41 be aa 52 70 3d b1 14 65 be 98 6d 4d 3e
       -0.18943876 0.058672585 -0.22371174 0.20061338
0002e0 62 04 dd bd 28 99 58 3e ee ac 2f be 16 00 9f bc
       -0.107918516 0.21152174 -0.17155811 -0.01940922
0002f0 9f 9a 0d be 27 49 25 3e 4e f3 1f be d4 e4 14 bd
       -0.13828515 0.16141187 -0.15620157 -0.03635104
000300 52 48 0a 3e 1b 14 84 3c 9d 20 b7 3d 5c f9 c0 3d
       0.1350415 0.016122868 0.08941767 0.094225615
000310 b2 88 88 3e 0b 6d ae bd 63 0b 50 3e 19 59 92 3e
       0.2666679 -0.08516892 0.20316844 0.285836
000320 f0 bc 66 3e 5b d6 93 bd a4 ec e6 3d 9e 47 b0 bd
       0.22533011 -0.072186194 0.11275604 -0.0860741
000330 ec 7c 49 3e 28 34 3f 3e 16 ad 89 3d df 1c 1d 3d
       0.1967656 0.1867224 0.06722467 0.03835761
000340 93 dd 74 bd ce 2d aa bd b8 1b b2 3c eb 5f 8d bd
       -0.059781622 -0.08309518 0.021741733 -0.069030605
000350 aa 4c 81 3e 56 ca dc 3d 12 5f 84 bd 0d 43 ce 3c
       0.25253803 0.1078078 -0.06463446 0.025178457
000360 5b 83 72 be 80 38 93 bd d6 e3 49 be 5e e9 b2 3d
       -0.2368292 -0.07188511 -0.19715819 0.087359175
000370 f1 4f 7e 3d 85 55 d8 3d f9 d1 a3 3d 06 5b dc bd
       0.062087957 0.105631866 0.079990335 -0.10759549
000380 fe fe 1f be 27 c7 9b be ef a6 9f bd 69 9d 15 bc
       -0.15624616 -0.3042538 -0.07795512 -0.009131768
000390 90 4b 36 be a5 f3 8b 3d 50 2a b7 3d ef 48 2e 3c
       -0.17802262 0.06833581 0.08943617 0.010637506
0003a0 64 d7 fb 3c ba 07 1b 3e d2 ec eb bd 8e 9f 8c 3e
       0.030742355 0.15139666 -0.11519779 0.2746548
0003b0 30 91 a2 3d 4b 8b 10 be 6d 67 25 3d d0 c6 e4 bd
       0.079378486 -0.14115636 0.040381838 -0.11170733
0003c0 2f 0c ac be b9 7c bb 3c 7e 79 f1 bb c7 6c cc 3d
       -0.33603045 0.02288662 -0.0073692193 0.09981685
0003d0 1e 2a 1f be 46 94 09 3d 85 63 ef 3d 41 99 06 be
       -0.1554341 0.03358867 0.11688904 -0.13144399
0003e0 70 c4 28 3d 5a ba 14 3b 5a 3d 6a 3e ce ed 4b 3c
       0.041202962 0.0022694082 0.22874966 0.012446834
0003f0 4e 4c c0 bd b7 f7 ee bb 0f c0 60 3e 8a 60 f6 3d
       -0.09389554 -0.0072927135 0.21948265 0.12030132

conv1.bias f4 [64]
000000 53 e7 e9 bd e0 96 2e be c2 f7 2d 3e 85 ad 44 be
       -0.11421075 -0.17049742 0.16989043 -0.19206817
000010 7b 57 8f bd 79 c6 23 be 6e 9c 0e bd 7d 48 34 3e
       -0.069991075 -0.1599368 -0.03481715 0.17605777
000020 cb e4 0f be 57 0a f4 3d 69 d2 46 3d 43 63 9f 3c
       -0.14052121 0.11916035 0.048540507 0.019456511
000030 4b e1 cd bd f9 98 02 be 6b f7 42 bd e4 8c 05 3d
       -0.10052737 -0.12753667 -0.047599237 0.032605067
000040 f2 24 31 bb 03 01 b2 3d ae 47 c3 bb a9 0e 94 3d
       -0.0027030078 0.08691599 -0.0059594726 0.07229359
000050 53 21 00 be 89 d7 4f be 9f ba 96 3d 04 dd 05 be
       -0.12512712 -0.20297064 0.07359814 -0.13072592
000060 c3 de e1 bd 8c 79 3a be f0 03 11 be 21 e6 0b bd
       -0.110288166 -0.18210429 -0.14161658 -0.034155015
000070 94 5d bd 3d c9 48 2b be 6d 41 43 be e7 8a b0 bd
       0.09246364 -0.16726984 -0.19067927 -0.086202435
000080 88 6e 1b bd a4 82 93 bd c3 17 81 3c 93 66 cd 3b
       -0.037947208 -0.07202652 0.0157584 0.0062683313
000090 c6 26 11 bc d3 c5 ed bd 9c 05 42 be ea bc e5 bd
       -0.008859342 -0.116099976 -0.18947452 -0.11217673
0000a0 2a ee 0d bc d2 ef ca 3d 04 27 23 3d 42 ca b5 bd
       -0.00866274 0.09909023 0.03983213 -0.08876468
0000b0 48 a0 0e bd 79 bb 59 be e6 06 99 3d 0e b1 a4 3b
       -0.034820825 -0.21262921 0.07472019 0.0050259894
0000c0 ff 1a 4a be c3 e9 e7 bd 5d 46 b3 bb 63 e4 a1 3d
       -0.1973686 -0.113238834 -0.0054710344 0.079048894
0000d0 b7 a2 62 3d b7 a9 f8 bd 2e e6 28 3e 13 4b 1e be
       0.05533096 -0.121417455 0.16494057 -0.15458326
0000e0 67 76 97 bd d5 0b ec 3d 90 27 87 3d aa 1b 09 bd
       -0.0739563 0.11525694 0.06599343 -0.033473648
0000f0 8b 6f 84 bd 42 ab 18 bd b2 96 e8 bc f9 cb 8a bd
       -0.06466588 -0.0372727 -0.02839217 -0.06777186

lstm.weight_ih_l0 f4 [512, 64]
000000 dd e2 3c bc 25 09 83 3e 5b b2 12 be 59 bb 52 3e
       -0.011528698 0.25592914 -0.1432585 0.2057928
000010 03 1a 73 be 37 f3 06 be e2 df 2a bd f0 47 79 bc
       -0.23740391 -0.13178717 -0.041717418 -0.015214905
000020 87 fa 8a bb f8 69 a9 bd 9e 1a 57 ba f4 73 82 bb
       -0.004241291 -0.08272165 -0.00082055654 -0.003981108
000030 f3 80 bc 3d a9 94 86 3c 0a e5 18 be de 71 86 bd
       0.092042826 0.016428309 -0.14931121 -0.06564687
000040 e0 38 5a bd d8 f4 2b be c2 37 4f 3e 57 df d1 bd
       -0.053276896 -0.16792619 0.20236114 -0.10247677
000050 7e e4 a8 bd f9 52 02 3f 3a 14 59 be 73 32 28 3e
       -0.082467064 0.50907856 -0.21199122 0.16425495
000060 d2 09 45 bd db 9d 41 bd f1 d0 6e 3d 7a b9 ed bd
       -0.04810507 -0.047269683 0.05830473 -0.116076425
000070 a7 55 b7 bd 9d 9d 8f bd 2f 10 78 3c 21 d7 b1 bd
       -0.08951884 -0.07012484 0.015140577 -0.08683611
000080 97 a5 a0 bd bf 4f 3b bd 85 46 8c 3c 73 e9 d6 3d
       -0.07844084 -0.04573035 0.01712347 0.10493746
000090 a8 27 cf bb 55 f9 f7 3b 50 d9 61 3d 4d 07 81 3c
       -0.006321866 0.0075675645 0.055138886 0.015750552
0000a0 88 b2 37 be 16 0e 24 3e fd 8e 06 be 3c 2e c5 bd
       -0.17939198 0.16020998 -0.13140483 -0.09627959
0000b0 37 09 4c be cf 58 0a be 60 84 ea bb 16 33 79 bd
       -0.1992539 -0.1351044 -0.0071568936 -0.060839735
0000c0 34 08 2d be 92 1b 88 bd 56 67 4d 3e cb 53 2f bc
       -0.1689766 -0.066458836 0.20058951 -0.01070113
0000d0 fd 80 82 3d 15 26 80 be a4 f0 ca 3c e4 3a 43 bd
       0.06372259 -0.25029054 0.02477295 -0.047663584
0000e0 2e 4d e3 bd 1b 06 6d bc 02 d0 37 bd 1b 70 e5 bd
       -0.11098705 -0.014466788 -0.044876106 -0.11203023
0000f0 a6 8d 9e bb 09 df 13 3e 38 7e f0 3d 27 2c a4 bd
       -0.004838663 0.1444055 0.11742824 -0.08016234
000100 46 a8 93 be fd ec 5c 3c 1d b3 f6 bd 3e 56 2c bd
       -0.2883932 0.013484237 -0.12045882 -0.042074434
000110 72 50 02 be c9 50 d1 bd d3 ad 01 bc d9 69 4a 3d
       -0.12726 -0.10220487 -0.007914978 0.04941735
000120 3e 84 7e bb d1 82 97 3d 15 ee a2 3d 0e 7d 0b 3e
       -0.0038836147 0.07397998 0.07955567 0.13621923
000130 03 28 1d bd 6a a7 a9 3d 12 6f 30 3d 7b af 71 bd
       -0.038368236 0.08283885 0.043074675 -0.05900524
000140 c0 c0 8c be ec e8 db 3d ec 6e fe 3d a4 92 80 3d
       -0.27490807 0.10737786 0.124235004 0.062779695
000150 13 0d 8e 3d c9 9c 73 3e 71 00 0b be 9e bb 74 bb
       0.069360875 0.23790278 -0.13574387 -0.0037343274
000160 ed 27 1e 3e 17 85 c1 bc 62 94 e9 bd 34 26 8b bc
       0.15444918 -0.023623032 -0.11405255 -0.01698599
000170 09 b0 ff 3c 74 04 fd 3d 74 1d f2 3a 8a f9 21 3d
       0.03121187 0.12354365 0.0018471912 0.03954462
000180 64 5a 99 3d e2 3d 07 bd 13 85 24 3e a0 05 16 be
       0.07487944 -0.033018 0.16066389 -0.14650583
000190 c8 07 4b 3d 09 ab ef bd cd 41 43 3e b3 dc ac 3d
       0.049567968 -0.11702544 0.1906807 0.084405325
0001a0 f6 42 f9 3d d7 54 3b be 72 2b 05 bd 70 e2 02 be
       0.12170975 -0.18294083 -0.032512136 -0.12781692
0001b0 32 ad 7d bd c0 f7 a7 bd 67 85 23 3d c7 2a 77 3c
       -0.06193275 -0.082015514 0.039922144 0.0150858825
0001c0 fc 84 6f 3d 9b 98 e0 bd 67 66 d9 3d 86 ea f6 bc
       0.058476433 -0.10966607 0.10615235 -0.030141126
0001d0 0f 38 dc bc eb 48 e6 bd 1f 52 29 3e 92 45 9d 3d
       -0.0268822 -0.11244377 0.16535233 0.07679285
0001e0 4e 91 c7 bd 20 d7 0b 3d 82 66 fe 3d 12 4d 9c bd
       -0.097445115 0.034140706 0.124218956 -0.076318875
0001f0 c3 13 6e 3e 85 77 7d 3e ae 47 0e 3c d0 e7 39 3d
       0.23249726 0.24752624 0.008684082 0.04538709
000200 7d 40 98 bc 8d bb 95 bc a9 67 7c bd ff 12 e2 bd
       -0.018585438 -0.018277908 -0.061622296 -0.110387795
000210 f6 79 fc bc b2 30 45 bd 9a 79 99 bd 07 3e 6b bd
       -0.030819874 -0.048142143 -0.07493897 -0.0574322
000220 52 5e 1b be 9c a2 8e 3d 21 13 03 bc 68 71 a9 bd
       -0.15172699 0.06964609 -0.008000166 -0.08273584
000230 c8 cc 98 3c 0f 6b 67 3d 7d 48 97 3d 7b a1 05 be
       0.018652335 0.056498583 0.07386873 -0.13049881
000240 2a 23 30 3d e1 c0 32 3b c6 1e 30 3d 46 40 0b 3d
       0.043002285 0.002727561 0.042998098 0.033996843
000250 e7 c3 d0 bd aa 47 df bd f0 b8 9b bc 88 23 96 bd
       -0.101936154 -0.10902341 -0.019009084 -0.07330996
000260 e0 61 ef bd 3a d4 ab bc d5 3f 62 bd 42 d8 15 bd
       -0.1168859 -0.020975221 -0.055236656 -0.036583193
000270 c7 f7 8d 3c 37 78 49 bd a3 bc e8 bd 20 80 21 3d
       0.017330064 -0.04918691 -0.113641046 0.03942883
000280 50 d8 8c bd 5b 56 8b bd 84 b2 9c 3d 45 9c 28 be
       -0.06877196 -0.068035804 0.07651237 -0.16465862
000290 0e 1a 1d 3e 61 f8 b5 bd 61 33 fc 3d 42 20 82 3d
       0.1534197 -0.08885265 0.12314487 0.06353809
0002a0 53 0f 4a bd ef 5d 17 be 93 9a 28 bd b3 8f 96 3d
       -0.04933102 -0.14781927 -0.04116304 0.07351627
0002b0 79 1c 07 be b4 8f 58 bd 69 c6 fc bd 02 58 b7 bc
       -0.13194455 -0.05287142 -0.12342531 -0.022380833
0002c0 18 54 96 bd 7c cb 67 bd ac ea b0 3d a9 aa 5b 3d
       -0.07340258 -0.056590542 0.0863851 0.05362955
0002d0 29 80 18 3d 23 6d 60 3d d7 c0 f9 3c fe 5e a2 3c
       0.037231598 0.05479158 0.030487461 0.019820686
0002e0 7f 3c 17 3d 1a 69 87 3d 08 42 70 bd 6e ac ba bc
       0.036922928 0.066118434 -0.058656722 -0.022787299
0002f0 57 74 68 bc 56 0a 0f be af 28 57 be 1a 58 7d 3d
       -0.014187894 -0.13968787 -0.21011613 0.0618516
000300 8d 14 08 3d 90 27 a9 3d 0b dd a9 3c 6b 13 e5 3c
       0.033222724 0.08259499 0.020735284 0.02796336
000310 74 46 19 be c4 8a 84 bc 08 d3 38 bc 41 66 fb 3c
       -0.14968282 -0.01617945 -0.0112807825 0.030688407
000320 1a 33 d5 bc 3f 32 f7 bd 2a 94 d7 bd 18 1c 54 3d
       -0.026025344 -0.120701306 -0.10526307 0.051784605
000330 16 80 d3 3d c7 1b 7a 3c de f6 f3 bd de 8d 25 3d
       0.10327165 0.015265412 -0.119123206 0.0404185
000340 76 30 a5 bd de ab 8a bd 10 61 4f 3d ae d2 a0 3d
       -0.08065884 -0.06771062 0.050629675 0.07852684
000350 d3 5e d5 bc f7 d1 df 3d 62 5a e2 3d b5 4a 9f 3c
       -0.026046192 0.109287195 0.110523954 0.019444803
000360 b4 bb c0 3d 66 a5 81 3d b0 d9 6c 3d 30 72 da bd
       0.094108015 0.063303754 0.05782479 -0.10666311
000370 d5 d3 ad bd 76 c6 8c bd 18 a2 ff 3c b0 23 98 3d
       -0.084876694 -0.06873791 0.031205222 0.07428682
000380 da d4 d4 3d eb ca d0 bd 66 19 b0 bd 95 02 09 3e
       0.10392161 -0.101949535 -0.08598594 0.13379891
000390 0f e0 0b be 48 9b 80 3c 0f 8f c2 3c c8 eb e5 bd
       -0.1365969 0.015699044 0.023749856 -0.11226612
0003a0 09 3d 2c be a6 eb a7 3c 80 4c 97 bd f1 50 b6 3d
       -0.16820158 0.020498108 -0.07387638 0.08902157
0003b0 47 36 3a 3d 20 f1 21 be f9 b1 25 3e 53 43 8d 3d
       0.04546192 -0.15814638 0.16181172 0.06897607
0003c0 d2 6e 54 be eb 9a 64 3e 7c 69 81 bc fd c6 cf bd
       -0.207454 0.22324722 -0.01579737 -0.10145376
0003d0 3f ea d6 bc 61 17 89 be 66 b4 0d 3c 55 20 e7 bd
       -0.026234744 -0.2677565 0.008648967 -0.11285464
0003e0 a8 e9 55 be 00 49 06 3d c2 81 b8 bc 59 06 66 3d
       -0.20889914 0.032784462 -0.02252281 0.056158397
0003f0 f9 29 6c bc 4a ca 85 ba c2 db b9 3e d1 9b 82 bd
       -0.014414304 -0.0010207382 0.36300474 -0.06377376

lstm.weight_hh_l0 f4 [512, 128]
000000 25 58 b3 3b 08 8c 88 3d 15 fc a3 3d 9e c3 b7 bd
       0.005473154 0.06667334 0.08007065 -0.08972858
000010 34 09 e1 3c 46 11 cb bd cf 78 5c be 7f ba 43 3e
       0.027470209 -0.09915404 -0.2153046 0.19114111
000020 68 5f 93 bd e8 ff 95 3c 18 21 41 be 3f 68 08 3e
       -0.07195932 0.018310502 -0.1886028 0.13321017
000030 86 d7 78 bd ac e8 4b bd c4 b6 36 bd 6d 63 bb 3c
       -0.060752414 -0.04978244 -0.044607893 0.022874558
000040 0e 87 b0 3d 6f 2f 10 3d 22 b6 e3 bd 5d d5 30 be
       0.0861951 0.035201486 -0.111187235 -0.17268892
000050 61 61 ae bd 3a 8c 5d bc 1a 9d 04 be af 69 9e 3d
       -0.08514667 -0.013522202 -0.12950554 0.07735001
000060 aa da d8 bd ee 5f 15 3e e3 43 f2 3a e3 34 1f 3e
       -0.10588582 0.14587376 0.0018483367 0.15547518
000070 2b 2b 15 3d aa 8a 7b 3c f9 5c de 3d 16 b2 3a bd
       0.03641812 0.015352884 0.10857577 -0.045579992
000080 92 02 70 bd 4a 20 88 bd ae 18 67 bd 23 a4 bc 3d
       -0.0585962 -0.06646784 -0.05642002 0.09210994
000090 e1 2e 76 3d a1 83 c8 3d 9b 15 17 be be 94 56 bd
       0.0601033 0.09790731 -0.14754336 -0.052387945
0000a0 bd 90 18 be 0f c5 5e bd ce 2f 85 3e c4 31 15 bd
       -0.14898963 -0.05438715 0.26013035 -0.036424413
0000b0 44 58 2c bd a6 64 a7 bd a7 3f 57 bd e3 59 d2 3c
       -0.042076364 -0.08173494 -0.052550938 0.025677627
0000c0 88 f8 04 3e 9e c6 a3 bd c4 9a 2c bd 88 01 f6 bd
       0.12985432 -0.079968676 -0.042139784 -0.12012011
0000d0 cf 9c fe bd 56 e7 84 3d e6 60 0e 3e b3 7d b1 3d
       -0.124322526 0.06489436 0.13904151 0.08666553
0000e0 11 d4 cc 3c 01 eb d1 bd ad 03 7d bc 80 0b 12 3e
       0.025003465 -0.102499016 -0.015442771 0.142622
0000f0 be 66 b5 bc 94 46 64 bd 31 df af 3c 04 dd ab bd
       -0.022143718 -0.05573137 0.02146873 -0.08391765
000100 b6 c4 fd 3d 8d b1 b1 3c 69 50 07 3e f4 7f 1f 3e
       0.12391035 0.021691108 0.13214268 0.15576154
000110 8b c4 5c bd 42 f5 65 3e f7 12 9b 3d b0 24 8c 3d
       -0.053898375 0.2245684 0.07571977 0.06842935
000120 ff 67 3b 3e 78 96 a0 3d e0 da 92 3d cd 16 6c 3d
       0.1830139 0.078412 0.07170653 0.057638932
000130 d9 3f 2c 3d 87 5a 1b bd 5f 66 fd 3d ea e3 ae bd
       0.042053077 -0.03792813 0.12373041 -0.08539565
000140 1e 70 d1 3d f0 64 e5 bd 38 24 cf 3c aa fb 05 bd
       0.10226463 -0.11200893 0.025285825 -0.03271071
000150 2a b9 b2 bd e2 7e f6 3c 32 5f 33 3e 83 e4 80 3c
       -0.087267235 0.0300898 0.17516783 0.015733963
000160 6e 89 6e bd 4f d2 5b 3d ca f6 8d bd f7 de 74 bd
       -0.058236532 0.053667363 -0.06931837 -0.05978295
000170 96 42 ac 3d 2b 00 dd 3d ca a5 d6 bd c1 17 b1 3d
       0.08411138 0.10791048 -0.104808405 0.08647109
000180 ff 46 d5 bd ff 4f 08 bc 24 ba 69 bd 77 ac c0 3d
       -0.10413932 -0.008319854 -0.057062283 0.09407895
000190 19 5c 07 be d5 cc f3 3c 73 df 6a 3c f8 a9 28 bc
       -0.13218726 0.029760757 0.014335501 -0.01029443
0001a0 9c 7d f1 bd 1d 93 92 3d dd b3 f6 3d 37 76 68 bc
       -0.11791536 0.07156966 0.12046025 -0.014188341
0001b0 90 89 19 be 3e 91 4b bd ec 54 ad bd 93 c9 07 3d
       -0.14993882 -0.04969906 -0.08463463 0.03315122
0001c0 b5 6e 1d 3d c5 03 5d bd b9 24 00 be f6 19 9c 3d
       0.038435657 -0.053958673 -0.12514009 0.07622139
0001d0 52 32 0b 3c 9c 36 f9 bd 74 f8 92 3d 13 2b a4 3d
       0.008495884 -0.12168619 0.07176295 0.08016028
0001e0 7a 5c e0 bd 87 66 91 3d ce cb 80 3d 33 4e 34 3d
       -0.109551385 0.07099634 0.06288873 0.04401989
0001f0 3e 4b 82 3d 8f 0a 1e bd 92 ec 2f 3d a3 c7 60 3c
       0.063620076 -0.03858429 0.04295022 0.013719472
000200 6f 8a 22 be c8 7b ce 3c 4b 54 f4 3c a0 c9 2d bd
       -0.1587312 0.025205508 0.02982535 -0.042428613
000210 0c b0 bd 3d 43 69 4b 3d 33 61 05 bd 62 40 7d 3d
       0.09262094 0.049660932 -0.0325634 0.06182898
000220 a3 f4 56 be 74 11 a7 3b 9d cf 06 be eb bd d4 bc
       -0.20991759 0.005098516 -0.13165136 -0.025969466
000230 f9 94 64 bd d0 65 45 3e 6c 3a 97 bc e0 10 af 3d
       -0.055806134 0.1927712 -0.018460475 0.085481405
000240 40 af 3d bc 9a 53 27 3d 93 4e 30 3b fa 34 df bc
       -0.011577427 0.040851213 0.0026902303 -0.02724694
000250 d9 40 90 3d bb a4 84 3c 79 0c a3 3d 9e 84 b9 3a
       0.07043619 0.01619183 0.07961363 0.0014153903
000260 4e 03 df 3c d4 53 20 bd 68 8e 47 bd c6 ed b8 bd
       0.027223255 -0.039142445 -0.048719794 -0.09029727
000270 e5 b2 8e 3d 37 a7 71 3d d4 8c 8c 3c f6 66 8e bc
       0.06967715 0.05899736 0.017156996 -0.01738308
000280 53 ce 52 3d b0 79 89 3d c2 5a 3a 3e de cc 47 3d
       0.051466297 0.06712663 0.18198684 0.04877936
000290 81 ab ce 3c 9d 31 18 3d 45 7a 93 bd 28 70 82 bc
       0.025228264 0.03715669 -0.072010554 -0.01592262
0002a0 c3 27 1e 3d ed 5d 99 3d 45 d9 08 bd 8d 1f 87 3d
       0.03861214 0.07488618 -0.03341033 0.06597815
0002b0 fa e8 44 bd 7a d8 b2 bd e6 a1 d9 bd 76 97 63 bd
       -0.048073746 -0.08732696 -0.10626583 -0.055564366
0002c0 29 24 ec 3c 83 ab 17 3d 63 55 93 bc 3c 65 15 bc
       0.028825836 0.0370288 -0.017985051 -0.009118374
0002d0 30 b9 07 bd e3 db e8 3c 05 08 91 bb 22 74 7e 3c
       -0.033135593 0.028425163 -0.004426005 0.015530618
0002e0 2d 26 09 3c 81 23 a7 bd c4 4b c4 ba 87 da 7f bd
       0.008370918 -0.08161069 -0.0014976193 -0.062464263
0002f0 73 14 0f 3c 15 a2 c6 bc 16 93 95 bd 39 5e bf bc
       0.008732903 -0.024247209 -0.07303445 -0.023360359
000300 07 f5 32 bc d7 aa ad bd 2d 2a cf bd 64 94 fa bd
       -0.010922677 -0.08479851 -0.10115466 -0.122353345
000310 56 02 8a bd 58 af 5a bd 70 c6 fb bc dc 66 05 3e
       -0.06738727 -0.053389877 -0.03073427 0.13027519
000320 4d b4 95 bd 9e 4e bf 3d 4e fa 40 be c3 1b c3 3c
       -0.0730978 0.09341167 -0.18845484 0.023816949
000330 c1 ec c9 bc e3 4e 95 3b b8 be f9 3c 40 25 a8 3d
       -0.024649026 0.004556523 0.03048645 0.0821023
000340 f0 a5 6a bd d6 06 ed 3d ba 28 3e bd 10 8e 34 bd
       -0.057287157 0.115735695 -0.04642556 -0.044080794
000350 15 e7 a7 3d 2f c4 9b bc 26 78 86 bb b7 8d 77 3b
       0.08198372 -0.019014446 -0.0041036783 0.0037773678
000360 fc 8e 60 3c 3e f5 6f bd 33 65 7a 3c 1d d8 61 3d
       0.013705965 -0.05858349 0.015282917 0.055137742
000370 f5 4d c6 bc be 11 4a bd c3 37 ff bd 54 a9 15 bc
       -0.024207095 -0.049333327 -0.124618076 -0.009134609
000380 07 69 2a bc ba 49 00 3d 50 3d 1b bd e7 40 4e 3c
       -0.010401017 0.03132031 -0.03790027 0.012588716
000390 18 9c 03 3e d1 67 67 bd 4a 31 af ba 26 b0 21 3d
       0.12852514 -0.05649549 -0.001336613 0.03947463
0003a0 2a 61 b5 bd e1 bf 8a 3d b0 79 dd bd 80 40 b3 bd
       -0.08856423 0.06774879 -0.10814226 -0.08752537
0003b0 dc 92 2f 3d 1e f5 18 3e 23 c8 d4 3d 25 d1 32 bd
       0.042864665 0.14937255 0.103897355 -0.043656487
0003c0 a4 b9 f9 3c 00 8b 74 3d a4 e7 a0 3d c3 b1 b0 3d
       0.030484028 0.059702873 0.07856682 0.08627655
0003d0 79 7f d3 3d 86 e7 06 3d 9a 17 f4 bd 76 6e ce 3d
       0.10327048 0.03293564 -0.11918564 0.100796625
0003e0 5a 08 98 3d 88 f5 87 bb cb 92 37 bd 1f 6a e0 3c
       0.07423468 -0.0041491427 -0.044817727 0.027394352
0003f0 dd f4 80 3d 05 4a 59 3c 30 07 f7 bd 95 86 55 3d
       0.06296704 0.013262277 -0.12061918 0.0521303

lstm.bias_ih_l0 f4 [512]
000000 7c 30 e8 bd d9 d8 f8 bc 2c fc 10 3d 54 e9 04 be
       -0.11337373 -0.030376839 0.03539674 -0.12979633
000010 ff 65 c2 bd c9 47 bd bd 0f f2 53 bd 34 b0 86 3b
       -0.094921105 -0.092422076 -0.051744517 0.0041103605
000020 44 d3 71 bd c1 e5 aa bd 94 98 eb bd 1e 2e 37 bd
       -0.05903937 -0.08344603 -0.11503711 -0.044721715
000030 cc 0b a5 bd bb a0 f8 bc c6 eb fa bd 71 95 b3 3a
       -0.08058891 -0.03035008 -0.122520015 0.0013701153
000040 04 68 38 3d d2 59 30 3c 76 9a 82 bd 47 93 90 bd
       0.045021072 0.010763602 -0.06377117 -0.07059341
000050 56 87 98 bd 54 76 6b bb d4 97 6d 3d d5 35 10 bd
       -0.07447688 -0.0035928683 0.058006123 -0.03520759
000060 d3 ab a2 bc 4e 99 f0 3d 30 9b 3b 3c b3 22 30 3d
       -0.019857323 0.117479905 0.011450574 0.04300184
000070 d0 63 9d bd 77 61 ca 3c 4f d3 9e bd fa 10 98 3d
       -0.07685053 0.024704678 -0.07755148 0.07425113
000080 18 af bb bd 64 23 2d bd 7c 38 d8 bc 07 80 1f 3c
       -0.09164256 -0.04227008 -0.026394121 0.009735114
000090 26 cf 23 be 10 ab 6e bd a4 df e7 3a e5 09 81 bd
       -0.1599699 -0.058268607 0.0017690551 -0.06300715
0000a0 a7 6f 38 3d 8e 72 9c bd f8 2c 5e 3d 72 e8 08 bd
       0.045028355 -0.07639037 0.054242104 -0.033424802
0000b0 90 47 bf 3d 3a 4b d2 bd bf 0e 4a bd 7b af 46 be
       0.09339821 -0.102682546 -0.04933047 -0.19402878
0000c0 e2 1f 0b 3d 85 0d 8b 3d bf 83 e4 bd 19 4b aa bd
       0.033965953 0.06789688 -0.11157941 -0.08315105
0000d0 84 87 0d be 95 33 40 bd ff 0a 97 bc 7b 50 52 3d
       -0.13821226 -0.046924192 -0.01843786 0.051346283
0000e0 6a 3a fe bd 27 2a e2 3c c9 8f 9f 3c b5 c8 c8 3d
       -0.12413485 0.02760799 0.019477742 0.09803907
0000f0 97 9f fd bb 04 f8 c3 3d 12 39 47 bb 31 8b f2 bd
       -0.007739972 0.095687896 -0.0030399007 -0.11842955
000100 7d 50 e0 3d 87 8c 3c 3c 18 e2 c6 3d fc 0e ad bc
       0.10952852 0.011508114 0.09711093 -0.02112531
000110 d1 3f 18 bd f5 52 a5 3d 1a 47 98 bc a7 d3 91 3b
       -0.037170235 0.080724634 -0.018588591 0.0044502798
000120 aa d0 3d 3d 8d 67 a9 bc 75 e6 1c be ed 9b 76 bd
       0.046341576 -0.02067926 -0.15322287 -0.060207296
000130 87 c6 82 bc fc db a9 3a 11 9e b1 bc 45 1d 05 be
       -0.015963806 0.0012959237 -0.021681817 -0.12999447
000140 65 5d 84 bd aa ad 65 bd fe 97 00 bd b8 19 0b be
       -0.06463126 -0.056073822 -0.03139495 -0.1358403
000150 87 0b 02 bc ab 88 6e bd db d9 83 bd af 80 9a bd
       -0.007937319 -0.058235805 -0.06438037 -0.07544076
000160 41 72 b7 3c b0 8d ec 3d f8 fe 06 3c 0f 8e 3a 3d
       0.022393348 0.11550462 0.0082395 0.045545634
000170 2b 7e f8 bc 39 f7 74 3a 0a 9f e7 bd 4c 7a 7e bd
       -0.0303336 0.00093447004 -0.11309631 -0.06212835
000180 d7 bc 09 bc 3e e8 0b bd 6f 72 05 3d f3 41 80 bb
       -0.008406839 -0.03415703 0.032579836 -0.0039141118
000190 82 97 94 3d 7e 20 83 bd bd d4 79 bc cf 4a 02 bb
       0.0725546 -0.06402682 -0.015248475 -0.0019881015
0001a0 c8 7e 0d bd 39 4a d7 bd d3 04 31 bd 14 59 cf bd
       -0.034544736 -0.10512204 -0.04321749 -0.10124412
0001b0 e6 09 5d bc 55 f8 2f 3d df 76 05 bd d5 95 8e 3d
       -0.0134911295 0.042961437 -0.032584067 0.06962172
0001c0 d9 bb 37 3c c1 95 45 bd 04 01 0a 3d 41 25 ba ba
       0.01121422 -0.04823852 0.033692375 -0.0014201776
0001d0 98 48 fb bd 72 0b 9e bd 07 dc 55 bd 0b 32 48 3d
       -0.122697055 -0.07717027 -0.052211788 0.04887585
0001e0 00 32 8f 3d 16 ac ff bd 97 b0 07 bc c4 d4 28 3d
       0.069919586 -0.12483995 -0.008281848 0.041218534
0001f0 dc 95 27 be b5 c2 09 3b e6 ea 44 3c 8a fa 22 bd
       -0.1636576 0.0021020595 0.012018895 -0.039789714
000200 ef 8c 10 be 43 54 83 bc 81 b1 09 bc a3 81 bd bd
       -0.14116262 -0.01603139 -0.008404137 -0.09253242
000210 d8 ed 25 bd 10 dc d9 bd 78 74 3a bc 1f e3 56 3d
       -0.04051003 -0.10637677 -0.011380307 0.052462693
000220 99 35 88 3d 96 55 92 3d 49 86 61 3e f1 25 04 bc
       0.06650848 0.071452305 0.22023882 -0.008065687
000230 2f 91 6b bd 46 cf 97 3b be 45 b1 bd 3f 3b 4c bb
       -0.057511505 0.004632863 -0.086558804 -0.0031163243
000240 01 c4 1a be 11 08 4d bc 72 ea 86 bc 67 1f ed 3c
       -0.15113832 -0.01251413 -0.016469214 0.028945638
000250 d2 32 de bc 70 5c 77 bc 35 ae 2a 3e da 24 40 bd
       -0.027123842 -0.015097722 0.16668017 -0.046910144
000260 6e 12 d9 bd 4f cf da 3d 2d a6 e8 3c d3 83 8a bd
       -0.10599218 0.10684072 0.028399551 -0.06763425
000270 6d 8e d6 bd 8e 24 bf bd 09 32 0d be 4e ab 18 3d
       -0.10476384 -0.09333144 -0.13788618 0.037272744
000280 d8 6f 7b 3d 99 3e 4e 3d 35 93 42 bc b5 24 bb bc
       0.06138596 0.050352667 -0.011875917 -0.022844652
000290 72 b1 bd bd 56 da bc 3c bc b2 90 bc a3 49 22 bd
       -0.09262361 0.02305333 -0.017663352 -0.039621007
0002a0 86 1d 17 bc 93 c7 ec bb 51 0b 83 3e b8 49 7e bd
       -0.0092233475 -0.0072259395 0.2559457 -0.062082022
0002b0 db ea b9 3b 00 68 af bb f9 16 16 bc 2e c2 40 be
       0.005673749 -0.005352974 -0.009160751 -0.18824074
0002c0 af e3 d1 bd a7 2e 52 bd 2c 69 11 3d 74 c6 2b bc
       -0.10248505 -0.051314022 0.03550069 -0.010484327
0002d0 99 a6 4e bd 39 75 d3 bd 14 9a 5a 3d 92 64 06 bc
       -0.05045185 -0.10325093 0.053369597 -0.008202689
0002e0 d0 0b cb bd a4 53 93 bd 11 ff e1 b9 7a 93 6c 3d
       -0.099143624 -0.071936876 -0.00043105384 0.057757832
0002f0 80 11 0f bd 62 67 57 3d 6f 10 ce bd d8 b4 ae 3d
       -0.0349288 0.052588828 -0.10061728 0.08530587
000300 0d 41 46 3d ee bc a7 3d f3 53 17 be a7 c2 a0 3d
       0.04840188 0.08190332 -0.14778118 0.07849627
000310 f5 a7 7b bc 5d 64 11 3e 2b e2 30 bb ff b5 c2 3d
       -0.015359868 0.14198442 -0.0026990275 0.09507369
000320 bf 69 53 3d c9 a2 23 3d 81 8a d3 bd b7 71 1d bc
       0.05161452 0.039950166 -0.10329152 -0.009609631
000330 d1 d1 95 3d 30 13 9b bd b6 95 6a 3c 6d 20 7b bd
       0.0731541 -0.07572019 0.01431792 -0.06131022
000340 80 e3 2a 3c e9 9a 12 3c 48 2b 13 3d 69 1e 1c bd
       0.010430217 0.008948066 0.035929948 -0.03811494
000350 b9 ec aa bd 61 ff 05 bd f6 ce 38 3c d1 76 83 3c
       -0.083459325 -0.03271425 0.011279812 0.016047867
000360 76 0b 8a bd 18 9e 96 bd 06 59 70 3d 75 1e 85 bd
       -0.06740467 -0.07354373 0.05867865 -0.0649995
000370 c4 d5 fa bd c2 66 f4 bc ef 46 d2 bd aa 59 e9 3b
       -0.12247804 -0.029834155 -0.10267436 0.0071212845
000380 ff 66 2b bd ff 83 c6 bc 9f 53 92 3d 55 a4 a3 3d
       -0.04184627 -0.024232863 0.07144856 0.07990328
000390 b6 92 35 3c f4 e2 b5 3c de 56 c0 3d 2b 48 ce bd
       0.011082342 0.022202946 0.093915686 -0.10072359
0003a0 31 f6 6c bc 02 d8 cf 3d 23 9d 34 3e 25 f7 df 3d
       -0.0144629935 0.10148622 0.17638068 0.10935811
0003b0 97 2e c6 bd ed 7c 68 3d df ec e3 bd 1a 44 a7 bd
       -0.09676855 0.056759764 -0.11129164 -0.08167286
0003c0 ae fe 8b bc c7 ca 25 bd 25 3e d0 3d e6 e8 c5 bd
       -0.017089214 -0.040476587 0.10168103 -0.096635625
0003d0 ad f0 ee bd 44 91 89 3c 80 4c 4f bc 95 f5 b1 3b
       -0.11666999 0.0167929 -0.012652516 0.005430887
0003e0 e3 f7 1a bd 3a ca 9c bd 84 41 bf bc a9 6c ef 3c
       -0.03783406 -0.07655759 -0.02334667 0.029226618
0003f0 47 24 bf bc 14 df 87 bb 3e 86 e3 3d fd 70 ea bd
       -0.023332728 -0.004146466 0.11109589 -0.11447332

lstm.bias_hh_l0 f4 [512]
000000 6f 92 6f bd f4 43 44 3c b7 ec d9 bd 00 f0 f2 bd
       -0.05848926 0.011979092 -0.10640853 -0.118621826
000010 b3 55 29 be c2 21 88 3b bf b6 dc 3a c7 2a f4 3d
       -0.16536598 0.004154415 0.001683913 0.11922222
000020 4b ef ff bd 3d 23 2a 3d 97 96 14 be 98 f0 29 bd
       -0.124968134 0.041537512 -0.1451057 -0.041489214
000030 f9 6a e3 bc b3 3d 2b bd 74 cb 43 bd 54 13 ea bc
       -0.02776097 -0.041806888 -0.04780145 -0.02857367
000040 7a b1 53 bd 72 c0 c6 3b 8f ad b1 bd 9f 86 81 3d
       -0.051682927 0.0060654217 -0.08675682 0.06324505
000050 2b ac fb bc 61 29 d7 3d b8 93 c5 3d 51 ec ce bd
       -0.030721745 0.10505939 0.09647316 -0.101036675
000060 58 2e 8f bd 1a cb c1 3d 68 78 2f bd a8 5a 3d bd
       -0.06991261 0.09462567 -0.042839438 -0.046229035
000070 50 02 b6 ba ef ab df bd ec 5e 68 bd 08 58 84 3d
       -0.0013886187 -0.109214656 -0.05673115 0.06462103
000080 25 19 e6 bc 79 68 6d bb 82 2e c9 bd 4f 6a 3d bd
       -0.028088162 -0.00362256 -0.09823324 -0.046243962
000090 3d ad 41 be 84 6f b6 bd cb 0e bc bd 65 2d 8e 3b
       -0.18913741 -0.08907989 -0.09182509 0.0043389075
0000a0 8c 20 c4 bd 04 22 33 bc 8c 8b 5c 3d 4b 80 ce bd
       -0.0957652 -0.010933403 0.05384402 -0.10083064
0000b0 24 e5 91 bd 46 b0 2a be 6d 98 02 3d 0a d3 9a bd
       -0.07123783 -0.16668805 0.031883646 -0.07559784
0000c0 da a8 0b be a2 28 ac 3b e0 bb ba bd d0 c8 9d 3c
       -0.1363863 0.0052538672 -0.091178656 0.019260794
0000d0 f2 c9 85 bc 25 c4 46 bd be d5 4c bd f1 ef 9b 3b
       -0.016331647 -0.0485269 -0.050008528 0.004758828
0000e0 8d 00 00 3d 60 b2 18 3d d6 77 1e bd 8a c3 8a 3d
       0.031250525 0.037279487 -0.038688503 0.06775577
0000f0 db 63 aa bc b8 d9 b1 bb a1 8d 4b bd cb d0 e0 bd
       -0.020799568 -0.0054275654 -0.049695615 -0.10977324
000100 1f b6 63 3d f0 a3 8c bd 6c 36 63 3d f6 3e a4 bd
       0.055593606 -0.06867206 0.055471823 -0.08019821
000110 67 d4 7b 3d c9 12 19 3e e5 a6 d8 bd ca a7 03 3c
       0.06148186 0.14948572 -0.105787076 0.0080356095
000120 68 9c 42 3c d3 e1 d2 bd 49 ee 20 be 18 4f 72 bd
       0.0118781105 -0.10296979 -0.15715899 -0.05915746
000130 47 45 dd 3d 68 17 00 be 32 c3 a5 bc f0 2e 24 bc
       0.10804229 -0.12508929 -0.020234678 -0.010020956
000140 5b d2 96 3d 56 28 5c 3d cc 32 b4 bd 10 94 ea 3c
       0.07364341 0.053749405 -0.08798751 0.028635055
000150 21 b5 a3 bd 7a 17 ac bd 58 92 e4 bd 2d cb 83 3d
       -0.07993532 -0.08402915 -0.11160725 0.06435237
000160 be cb e2 bd 38 6d 21 3e 3e 53 54 3d 72 e0 86 3c
       -0.11074017 0.1576432 0.0518372 0.016464446
000170 e0 71 0b bd 79 64 a0 3c ff 7c b0 3c d5 49 d0 3d
       -0.034044147 0.01957916 0.021543978 0.10170332
000180 c2 4d 29 be 57 20 61 bc af 3f ac bd 93 f8 e9 bc
       -0.16533569 -0.013740621 -0.08410584 -0.028560912
000190 a6 d7 1d bd 73 e6 82 bd a4 8a 51 3d d4 2b e3 3b
       -0.038535737 -0.06391611 0.05115761 0.006932715
0001a0 8e 3d c3 bd 13 2a 4e 3b da dd bd bd 14 48 ba bd
       -0.09533225 0.0031458184 -0.092708305 -0.09095779
0001b0 9d f8 96 bb fe 6e 93 3d a0 6f 9a bd ea 43 57 3d
       -0.0046072737 0.071989045 -0.07540822 0.052555002
0001c0 11 1a ce bd 09 90 8f bc 21 bd 0a bd 72 22 ea bc
       -0.100635655 -0.017524736 -0.033871774 -0.028580878
0001d0 93 65 ef bd c5 b0 69 3d 2c 14 ca 3c b9 4a 9b 3c
       -0.116892956 0.057053346 0.024667822 0.018956529
0001e0 1c da b6 3c da 69 8c bd 6f eb 13 3e 56 6c 1a 3c
       0.0223208 -0.06856127 0.1444528 0.009425243
0001f0 aa f9 b5 bd 98 1e db 3c 71 8e 0f 3e 92 2c 43 bd
       -0.0888551 0.026747987 0.14019181 -0.047649927
000200 b1 27 09 be 55 63 d7 bc 01 ac 2b bd 7d 53 a9 bd
       -0.13394047 -0.026292482 -0.041912083 -0.08267877
000210 b5 c7 91 bd 4f ff 42 bd ec cc 17 3d 0c b0 78 bc
       -0.07118169 -0.047606762 0.037060663 -0.015178692
000220 d2 b2 09 3e f6 be bb bc 35 f3 3f 3e d8 e4 a6 bd
       0.13447121 -0.022918206 0.1874512 -0.08149117
000230 cd 86 28 3d c0 c3 03 bd 9c cb 4c 3d 7f f2 6b 3d
       0.04114418 -0.032169104 0.049998865 0.05760431
000240 b1 1b e0 bc 17 d0 a0 3c 99 98 ff bd d1 9e b6 3d
       -0.027356954 0.019630475 -0.124802776 0.089170106
000250 bf 98 ab 3c 21 e4 7e 3c 9f 88 aa 3d ba bd 98 bd
       0.020946858 0.01555732 0.0832684 -0.074580625
000260 77 33 a1 3c eb c8 2d bd 40 c0 81 bd 2d ff 03 bc
       0.01967786 -0.04242794 -0.06335497 -0.008056444
000270 27 69 32 3d e9 48 20 bd d2 db 4e bd 19 98 49 3e
       0.043557312 -0.039132033 -0.050502606 0.19686927
000280 da 88 1c 3c 96 1a e6 bc 9b f9 37 3d d0 a1 1c 3d
       0.009554112 -0.028088849 0.044915777 0.038240254
000290 0f 45 d4 bd 23 c4 54 3c 2c 0c 3e bd 4b 87 04 3d
       -0.103647344 0.012986216 -0.046398327 0.032355588
0002a0 8a df 97 bc 0c 82 11 3e bd 33 5d 3e df b9 0a be
       -0.018539209 0.14209765 0.21601768 -0.13547467
0002b0 6e a0 81 bc 43 e1 53 bd b8 12 05 3e a1 e3 de bd
       -0.01582357 -0.0517285 0.12995422 -0.108832605
0002c0 d0 cd de 3c e8 e6 c3 bd 39 16 ae bd d6 ef e1 bb
       0.027197748 -0.09565526 -0.085003324 -0.0068950457
0002d0 a5 1c 2b 3d 3b 8c b3 bd a8 39 01 3d 58 27 7b 3a
       0.041775364 -0.08766981 0.031549126 0.0009580753
0002e0 32 ca d6 bd 60 45 cc bd 76 38 b5 bd ac 3d 3a bd
       -0.104877844 -0.0997417 -0.0884866 -0.04546897
0002f0 04 b0 fc bd 66 a2 1a bd 0d 01 55 3c 55 38 11 3e
       -0.1233826 -0.03775253 0.013000739 0.14181645
000300 04 c4 90 3d c5 6b 20 3d 62 d4 cf bd 44 41 60 bc
       0.07068637 0.039165277 -0.10147931 -0.013687436
000310 85 b1 56 3c 0a 79 2c 3b 6f d3 63 3c b9 74 f4 3d
       0.013103847 0.0026317262 0.01390539 0.119363256
000320 cf 9b 69 3c cb 47 7a 3d d8 02 fb bb 85 cb b9 bd
       0.014258339 0.061103623 -0.007660251 -0.090720214
000330 bd 54 83 b8 0a a4 af bd f4 78 61 bc 47 be 90 3c
       -6.2623505e-05 -0.0857621 -0.013761748 0.017668856
000340 eb f4 7c bb b7 2e 41 bd b7 59 8d 3d 41 27 da bc
       -0.003859813 -0.04716369 0.069018774 -0.026630046
000350 19 b4 bc 3c 42 58 49 bd 73 3b 0a bc 68 ff 06 bd
       0.023035096 -0.049156435 -0.008437025 -0.032958418
000360 cd 18 2c be c7 2d f5 bb 2c 83 2a 3c 2c c6 65 3d
       -0.16806336 -0.0074822637 0.01040725 0.056097195
000370 49 e9 93 bc 3f 70 a1 bd 88 ea f9 3c 1a a9 88 3d
       -0.018055575 -0.07882737 0.030507341 0.066728786
000380 a6 33 eb bc 50 67 76 bd 13 72 51 3d 1d e3 b7 3d
       -0.028711151 -0.06015712 0.05113418 0.08978865
000390 d9 c5 af bd fd 7a 09 be 59 f8 0b 3e f4 5c 11 be
       -0.08582658 -0.13425823 0.13668956 -0.14195615
0003a0 5a b1 35 bc 7a d4 18 3e 2d 31 36 3e c0 99 72 3d
       -0.011089647 0.14924803 0.17792197 0.05922866
0003b0 c9 cb 1b bd b3 f6 5b 3d 67 08 b1 3b 6d d0 1d bd
       -0.03803614 0.053702068 0.005402613 -0.03852885
0003c0 c4 b4 3a 3c a1 58 f5 ba ef f6 c5 3d 50 79 ae bd
       0.011395637 -0.001871843 0.096662395 -0.08519232
0003d0 df 6b 66 bd 28 e6 fe 3c e2 69 46 bc 94 5b ba bd
       -0.056255218 0.031115606 -0.012110205 -0.090994984
0003e0 a3 2a b4 3b d4 c0 cd bd 5b b9 9f bb 4c 79 a8 3d
       0.0054982468 -0.10046545 -0.004874391 0.082262605
0003f0 52 57 1c be 69 ba 93 3d 50 d7 c9 3d 00 bd 90 3c
       -0.15267685 0.07213289 0.09855521 0.017668247

fc.weight f4 [2, 128]
000000 78 fd 44 be ee de 08 3e 86 cb b0 3d 7b c6 85 3e
       -0.19237316 0.13366291 0.08632569 0.2612799
000010 85 b0 d1 bd c2 bf ba 3e 8e 4b 3b 3e a8 e1 02 be
       -0.102387466 0.36474425 0.1829054 -0.12781394
000020 d9 7c 66 3e 34 02 ae be 61 38 9a 3e c0 b7 40 be
       0.22508563 -0.33986056 0.3012114 -0.18820095
000030 66 30 a6 3e d0 4d 01 3e b6 da f5 3c f0 a7 b8 bd
       0.324588 0.1262734 0.030011516 -0.090164065
000040 ad 91 7f 3e 38 9e 55 bc 62 d4 d6 3d 87 7a f9 3d
       0.24957915 -0.013038211 0.104897276 0.12181573
000050 aa 8e 96 3e 03 e2 eb 3d f2 94 c6 3c b7 5e 31 be
       0.2940572 0.11517718 0.024240945 -0.17321287
000060 58 a6 8b bd b9 7c 8a 3c c4 01 bc bd b2 b9 1a bd
       -0.06818837 0.016905176 -0.09180024 -0.03777475
000070 ec 04 2d be a1 f5 78 3d 13 cb 1c 3e 80 19 26 3e
       -0.16896409 0.060781125 0.15311842 0.16220665
000080 50 34 51 bd 93 86 00 bd 80 a0 f9 3c b6 eb 06 be
       -0.05107528 -0.03137834 0.03047204 -0.13175854
000090 7a f4 24 3e bb a7 8b bd c4 aa 0d 3e b8 a5 4e be
       0.16108885 -0.068191014 0.13834673 -0.20180404
0000a0 2a 32 05 3e e9 bb 80 bd 09 d3 be bd 39 bb d6 3d
       0.13007417 -0.06285841 -0.093175955 0.10484929
0000b0 2c c2 1e 3e cd ee 26 3e 79 24 43 3e dd 22 3b be
       0.15503758 0.16302033 0.19056882 -0.18275018
0000c0 ce dd e4 3c f6 67 a0 3e 4a 66 d9 3c 1c fe d3 3d
       0.027937796 0.31329316 0.026538033 0.10351202
0000d0 61 9f 7e 3e 8a 8a 90 bd d8 4b 00 be de 12 a4 3e
       0.24865486 -0.07057674 -0.12528932 0.32045645
0000e0 5b 15 94 bd f8 1c 7a 3d b8 e2 0d be 8f 7a c8 3d
       -0.07230636 0.061062783 -0.13856018 0.09789001
0000f0 bf d4 8b bd a2 0c 34 3b b3 37 6a 3e 07 77 aa be
       -0.068276875 0.002747335 0.2287281 -0.33293936
000100 ef e1 9f bd 6a fd 78 3e 0e e1 82 be 63 5d 8f be
       -0.07806765 0.2431542 -0.25562328 -0.28000936
000110 ab b8 03 be fc fb 00 be 05 bd 76 bd 9d ba 5e be
       -0.12863414 -0.12596124 -0.060238857 -0.21750875
000120 56 05 72 be cc b3 99 3d 25 df 61 bc 4c ed c6 3d
       -0.23634848 0.07504997 -0.013786112 0.097132295
000130 77 65 fa bd 8b 00 ac 3e e6 52 20 3e ac 97 f2 bb
       -0.12226384 0.33594164 0.15656623 -0.0074033346
000140 80 e1 93 bc 84 c6 99 3e 25 2e 5d be 41 ba b2 3e
       -0.018051863 0.30034268 -0.21599634 0.34907725
000150 5e 56 8c 3d 08 27 b1 3e 9e 3f c2 3d 9a 4c 73 3e
       0.06852411 0.3460009 0.0948479 0.2375969
000160 a6 5c 99 3e 45 e0 e3 bb 07 ed f9 bc 1f 52 ad be
       0.29953498 -0.0069542252 -0.030508531 -0.33851716
000170 06 55 a0 3d b0 e7 3f be 7b 47 01 3e dc ec 72 3d
       0.07828717 -0.18740726 0.12624924 0.059307918
000180 26 2f 1f be b6 cc 7b be c1 70 8a be 41 7a b0 be
       -0.1554533 -0.2458981 -0.2703915 -0.34468272
000190 f1 1d 41 3e f2 32 3f be a2 c3 2f bd e0 ed 01 bd
       0.18859078 -0.18671778 -0.04291118 -0.031720996
0001a0 9f a1 db 3d 45 ba 09 be 33 8c 6d be 9d c3 54 be
       0.10724186 -0.13449962 -0.23198013 -0.20777746
0001b0 f3 d4 45 3d e3 e0 68 3e 9b 9b 0d 3e 35 40 29 be
       0.048298787 0.22742037 0.1382889 -0.165284
0001c0 97 9d 99 bd 0f 09 d2 3d c1 5b 11 be 9e 18 eb bd
       -0.07500761 0.10255634 -0.14195158 -0.11479305
0001d0 ac 3e 86 bd 9c 8b 25 bb bc 4f 53 3e b6 8d c8 3a
       -0.065549225 -0.0025260216 0.20635885 0.0015301022
0001e0 62 0f 25 be 9f 7b 4a 3e ab 84 fb 3c 2c 3f 1f be
       -0.1611915 0.1977372 0.03070291 -0.15551442
0001f0 eb a4 bf bd e7 37 6d 3d b5 48 39 bd 67 67 5d be
       -0.093576275 0.05791464 -0.045235354 -0.21621476
000200 ef 7a 7d 3e f3 cf fa bd 95 69 89 3b 5d 6b 8b be
       0.24753927 -0.122466944 0.0041934946 -0.2723035
000210 27 93 0b 3e d9 38 83 be f7 ec 4a be 03 10 71 3d
       0.13630353 -0.2562931 -0.19816957 0.05885316
000220 1f ee dd bd ae 55 9c 3e 99 9b ae be 4c df 99 3e
       -0.108364336 0.30534118 -0.34103087 0.30053174
000230 e9 5f 94 be a5 ff 50 be 4a 56 2c be d1 42 27 3e
       -0.28979424 -0.2041002 -0.16829792 0.16334082
000240 bb 91 bb be 25 ae c7 bd a3 98 06 bd dd 71 b7 bc
       -0.3663462 -0.09750012 -0.03286041 -0.022393161
000250 b5 b8 79 be e4 41 54 3d de cc c9 bd 6d 57 88 3e
       -0.24386866 0.05182065 -0.098535284 0.266292
000260 e0 8d 4d 3e 66 fd 02 be ea 95 20 3b 48 1e a9 3d
       0.20073652 -0.12791976 0.0024503418 0.08257729
000270 75 df 28 3e c5 01 16 be f2 4b 61 bc 28 43 53 be
       0.16491492 -0.14649113 -0.013751017 -0.20631087
000280 ac 67 8f 3c 2c 69 10 3d 69 bc 02 be 6f 9a 00 3e
       0.01750549 0.03525655 -0.12767185 0.12558912
000290 6c 5b 4c bd 7b c9 21 bd 38 88 73 be 35 f0 9f 3d
       -0.049891874 -0.039498787 -0.23782432 0.07809488
0002a0 dd f4 02 be 36 dc f5 3d 40 88 d4 3d 17 ce 64 be
       -0.1278872 0.120048925 0.1037755 -0.22344242
0002b0 b7 35 0d be b2 15 3a be 3d 70 45 bd 5a 57 3a 3e
       -0.13790022 -0.18172339 -0.048202742 0.18197384
0002c0 50 9a 53 bd c6 70 8e be ec af 3e bd 48 24 16 3d
       -0.051660836 -0.27820414 -0.04655449 0.036655694
0002d0 85 f9 5f be 9e 21 d8 3d 88 c4 cd bb 8e 87 92 be
       -0.21872528 0.10553287 -0.006279532 -0.28619045
0002e0 73 47 99 3d 40 4e e6 bd 43 50 aa 3d 9e 8f 38 bd
       0.07484331 -0.11245394 0.0831609 -0.04505884
0002f0 9e c3 f4 3d 23 eb 1e bc d2 21 19 be 2b 00 a8 3e
       0.119513735 -0.009699616 -0.14954308 0.32812628
000300 43 68 98 3d 22 8a 46 be 0f 3a 59 3e b0 00 50 3e
       0.07441761 -0.19388631 0.21213554 0.20312762
000310 98 f6 a1 3d 76 5d 8c 3d 78 b6 32 bd 7b 2a 5c 3e
       0.07908362 0.06853764 -0.043631047 0.2150058
000320 a4 09 4f 3e d0 8a 7f 3d 3b 11 47 bc 79 04 b5 bd
       0.20218521 0.06238824 -0.012150104 -0.08838744
000330 a2 17 02 3d 06 b9 9d be 63 1d 16 be cb 2d 4a 3c
       0.03176082 -0.30805224 -0.14659648 0.012340019
000340 b7 ef d7 bc 7e 97 0b be 7a 0b 4c 3e 08 32 84 be
       -0.026359422 -0.13632008 0.19926253 -0.2581942
000350 0a ee 23 bc 4c 23 b3 be d1 35 a8 bd 27 92 1d be
       -0.010005483 -0.34987867 -0.0821339 -0.15387784
000360 02 17 4d be 79 8d 10 bc e0 0d be 3c d7 e9 84 3e
       -0.20028308 -0.008822792 0.023199975 0.25959656
000370 fd e0 24 bc 4c de 91 3e 0a 1c 13 be ae 4f 84 bd
       -0.010063407 0.28489912 -0.14366165 -0.0646051
000380 20 16 0a 3e 76 ee ba 3e bd de 59 3e 56 aa a7 3e
       0.13485003 0.36510056 0.21276374 0.32747144
000390 7c 22 80 bd 34 28 40 3e 06 7d f2 39 25 12 2d 3d
       -0.062565774 0.18765336 0.00046250987 0.042253632
0003a0 6e cb 28 3d 80 3c 30 3e 3d 5e 2d 3e 15 a9 93 3e
       0.04120963 0.17210579 0.1693048 0.28839937
0003b0 61 c3 01 be 9e 9a 9c be 78 7c 5f bd 5f 6c 15 3e
       -0.12672187 -0.30586714 -0.054562062 0.14592122
0003c0 5a e5 a0 3c a0 7f bc bd a8 07 84 3d 7f 14 06 3e
       0.019640613 -0.0920403 0.06446773 0.13093756
0003d0 5d 31 05 3d d4 e2 e0 bd 9d f8 27 be 2e a0 57 bd
       0.03251778 -0.10980764 -0.16403432 -0.052642994
0003e0 22 64 fb 3d 97 f4 fd bd 79 c0 07 bd 10 d8 04 3e
       0.12274958 -0.124001674 -0.03314254 0.12973046
0003f0 2e ac 47 3e 77 85 99 3d 50 17 20 3d e9 6d 52 3e
       0.19499275 0.074961595 0.039084733 0.2054974

fc.bias f4 [2]
000000 6a e4 1a be 88 2f bb 3d
       -0.15126196 0.09139925
