Models/cnn_lstm_model_stream_Nstream_0,81.pth (torch, 408328 bytes, 8 tensors)

conv1.weight f4 [64, 8, 3]
00000000: 75e9 82bd 1026 00be 6973 49be c551 5dbe
00000010: aaac 4bbe c891 43be 1f22 aabd 053e 9cbe
00000020: 02ea 423d 13cf cfbd f126 b53d b155 933e
00000030: 41d6 423e 2a03 693d de09 2b3b 0753 9abd
00000040: 8e5b dabb 31b5 a13e 1d13 87bd bbe1 ddbd
00000050: b639 3a3d f45f 89bd 60ab 863e 864d 4b3e
00000060: b64d 8b3d 0e9a 9ebd 10ee 893e 5fd8 513e
00000070: 8ab4 1dbc 41ec 443e b967 4f3e 5f97 323e
00000080: 5f0d 393d b31a 45bd de73 993c a954 de3d
00000090: 18f2 13be 0a67 69bd 2308 e33d 4142 193e
000000a0: 0857 363e ea69 283e 0e2b d8bd 525c ee3a
000000b0: 34c7 c5bd 6b93 5fbe b141 09bd da13 cf3b
000000c0: 83b7 4f3d 6337 6f3e f444 33be 0d0f 3c3e
000000d0: 64e6 0f3e 99f9 963d 1915 b23d e3e2 983e
000000e0: db29 973e 3d5b 773d 08ba 8d3d b7a5 e3bc
000000f0: 1412 27be a39a 2abe c528 133d 7331 613c
00000100: 82f3 e03b e328 f23d 25df 1a3c 331f 273d
00000110: 4ee8 2e3d 2451 47be c530 163d fc66 e5bd
00000120: 73e0 b3bd c6ff b0be 68dd 95be 1393 6fbe
00000130: 2f21 87be d209 933c 5e1e 3cbe fc78 6cbd
00000140: bc7d 873d 595b daba 5146 f73d 1309 513e
00000150: 91d9 37be c91d 2fbe 15ea bf3c a729 84bc
00000160: 3988 8a3d ce01 d13d fd15 fb3d 32f9 33be
00000170: 2949 1c3d abb3 19bd a4d2 72bd ec5d 043e
00000180: 7823 8a3d 9b38 89be 03a4 12be 0233 8bbc
00000190: 602b 6bbe 795e fc3d 947f cd3d 6538 0fbe
000001a0: f0f0 193e c325 12be a5a4 283d cc55 0cbe
000001b0: f4d6 a33d 4441 1fbe 856a afbd 6088 26bd
000001c0: 7c30 a6bd eb7a 0d3e 6fc2 043d 4746 303e
000001d0: 9ff2 54be 1a74 cc3d 52cb 19bb 10b6 b2bc
000001e0: a1f9 5b3e 6476 213d 70c2 073d 59b1 26bd
000001f0: ffa5 aebd 77f6 9ebe 4424 823a 4e0b eb3d
00000200: 9ab8 2fbe b53f 9d3e 72cb 8a3e c63a 953e
00000210: 862b b83d c8cb 23be d21c 9fbd 488f 78be
00000220: 879e 983c ed3c 09be 68ff 3f3e 2b45 653d
00000230: 4228 d6bd 5b9f 373e 9437 913e 057d d73c
00000240: 6e43 2abe d702 aabe c922 a2be d346 46be
00000250: 33f1 fbbc 31cf 4ebe 6b49 48be a04c ac3d
00000260: 46fc 47be e68c c13d 85ab c7bc 088e f53d
00000270: cb45 29be 4d8c 88be 0d5d b23d f971 3cbe
00000280: d32b d7bd 565c 24be 71a5 eb3b f6a8 55be
00000290: 157d 75ba 6e3a d0bb 45e1 353e fb8f b23d
000002a0: e3ec a6bc 2f98 3cbe 2303 9ebe 2284 89be
000002b0: 12cf c0be f3e8 25be 0f6a ad3b e323 d13d
000002c0: a2bb 23be 22a5 8d3e 92cc 8e3e b8de e83d
000002d0: e861 303d b96a b8bd 0ff0 0b3e dabf 0ebe
000002e0: 7712 bdba 0c5c 9fb8 643b 4d3d 2d56 6abe
000002f0: 1533 fabd bf8f 12bd ab8a 19bd 6dd0 7c3e
00000300: a760 03be 51be f3bd 1062 b33d 5dca 9e3d
00000310: f34c 9a3e 62bf 553e b992 11be d4ec 113d
00000320: 6365 333e d357 5a3e 8e21 273e cbcb 39bd
00000330: 38c0 96bd afb6 8bbe 6241 17be c00c 62be
00000340: efda 38bd 63a2 083b c0eb 993d 3d5e d13d
00000350: 74aa 783d 70a6 033e 635b c5bc a6a2 54be
00000360: a277 7ebd 8053 aa3e 1ea0 963d e080 ac3c
00000370: d5fb 75bd 6dd3 9dbd e6b4 0cbe bd95 30be
00000380: 718d e9bc b98f aebd 0844 7b3d de03 e3bd
00000390: c1e3 01bd 4391 5f3d ae54 303e dc2b 53bd
000003a0: 85eb 083e f8e6 323d 1e8a 2e3e 69ff a9bd
000003b0: 5e04 313d 6145 023d 2bc0 b23d 046c 373e
000003c0: a064 3f3b f8ec 1bbd e3e7 9ebe bb7c 823b
000003d0: f2b2 ebbb b05b 093e d0ca a23e bf5b e83c
000003e0: b173 183d f927 06be 33c2 6bbd 5300 6c3e
000003f0: dafb 8ebe f115 0a3e 02e7 cdbc 0eb8 073e
-0.06392185 -0.1251452 -0.19672932 -0.21613224 -0.19890085 -0.1909858 -0.08307289 -0.30516067
0.04758645 -0.10146918 0.08845318 0.28776315 0.19027044 0.056887783 0.002609841 -0.075353675
-0.006663746 0.3158355 -0.065954424 -0.1083407 0.045465194 -0.06707755 0.26302624 0.19853792
0.068019316 -0.07744227 0.2693944 0.20492695 -0.009625563 0.19230749 0.20254411 0.17440556
0.045178767 -0.048121165 0.018732008 0.108559914 -0.1444782 -0.05698303 0.11085536 0.1496668
0.17806637 0.16446653 -0.10555087 0.0018185473 -0.096571356 -0.21833579 -0.033509914 0.006319505
0.05071212 0.23360972 -0.17506772 0.18365116 0.14052731 0.07371826 0.0869543 0.298606
0.2952412 0.060389746 0.06920248 -0.02778898 -0.1631549 -0.16660552 0.035927553 0.0137447
0.006864966 0.11824205 0.009452616 0.04080124 0.04270201 -0.19464546 0.036667604 -0.11201283
-0.08783045 -0.3457014 -0.29270482 -0.23395948 -0.26392505 0.017949019 -0.18370959 -0.057732567
0.06615779 -0.0016659304 0.12073959 0.20413618 -0.17954089 -0.17101206 0.023427049 -0.016133143
0.06764264 0.10205422 0.12260053 -0.17575529 0.03815571 -0.03752486 -0.059282914 0.12926453
0.067450464 -0.26801 -0.14320378 -0.016992096 -0.22965765 0.12322707 0.10034099 -0.13986357
0.15033317 -0.14272217 0.041172642 -0.13704604 0.079999834 -0.1555224 -0.08565239 -0.0406574
-0.081147164 0.1381642 0.03241199 0.17214309 -0.20795678 0.09983082 -0.0023467136 -0.02181533
0.21481945 0.039419547 0.033144414 -0.040696476 -0.08527755 -0.31047413 0.0009929021 0.114767656
-0.17160264 0.30712667 0.2710834 0.29146403 0.089926764 -0.15995705 -0.07769169 -0.24273407
0.01863028 -0.13402148 0.18749774 0.055974167 -0.10456897 0.17931883 0.28362715 0.026304731
-0.16627285 -0.33205292 -0.31667164 -0.19362955 -0.030754661 -0.20196225 -0.19559257 0.084130526
-0.19529828 0.09450702 -0.02437378 0.11989981 -0.1653053 -0.2666954 0.08709154 -0.18402852
-0.10506406 -0.16050848 0.007191353 -0.20865235 -0.0009364647 -0.0063546216 0.17761715 0.08718868
-0.020376628 -0.18417428 -0.30861768 -0.26858622 -0.37657982 -0.16202144 0.005292184 0.10211923
-0.15989545 0.2766505 0.2789045 0.11370605 0.04306212 -0.09004731 0.13665794 -0.13940373
-0.0014425059 -7.598856e-05 0.050105467 -0.22884436 -0.122167744 -0.03578162 -0.03748576 0.24688883
-0.12829839 -0.11901534 0.08758938 0.077534415 0.30136833 0.20873788 -0.14216127 0.035626248
0.17519145 0.21322565 0.16321394 -0.045360368 -0.073608816 -0.27287814 -0.14771035 -0.22075176
-0.045130666 0.0020848743 0.07515669 0.10223053 0.06070943 0.1285646 -0.024091428 -0.2076517
-0.06212581 0.3326683 0.07354759 0.021057546 -0.06005462 -0.07706342 -0.13740882 -0.1724462
-0.028509827 -0.08523507 0.061344177 -0.11084722 -0.031711344 0.05458189 0.17219803 -0.0515555
0.13371094 0.0436773 0.17044875 -0.08300669 0.043217055 0.031804446 0.087280594 0.17912298
0.0029204264 -0.038067788 -0.3103629 0.003982154 -0.007192963 0.13413882 0.3179536 0.02836406
0.037219707 -0.13101186 -0.05755825 0.23046999 -0.27926522 0.13484932 -0.025134567 0.13253805

conv1.bias f4 [64]
00000000: 79fd 1f3e b8e1 0a3e 81d6 2dbd f5bb 05be
00000010: b978 a03c 7b34 c7bc 6285 4e3e 53d5 873d
00000020: b6b8 1fbe 01aa 193e c4fb 813c 21f9 46be
00000030: 791e 66bc d162 7dbd 0715 6cbe 9152 f3bd
00000040: c9f9 d7bd d537 3fbc f8f9 f23d d9dd 13be
00000050: f872 983d d302 433e 3298 853d e692 93bd
00000060: 41ad 573e 5428 1dbe 4b0b 8f3d 7865 14be
00000070: 17a1 543d db66 d53c 2565 74be 8fde f5bd
00000080: 441f 8ebd 4b4f 9abd 1c60 55be 7767 e8bd
00000090: ac75 bb3d bedc 373c ef46 113d 06e3 7dbc
000000a0: e0e8 9d3c 4982 b3bd 5b28 373e d101 86bb
000000b0: 4286 e9bd 2891 c43d 8676 353d c754 85be
000000c0: bcb6 a83d dea5 a9bc 7496 723d 24e3 f73d
000000d0: 74ea c9bd 63f4 873d 49d7 243d 680b f73b
000000e0: e556 0abb d1a3 57bb c3f0 a33c f6ac 243d
000000f0: f0c5 a23d 039d 013e 3d7c 7b3c 2699 44bc
0.15624036 0.13562667 -0.042440895 -0.13059981 0.019588815 -0.024317017 0.20168069 0.06632485
-0.15597805 0.15006258 0.015867122 -0.19430973 -0.014045351 -0.061861817 -0.23054896 -0.11880983
-0.105456896 -0.011671026 0.11864084 -0.14440097 0.074438035 0.19044046 0.065231696 -0.07205753
0.21062185 -0.15347415 0.06984576 -0.14491832 0.05191144 0.026050022 -0.23866709 -0.1200534
-0.06939557 -0.07534655 -0.20837444 -0.11347859 0.091533035 0.011222063 0.03546804 -0.015496021
0.019276083 -0.08765084 0.17886488 -0.004089572 -0.11402561 0.09597999 0.044302486 -0.26041242
0.08237979 -0.020708974 0.059225515 0.121038705 -0.098591715 0.0663841 0.040244374 0.0075392015
-0.0021108922 -0.0032904039 0.020012265 0.04020401 0.0794791 0.12657551 0.015349445 -0.011999404

lstm.weight_ih_l0 f4 [512, 64]
00000000: 0c28 67bc e966 3ebd deda 7fbd a365 c43d
00000010: dded c0bd 2c8f 813b 4cd2 b9bd c032 bf3c
00000020: 95ca 623d e247 bbbc f472 153b 6005 b13d
00000030: 8db8 45bd fd2f 3a3d 275b fdbd 1073 273d
00000040: f814 0abe caf2 003d 174c 8fbd 280a 4bbd
00000050: defb 51be de4b 5ebe cd15 debd b843 b2bd
00000060: 6bbc bfbc 0176 1cbe e5c9 443e 3004 c3bd
00000070: dfce 56bd aff9 b93d 108b 243e 7d3d 0bbe
00000080: ae3e 23bd ef20 1bbd 23ac 60bc 1a83 5abd
00000090: 086a ab3c a912 4cbd 1c3d 21bd 11e3 23be
000000a0: df81 9ebd cc8f c03d 4b99 76bd 9b5a d2bc
000000b0: 00ea 17bd 95ae e6bd d343 73be e89c 6d3d
000000c0: de6e fe3c 18bf afbd c7db f6bc 0b92 6f3a
000000d0: 071e e0bd d690 cdbd 8266 f8bd bec8 bb3d
000000e0: ea22 04be 37de 853c 1089 e43d aa33 293d
000000f0: 89d4 c3bd 161b 3bbe 6427 49bd 436e f5bd
00000100: 94bd d23b c659 21be 6743 98bd dfe4 8b3d
00000110: 4b62 b93d d959 263e 272c b93d 7e80 75bd
00000120: e395 c3bd 17e7 df3c 2318 6abd 1b04 063e
00000130: 3f88 dabb 1d8c a73e 0334 013d 92bb c53c
00000140: 92b9 b3bd 9ade e43d 238d 0abe ae57 c9bd
00000150: c995 cabd 7d5a 4cbd 24b9 a63d fec4 07bd
00000160: c962 243e 38be dbbc e657 8a3e 46dc 133e
00000170: 97ac 4c3d d247 383e 9ec1 1e3e b3ef fcbd
00000180: d249 f43c e850 88bd 3d75 2fbd 8a8b 4fbe
00000190: 7b45 543d b5c5 57bd 8bf4 fb3d 705a 06be
000001a0: e923 55bd c27c 7f3d 7235 943a f5e8 283e
000001b0: 5b5b 82be 7929 67be 3a62 83be 4bd8 dc3d
000001c0: dbb4 ab3d 7c61 b43d ea6e 2bbe 0096 2c3e
000001d0: 3531 523e b203 83bd bdef 25bd 3808 903d
000001e0: 0551 363d f514 613d daac 883d 857c 64bd
000001f0: 38c0 a03c be7e a9bd 2292 9f3d aae4 44bd
00000200: db11 d5bd 3dd4 adbc 7118 793e a41b 29be
00000210: 1133 a23d 7bd6 a6bd 6826 13be 3fb0 b5bc
00000220: 5523 3b3c 2596 f2bd 6d98 6a3d f7fc 00bd
00000230: 6506 e2bd cc16 83be 0964 0bbd fb5d 8fbd
00000240: 6c17 c13d 539a 88bd c279 ecbc 803c 24bd
00000250: 8027 053d adf3 133d 0d12 42bc 9cd8 803d
00000260: 3e6c 28bd 6873 bbbd 0ba0 a7be 5f7a 84be
00000270: 1e96 41bd 9dd4 49be b723 84be 07f4 493d
00000280: bbac 033d e9a0 d6bd c669 6f3e 61ba 94bd
00000290: 5f2e b53b 6c5f f9bd 3240 323d b247 27bd
000002a0: d941 b6bd c2a6 39be 303c 83bc edec e7bc
000002b0: 5eda 61bd 48e8 023e c197 493d 500b afbc
000002c0: b354 0a39 c3fb 1fbe 9689 f13d d166 a3bd
000002d0: 971e 5dbe 291e 25bd be02 6abc 7b52 23bd
000002e0: ea23 ebba 29ce 983d 252f 9a3d 8109 113d
000002f0: c925 f6bd fd92 b6bc c0e9 33bd a02f 43bc
00000300: b8e6 0b3e 75dd 943c 347e f73c 8edc d33d
00000310: db0c fdbc 5c6a e9bd 500d a2bc 5aeb 833d
00000320: ddd3 ed3d 0520 7a3d c9d6 0d3e 66ce c73d
00000330: e436 223e 15ad cdbc 9d25 2c3e fce6 283e
00000340: 0b41 fa3d f5f6 083d 4574 253d 3f5a d63c
00000350: 733b a3bb 1747 9a3d 8f02 3b3d d56a 913d
00000360: 6e48 8a3d 5775 a93d 59d2 463d 2e7c 81bb
00000370: 62b9 483c 9807 aa3d b45e e33d 58f1 0d3e
00000380: cbc9 af3d 5dfa c7bd 684a c9bd 5ab0 f03d
00000390: 67d8 bf3d 4dc3 033e 2904 6c3e 1b7a 7b3d
000003a0: 379f e43d e5c3 113d 1e86 2fbc e16b c23c
000003b0: ed83 ee39 d672 67bd 55ed c9bc e7c7 24bd
000003c0: def0 083e d87e 263e 9e43 f6bc d109 2c3e
000003d0: 4f8d 483e f879 863d 8b2c c03c 57ed 94bc
000003e0: 781f 2d3d a9d5 2abd 621f 193e 3a73 62bd
000003f0: 5fe8 44bc 70aa 0d3c a043 aa3d 2250 1abc
-0.014108669 -0.04648486 -0.062464587 0.09589698 -0.09420369 0.003953835 -0.09073314 0.02333963
0.05536898 -0.022861425 0.0022804113 0.08643603 -0.048271704 0.04545592 -0.123709016 0.040881217
-0.13484561 0.03148154 -0.06996935 -0.049570233 -0.20506236 -0.21708629 -0.10844002 -0.087043226
-0.023405274 -0.1527939 0.19217642 -0.09522283 -0.05244338 0.090808265 0.16068673 -0.13597675
-0.039854698 -0.037873205 -0.013712916 -0.053347684 0.020924583 -0.049822483 -0.03936492 -0.16004588
-0.07739615 0.09402427 -0.060204785 -0.02567797 -0.037088394 -0.11263768 -0.23756342 0.058010966
0.031058725 -0.0858137 -0.030134095 0.00091388886 -0.10943227 -0.10037391 -0.12128927 0.09169148
-0.12903944 0.016341312 0.11158955 0.041309036 -0.09562022 -0.18272051 -0.04910983 -0.119839214
0.006431291 -0.15756902 -0.07434731 0.06830763 0.09051951 0.16245212 0.090416245 -0.059936993
-0.09550073 0.027331872 -0.057151925 0.13087504 -0.006669074 0.32724085 0.031543743 0.024137292
-0.08775629 0.111752704 -0.13530402 -0.09831177 -0.098918505 -0.049890984 0.081407815 -0.03314685
0.16053309 -0.026824102 0.27020186 0.14439496 0.049969282 0.17996147 0.15503547 -0.123504065
0.029820357 -0.06656057 -0.042836417 -0.20268074 0.051824074 -0.052678782 0.12302502 -0.13120437
-0.0520362 0.062374838 0.0011307432 0.16495116 -0.25460324 -0.22574414 -0.25660878 0.10783442
0.08384105 0.08807656 -0.16741529 0.16854095 0.20526583 -0.06397189 -0.040511835 0.070328176
0.04451086 0.054951627 0.06673594 -0.055782814 0.019622907 -0.08276127 0.077915445 -0.048069634
-0.10403796 -0.021219367 0.2432573 -0.1651445 0.079198964 -0.08146378 -0.1437012 -0.022178767
0.011421998 -0.11845044 0.05727427 -0.031491246 -0.11036376 -0.2560333 -0.034030948 -0.07000347
0.094282955 -0.0667006 -0.028866652 -0.04009676 0.032508373 0.03612106 -0.011845124 0.06291315
-0.041118853 -0.09152871 -0.3273929 -0.25874612 -0.047262304 -0.19710012 -0.25808498 0.04930499
0.03214715 -0.1047991 0.23380193 -0.072621115 0.0055292095 -0.121764034 0.043518253 -0.04083986
-0.08899278 -0.1813002 -0.01601991 -0.028311217 -0.05513989 0.12783921 0.04921699 -0.021367699
0.00013192258 -0.15623383 0.117938206 -0.07978595 -0.215937 -0.040311966 -0.01428288 -0.03987358
-0.001793978 0.07461197 0.07528523 0.035409454 -0.12018926 -0.022286886 -0.043924093 -0.01191321
0.13662231 0.018172005 0.030211546 0.10344802 -0.030889919 -0.113972396 -0.019781739 0.06441374
0.11612675 0.061065692 0.13851465 0.09756164 0.15841252 -0.025106946 0.16811223 0.16494364
0.12219437 0.03343864 0.040394086 0.02616608 -0.004981452 0.075330906 0.045656737 0.07100455
0.06752096 0.08274334 0.048540447 -0.003951571 0.01225123 0.0830223 0.111020476 0.13861597
0.08583411 -0.0976455 -0.09828645 0.117523864 0.09367447 0.1286747 0.23048462 0.061395746
0.1116318 0.03558721 -0.010713128 0.023733081 0.0004549319 -0.056506 -0.024649302 -0.040229704
0.13373134 0.16259325 -0.03006154 0.1680062 0.19585155 0.065662324 0.02345874 -0.018179579
0.04226634 -0.04170767 0.14953378 -0.05528567 -0.012018292 0.0086465925 0.0831368 -0.009418519

lstm.weight_hh_l0 f4 [512, 128]
00000000: 1a15 4bbd 0d8d 7a3c 2087 9abd 61e8 803d
00000010: 838e 24be f351 3dbd f76d 1c3e 1f10 2bbd
00000020: df94 1fbe 2f0e 7abc a2e6 04be 426c 8ebd
00000030: 2072 25be 293c cc3d b839 bcbd 4844 073e
00000040: 60e3 873c d36b a33b d0e9 0c3c 6dfd 0b3b
00000050: e6c0 3dbe c6ed 33be 416f 183e 6e4d 593d
00000060: 02b6 233d 1f1b aebd 20d0 f43d 7e0e a9bc
00000070: 79d9 06bd 6c71 dabd 208f 9bbc 738b f83a
00000080: cee5 dcbd 31c3 df3d 37c2 06be d4c9 9e3d
00000090: faac 3d3d d787 c0bd aa25 fc3b 2f0f 593e
000000a0: 0ddd 083e 37e1 3fbe bc36 3bbd 52f2 3ebd
000000b0: 0e38 9b3a 856a 07be 1bf9 b03d 75a8 fc3c
000000c0: a054 9f3c 9e5d 173d 4e19 7bbd 997c 03bd
000000d0: f69e cf3c 1d04 353d 5672 0fbe e81b abbc
000000e0: 672a 3dbe c942 8e3d d627 3ebe 2a36 c43d
000000f0: bbc8 69bc 2948 29bd db57 cd3c 35d6 0a3e
00000100: 78f7 1ebd f0b4 243e 045e 8a3d 27cc e9bc
00000110: 1a96 683d 3b5e d03d 72c3 753d fb26 063e
00000120: ee4f e8bd 59fa 12be 5e87 9abd eaae 1e3e
00000130: b657 b73b 4b3b c9bc 313c 07be 0a84 923b
00000140: d42a 61bd dd8b 05bd e16c ca3d b4fa 89bd
00000150: acbb 65bc c884 50bd 0e85 fc3d 3dd1 393d
00000160: 1463 823d 7f0d 27bd a34b 703c 9706 3bbd
00000170: 1c0e 07be fad7 463e 705d 243e a387 9dbc
00000180: 1b48 d3bc 132c b1bd 4292 96bd 5ec3 d63d
00000190: 408b d7bb 71b2 ddbc e2e6 9f3d 9daf 793d
000001a0: ed19 10be 6b07 b9bd a10c 393d f9a9 d9bc
000001b0: 686d d0bc 748d c93d a61a b93d be44 1fbd
000001c0: fc98 8f3d 7581 dd3d df29 2a3e a963 983d
000001d0: 426b 0ebe 5828 293d c9b3 b53d 8a93 97bd
000001e0: d05e 53bd b65c b23d 386f 97bd 5ecf 4a3e
000001f0: 1387 6bbd 4373 dc3d 7536 123e 4f75 413d
00000200: 8ace d63d 3e17 20bc 9be0 e73d a490 d23c
00000210: a9bf 923e f658 99bc a811 4bbd ab2c c6bd
00000220: c61d d03d 8d79 83bd bb79 2cbd 55aa a63d
00000230: 75bc 91bd 9d45 1d3b 6df8 74bc fd4c 96bd
00000240: fe27 113e 9b79 a93b c19d 88bd 258e 8f3d
00000250: e157 483d db21 b03d 5631 88bd a179 8fbd
00000260: 0539 0d3d a0ca 3d3d 2dc4 70bd ddbe 413e
00000270: 0b35 283c dbd0 113e 3afb a6bc 5ed6 373d
00000280: 2380 d43d 3e37 91bd d12f 4a3e c5a8 e73d
00000290: 1dce 2bbd 1433 8ebc 7d70 653c b45f a6bd
000002a0: 337f 3ebe 4337 273d 7544 b63d 4917 e9bb
000002b0: 402b c83d 26e3 253d aaa2 52be 9eda 06be
000002c0: 651f 61bd 44c4 2bbe da2b 1e3e a2a7 1bbd
000002d0: 7778 5e3d 1a17 493d a498 113e e3f0 93bd
000002e0: d3bf 0d3d 5cd4 88bd 8bd3 5e3d d4e1 03be
000002f0: 9128 a03c b4fe 823d 1111 e43d 9bd1 f3bd
00000300: 0edc 6a3c 11b4 51be 07f1 22be 75fd debc
00000310: 563d c03d 0c52 223d a6eb 58bd d81d d7bd
00000320: 18aa 56bd a8f6 473e a306 9a3d 1b27 23be
00000330: dfe5 c8bc ccbd d1bc 0510 ab3c d5c9 9fbd
00000340: d3a2 fe3d e643 5b3d 8563 3fbc 3193 083e
00000350: e26a 8dbd 7b68 f4bd a6f8 16be d94b 57bd
00000360: e2bd 92bd 3072 de3d 2f10 1fbe ac44 02bd
00000370: b0a8 823e 9816 16be 4a13 8c3d aaaf b8bd
00000380: 800c 03bd 724b 493e 898f 5a3c 8912 f4bd
00000390: 9b59 9b3d 6e26 363e 662a d4bc 130e 86bd
000003a0: 26b3 053d d8d7 43bd ca38 98bc 50fa 9a3d
000003b0: cc4f 69bd 14d8 62bd 23c1 ecbd abb1 e1bd
000003c0: cb6c 50be 589d a8ba 33d8 3dbe e13f 423d
000003d0: 2b74 803c 46ef 9ebc 78d4 5abc dabe 843c
000003e0: 021e 9dbe 010e 84bc da30 d1bb 78e8 253e
000003f0: 2491 843c 9eb9 0cbe 5a41 dcbd 6627 723d
-0.04958067 0.015292418 -0.07545304 0.06294323 -0.16069989 -0.04622073 0.15276323 -0.04176342
-0.15584134 -0.015262171 -0.12978604 -0.06954242 -0.16156816 0.09972412 -0.091906965 0.13209641
0.016587913 0.004987219 0.008600667 0.002136077 -0.18530616 -0.17571172 0.1488619 0.05305236
0.039968498 -0.08501267 0.11953759 -0.020636793 -0.03292224 -0.10666165 -0.018989146 0.0018962458
-0.10786019 0.10925902 -0.13160025 0.077533394 0.04630754 -0.094009094 0.0076949196 0.21197198
0.13365574 -0.18738256 -0.045706496 -0.046617813 0.0011842267 -0.13224228 0.08641263 0.030842045
0.019449532 0.036954515 -0.06130343 -0.032101247 0.025344353 0.044193376 -0.1400846 -0.02088733
-0.18473206 0.06946332 -0.18569884 0.095806435 -0.014269049 -0.041328583 0.025066307 0.13558276
-0.038810223 0.16084647 0.06756213 -0.02853973 0.056783773 0.10174223 0.060000844 0.13100807
-0.113433704 -0.14353313 -0.075453505 0.15496412 0.0055951728 -0.024564406 -0.13206555 0.0044713067
-0.054972485 -0.032604087 0.09884048 -0.06737271 -0.014021795 -0.05090788 0.12330066 0.04536556
0.06366554 -0.040784355 0.014666471 -0.04566058 -0.13188976 0.19418326 0.16051269 -0.019229716
-0.025791219 -0.086509846 -0.07352115 0.10486482 -0.006577879 -0.027062627 0.07807709 0.060958494
-0.1407239 -0.09034618 0.04517806 -0.026570307 -0.025442794 0.09841433 0.09038286 -0.038883917
0.07011601 0.108157076 0.16617535 0.07440884 -0.13908103 0.04129824 0.08872182 -0.07401188
-0.051604092 0.087090895 -0.0739426 0.19805667 -0.057501864 0.10764172 0.14278586 0.047231015
0.10488613 -0.009771166 0.11322137 0.025703736 0.2866185 -0.018719178 -0.049577385 -0.096764885
0.10161929 -0.06419668 -0.04210828 0.08137957 -0.071160235 0.0023997792 -0.014951807 -0.07338903
0.14175412 0.005171967 -0.06670714 0.07009534 0.048911933 0.086002074 -0.06650035 -0.07005621
0.034478206 0.046335816 -0.058780838 0.18920465 0.010266553 0.14239828 -0.020383466 0.04488217
0.10376003 -0.07090615 0.19744803 0.11311487 -0.04194461 -0.01735834 0.01400387 -0.08123723
-0.1860321 0.040824186 0.08899776 -0.0071133715 0.09773874 0.04049983 -0.20569864 -0.13169333
-0.05496158 -0.16774088 0.15446416 -0.038001664 0.054314103 0.049094297 0.14218384 -0.0722368
0.034606766 -0.06681129 0.05440096 -0.12879115 0.019550594 0.06396237 0.11136068 -0.119052134
0.014334692 -0.20478846 -0.15912257 -0.027220467 0.09386699 0.039629027 -0.052959107 -0.10503739
-0.052408308 0.19527686 0.07520797 -0.15932886 -0.024523674 -0.025603198 0.020881662 -0.07802168
0.124334 0.05353155 -0.011681442 0.13337399 -0.06905152 -0.119339906 -0.1474329 -0.05256257
-0.071651235 0.10861623 -0.15533517 -0.03180377 0.25519323 -0.14657056 0.068396166 -0.0901788
-0.031994343 0.19657686 0.0133398855 -0.11917598 0.0758545 0.17788097 -0.025899123 -0.06545653
0.032641552 -0.047813267 -0.018581767 0.075672746 -0.056960866 -0.05538185 -0.115602754 -0.110202156
-0.20354001 -0.0012864275 -0.18539505 0.0474242 0.015680393 -0.019401204 -0.013356321 0.016204286
-0.30686957 -0.016119959 -0.0063839974 0.16201961 0.01618249 -0.13742682 -0.10754652 0.059119605

lstm.bias_ih_l0 f4 [512]
00000000: 5f55 80bd 4898 083b d5ca ec39 d386 a33d
00000010: 6dd9 91bd 4760 353c e8d6 01bd fb2c 32bc
00000020: 8766 73bc 128d 77bd 2d7f 01be 7dc3 d5bb
00000030: b431 0fbd 1a12 27be d0b0 2bbd 7c00 c03d
00000040: a0db 0cbe 11a5 82bd a399 55bd e3ff f9bd
00000050: b508 293d 0fc3 1cbd 3171 7ebd 63f1 38bd
00000060: 2faa 37bd 7dff a1bd ea4b a4bd f578 2ebe
00000070: ece0 27bd 73b0 dcba c3b1 623c a81d 6cbd
00000080: f44e c2bc f6aa 19bd 35da fcbd 54a6 c3bc
00000090: c4ad d8ba 3064 28bd ae17 3bbe e20d 39bd
000000a0: e48f 7ebc 98ec 663d cfa4 063c cf78 06bc
000000b0: b06a 9dbd 83ce e13c 16fb 4bbe 98a2 a0bd
000000c0: f20d aebd 79de 543d 1179 eb3c e054 8d3d
000000d0: b253 ef3c 535a 21be e4d7 b5bd a230 83bd
000000e0: 5e0b f2bd 853d 0dbe 9f16 d6bd 7fb1 3cbd
000000f0: 038a acbd 770e a43d 20f5 d8bd 53a7 10be
00000100: 55cd 6a3c 9140 d2bc 9b00 293d eef4 243c
00000110: 20ae aebc 04f5 fa3c b568 dfbd 2cb6 aa3a
00000120: e21c 71bb 85a0 993d f5a1 60bd fe3f 873c
00000130: 099b 74bd 1791 27bd 77ee 6d3d 71c0 17be
00000140: 0326 cd3d 76e8 ecbc 5f64 d73d c87d c13c
00000150: a276 65bb 7c69 d63c 2b7d 9ebd 4e4a ecbb
00000160: 2432 953d 3399 dbbd 5834 3f3a 35d8 3ebd
00000170: 04c4 efbd 590d 74bd 5959 cc3d 9780 cebd
00000180: df35 bebc 7d47 24bc 5a67 f7bc 5c9b 11be
00000190: 9a85 d0bd a9bf b4bd 2f18 14bd 6175 24bd
000001a0: b91a f0bd e361 503d 67de 6ebe 9c55 db3c
000001b0: d74d a8bd d090 d13c 6908 d2bd 3dde 5dbd
000001c0: 784d 35bc 7a1b f5bc 72f0 d2bd 2d04 dabd
000001d0: e5ef aebd 90ae 2abd 3f9d 27bd 8919 a53d
000001e0: f122 adbd 34e6 9bbc 70d6 513d 97a6 a8bd
000001f0: 17bd bbbb c990 93bd b440 933c 906e febc
00000200: cee0 3abd b2f2 ba3d 6a85 7c3d 22b6 103e
00000210: 127c 473e d6e8 6c3d 49aa cdbd f2db 513d
00000220: c690 04bd eed8 393c c2cf aabd 5da0 2bbd
00000230: 2591 173d 597f 4abd bd29 f63b 4689 663d
00000240: f432 01bc dfc0 5a3e 0303 f33c c962 803e
00000250: bf2b 833b a633 743d 0bd4 bb3d 399f 12be
00000260: f954 4f3d 861f 01be dc4a 723d fd10 24bc
00000270: 5f0f 91bd d104 ea3d 940b 7bbd 69ae 04bd
00000280: 79ce f33d dc53 c1bd f9ea 7e3d a326 e0bd
00000290: 64c5 79bd dbef c23c 4a00 20be 5988 ce3d
000002a0: 3cd8 283d 2d7f adbc 856b f4bd 9191 e0bd
000002b0: 76b2 9d3c bc4a 16be 2f45 28bd 7f09 71bd
000002c0: 7c0e 10be d34d 973a 2aa4 b23d f607 c5bc
000002d0: 10ad 4fbd 0509 bcbd 2b34 b9bd 5c09 983b
000002e0: d026 aabd 62a6 25be 71ca acbd 03a7 5a3c
000002f0: 3c2e 7abd f1a3 a4bb 1da0 053d 7fc7 173e
00000300: 55e2 9d3d 225f 4c3e 9a50 aabd deef 70bd
00000310: b0cc 383d 07da 983c 3728 05bd 3206 aabd
00000320: 7049 85bc 0c4c ed3d 4db8 9a3c 131d bfba
00000330: 5e41 3cbd 5184 5a3d 0c56 7ebd 3de3 13bc
00000340: 0ca9 113d fbe5 e53c d212 98bd 0689 613d
00000350: 1d39 09be 9fed 583c 463d a5bd 3d2b 823d
00000360: 7ef6 143e 94b8 33bd 5544 f2bd f384 053e
00000370: 3fd1 b6bd 6256 9cbc 3e54 483e 3614 a9bd
00000380: 2b03 02bd 72ef 49bd 4e9d 57bd 1b50 b33d
00000390: 7138 063d 9647 153e 71c0 bfbc ed5c babd
000003a0: 40a2 61bd 1c06 2b3d ecd5 1cbd 7b75 7dbd
000003b0: ed18 c3bd 41ad 943d 8074 fc3c ef3f 7fbd
000003c0: dfb4 bebd 77ad 0cbd 3f56 763c 72e4 dfbd
000003d0: 5a32 37be 4ab5 8cbc c852 08bd 917b 3cbe
000003e0: 0bdc 213e 97a5 78bd 4f8e 33be e535 393d
000003f0: 8374 993d 7e89 ce3d 6a98 c2bd 507f b03c
-0.06266283 0.002084272 0.0004516455 0.079847 -0.07121549 0.011070318 -0.03169909 -0.010874982
-0.014855987 -0.06043727 -0.1264617 -0.006523548 -0.03495951 -0.16315499 -0.04191667 0.093750924
-0.13755655 -0.0637914 -0.052148473 -0.1220701 0.04126807 -0.03827196 -0.062119666 -0.04515208
-0.044840034 -0.07910059 -0.08022292 -0.17038329 -0.040985987 -0.0016837254 0.013836327 -0.05764547
-0.023719288 -0.037516557 -0.12346307 -0.023883022 -0.0016531278 -0.04111117 -0.18270752 -0.045179255
-0.015537236 0.056377977 0.008218004 -0.008207514 -0.07686365 0.027564293 -0.1992 -0.07843512
-0.084987536 0.05196998 0.028744252 0.06900954 0.029214714 -0.15757112 -0.088790685 -0.0640576
-0.11818574 -0.13792999 -0.104535334 -0.04606771 -0.08424761 0.080105714 -0.10593629 -0.14126329
0.0143311815 -0.025665553 0.041260343 0.010068161 -0.021323264 0.03063441 -0.10908643 0.0013024262
-0.0036790897 0.0750132 -0.054841954 0.016510006 -0.059718166 -0.040909853 0.058088746 -0.14819504
0.10017016 -0.02891944 0.10517191 0.023619547 -0.0035013338 0.026173346 -0.07738718 -0.0072110062
0.07284954 -0.1072258 0.00072938716 -0.04659291 -0.11707309 -0.05958304 0.09977979 -0.1008312
-0.023219047 -0.01002681 -0.030200649 -0.14219421 -0.101817325 -0.08825619 -0.036155876 -0.040151004
-0.11723847 0.050874602 -0.23327027 0.02677422 -0.08217972 0.025581747 -0.1025551 -0.05416702
-0.011065833 -0.029920328 -0.102997676 -0.10645328 -0.0854185 -0.041670382 -0.040921446 0.08061511
-0.0845393 -0.019030668 0.051229894 -0.082348995 -0.0057293284 -0.0720535 0.017975189 -0.03105858
-0.045624547 0.09128322 0.06165067 0.14131978 0.19480923 0.057839237 -0.10042245 0.051235147
-0.03236463 0.011343224 -0.08340408 -0.04190098 0.037003655 -0.049437854 0.0075123 0.056283258
-0.007885683 0.21362637 0.029664522 0.25075367 0.0040030177 0.05961957 0.09171303 -0.14318551
0.050618146 -0.12609681 0.059153423 -0.010013816 -0.0708301 0.114267 -0.06129034 -0.032392893
0.11904616 -0.09439823 0.062235806 -0.10944869 -0.060979262 0.023796013 -0.1562511 0.100846
0.041221842 -0.021178806 -0.1193457 -0.109652646 0.019250136 -0.14676946 -0.041081604 -0.058846947
-0.14068025 0.0011543579 0.08722718 -0.024051648 -0.050702155 -0.09181408 -0.090431534 0.0046397876
-0.08308184 -0.16176751 -0.0843705 0.013345483 -0.06107925 -0.005024426 0.0326234 0.14822195
0.07709185 0.19958165 -0.08316155 -0.058822505 0.04511708 0.018658651 -0.032509055 -0.08301963
-0.01627037 0.115867704 0.01888671 -0.0014580808 -0.045960777 0.053348843 -0.06209378 -0.009026346
0.035561606 0.028063765 -0.07425465 0.055062316 -0.13400693 0.013240247 -0.080683276 0.06355903
0.14547154 -0.0438772 -0.118294396 0.13038997 -0.08926629 -0.01908416 0.19563386 -0.08255808
-0.031741302 -0.04930062 -0.05264025 0.08755513 0.03276867 0.14578089 -0.023407193 -0.090997554
-0.055086374 0.041753873 -0.03828995 -0.061879616 -0.095262386 0.07259608 0.03081727 -0.06231683
-0.09311842 -0.034345116 0.015035211 -0.10932244 -0.17890301 -0.01717629 -0.03328207 -0.18406512
0.15806596 -0.060704794 -0.17534755 0.045217413 0.07492926 0.10084818 -0.09501727 0.021545082

lstm.bias_hh_l0 f4 [512]
00000000: 28ba ddbd 82e9 0f3b 5f6c 833b 7245 3a3e
00000010: 8558 afbd 119d 6abc 7ba4 e03c fad8 b0bd
00000020: 12b4 d1bd 7e97 eebd 844f e4bc 585d 913c
00000030: 0802 1d3d fea0 7abd 4420 76bd 64a9 823d
00000040: 8c45 17be 8f48 a5bd e54d a8bc 7e01 5bbd
00000050: ca49 bb3c d725 773d 264f bb3a cf6e 12bc
00000060: a948 153d 4673 7fbd 3fe9 08be eeeb 00be
00000070: 39fc 86bd f8f8 09bd 006a d6bd 7061 b7bd
00000080: 5184 9dbd 4f9a c0bd c3d1 9c3c 0f0a e73d
00000090: 61d7 94bc 49a6 8f3c a7fc 26bd 0844 01bd
000000a0: 7158 14be 5738 72bc 3961 293a a887 5c3c
000000b0: 3a42 163d ad01 8fbc 467b 1fbe 8951 413d
000000c0: 9ed7 4abe d3a4 823c 414b 0abd 1231 003e
000000d0: 18e5 8abd b1fa 3abe 2d52 25be 0f67 23be
000000e0: 5f08 2cbe 43a3 d8bd 6f6c 55bd 1fb9 05be
000000f0: 40a6 3bbe ee85 033c ed6a 5bbd b24a b3bd
00000100: 0096 633d 8254 923d dce8 643d 36f3 82bd
00000110: 6577 45bc 9a91 f0bc 6e84 4cbd 26a3 f8bd
00000120: 9180 9b3d 7676 d2bb dc08 05be e109 e2bd
00000130: f2fa d83c d12c 1dbd 8b02 e6bb 4387 eabd
00000140: e7a3 dc3d f961 113d 0135 bb3d 32af 773c
00000150: 1107 77bc c2fe 3cbd 36f7 5dbd 4518 7abd
00000160: 850f fa3d b3a4 11be f96a 9dbc d1f3 813d
00000170: 3262 90bd 01da 33bd dbb7 d23d 9c26 2cbe
00000180: 21f4 f0bc 8f95 02be 7ec2 e1bc 59de acbd
00000190: 837e 69bd 79aa 493b 34bd 583c 23d9 f2bd
000001a0: 2729 dfbd 95e7 1c3d 014f 05be f1a4 8b3b
000001b0: 410f 33bd 8ee4 6ebd 170b 59be a4cf 4ebc
000001c0: e1e6 0abd a8e3 983b 08e2 04be 21de efbd
000001d0: ecc2 11be 3789 bcbd 843f 42bd 7118 a23c
000001e0: 367c 11be fe5b 643d 9ccd 02bd 4fb3 15be
000001f0: 505a efbd c12c 20be 1e0f a33c e651 d7bc
00000200: 2050 8d3c 2bed 813d 2d6a bc3d a3ee bf3d
00000210: 9854 903d 1fd9 d33c b8b6 56bd f8aa 1fbd
00000220: d4e1 3c3d f703 023d 3412 37be 4b33 3c3d
00000230: a585 e9bd e38e 08be a3e9 e93d fc9c 573c
00000240: 5d62 48bd 0eb6 3c3e 4dc4 b6bd 7692 2d3e
00000250: bedb 78bd a12f a33d d962 763d 2bcb 61bc
00000260: 2f70 303c 8b05 e1bc 47a7 65bc 0854 24bd
00000270: c13f 5abd a333 203d de09 9cbd 5784 56bd
00000280: a33d a43d d7ee c2bc 2818 e23c 6bc2 c9bc
00000290: d9bd dabd e47b 17bd 43f3 41bc caf0 fb3c
000002a0: 9120 bbbc 9135 473d 6675 fabc bb76 dfbd
000002b0: ea8a 9e3d 6ae5 2abe 9247 d43d e559 f7bd
000002c0: 8619 a4bd ceec a23c ae03 ec3d c4db 0abd
000002d0: f6bd c43d 86ea 06be 10a6 2cbc 537d 023d
000002e0: e3d2 233d 2b84 e6bb cbca 11bb 6456 88bd
000002f0: 0796 0fbe 1b1a 723c 978a b0bd 977f ab3d
00000300: f146 03bd f27e 4f3e b785 61bd d087 cebd
00000310: c210 8d3c 0d4a 96bd 5b19 dcba 4e4f a8bd
00000320: 0603 dbbd a19b d63d 6d82 023e aeb5 493d
00000330: 39ad e73c c13d 09bc ddda e8bc 2bb7 e0bd
00000340: 4c22 72bd 6b2e de3c 14fc 1c3c 5acc bd3c
00000350: 1d53 0abe 4cfd c1bc d3fd 07bd 0a5f 903d
00000360: 02f8 0f3e b467 88bc 438c e0bd f7e1 fd3c
00000370: e3df 24be 1e0d 02bd 093d 883d 3494 bcbd
00000380: 4c50 88bd 25c2 2b3c 2ab6 383a 22ea 443e
00000390: a68f 273e 4d0f 043e 8da2 b7bc a352 d0bd
000003a0: 7b1e c2bd 42fd 9d3c 2bf9 903c feaf 50bd
000003b0: 2944 c6bd 59a5 88bd 410f 3f3d c068 00be
000003c0: ac21 de3c c2cd 0a3e 12a9 a6bc cd06 86bc
000003d0: ea1e 40be 937a e4bc 7473 153d 5c96 15be
000003e0: f67f a23d 9688 cebc ebcf 36be d53f 5fbd
000003f0: 58b2 033d fc40 103d cf33 41bd 96ab 50bd
-0.10826522 0.002195925 0.0040107216 0.18190554 -0.08561806 -0.014319674 0.02742218 -0.08635135
-0.10239424 -0.116499886 -0.027869947 0.017744705 0.038332015 -0.06118869 -0.060089365 0.06379965
-0.14772624 -0.0807048 -0.020544956 -0.05346822 0.022862334 0.06033882 0.0014290556 -0.008937552
0.036446247 -0.062365793 -0.13370226 -0.1259 -0.065910764 -0.0336847 -0.10469437 -0.089541316
-0.07691253 -0.09404432 0.019142991 0.112812154 -0.018169107 0.017535346 -0.04076829 -0.03155902
-0.14486863 -0.01478394 0.00064613257 0.013460077 0.036684252 -0.017456854 -0.15574369 0.0471969
-0.19808814 0.015947735 -0.033763174 0.12518719 -0.067819774 -0.18259694 -0.16144629 -0.15957282
-0.16800068 -0.10578015 -0.052105363 -0.130589 -0.18325138 0.008027537 -0.05356877 -0.087544814
0.055562973 0.07145025 0.055886135 -0.06394045 -0.012052392 -0.029366303 -0.049930982 -0.12140493
0.075928815 -0.006422813 -0.12991661 -0.110370405 0.026486848 -0.03837282 -0.007019346 -0.114515804
0.107734494 0.035493825 0.09140969 0.015117453 -0.015077368 -0.046141393 -0.054190837 -0.0610583
0.12209991 -0.14222984 -0.019216048 0.063453324 -0.07049979 -0.043909077 0.10288974 -0.16811603
-0.029413285 -0.12752365 -0.027558561 -0.08440847 -0.057005417 0.0030771776 0.013228703 -0.11857822
-0.10896521 0.03830679 -0.13018419 0.004261606 -0.04371572 -0.058323435 -0.21195637 -0.012622748
-0.03391159 0.0046658106 -0.12976849 -0.117122896 -0.14234513 -0.09205859 -0.047423854 0.019787045
-0.14207539 0.055751793 -0.031934366 -0.14619182 -0.116871476 -0.15642072 0.01990467 -0.02628417
0.01725012 0.06344064 0.09199939 0.09371688 0.07047385 0.025860367 -0.052420348 -0.038981408
0.046113804 0.031742062 -0.17878038 0.045947354 -0.11402444 -0.13335757 0.11421516 0.013159987
-0.04892193 0.18428823 -0.0892416 0.16950402 -0.060756437 0.07968069 0.060152862 -0.013781349
0.010768934 -0.027468463 -0.014016933 -0.0401192 -0.053283457 0.039111745 -0.076190695 -0.052372303
0.08019569 -0.023795528 0.02759941 -0.024628839 -0.10680742 -0.036983386 -0.011837783 0.030754466
-0.022842677 0.04863507 -0.030573558 -0.10911318 0.077413395 -0.16689077 0.103652135 -0.12077693
-0.08012681 0.019888308 0.11524139 -0.03390099 0.09606545 -0.13175401 -0.010537639 0.0318578
0.03999604 -0.0070347986 -0.0022246118 -0.06657103 -0.14022075 0.014776732 -0.08620184 0.08373945
-0.032050077 0.2026327 -0.05505916 -0.10084498 0.017219905 -0.07338343 -0.0016792224 -0.08218251
-0.10693936 0.104789026 0.12745066 0.04924553 0.028280841 -0.00837654 -0.028424675 -0.109724365
-0.05911474 0.027121743 0.0095815845 0.023168731 -0.13508268 -0.023680352 -0.03320105 0.07049377
0.14059451 -0.016651012 -0.10964253 0.030991537 -0.16101031 -0.03175079 0.066522665 -0.09207955
-0.066559404 0.010483299 0.00070461875 0.1922994 0.16363391 0.12896462 -0.022416377 -0.10172012
-0.0947847 0.019285802 0.017696938 -0.05094909 -0.09680969 -0.066721626 0.046645407 -0.12539959
0.027115665 0.13555053 -0.02034429 -0.016360665 -0.18761793 -0.02789048 0.036487058 -0.14608139
0.07934563 -0.025211614 -0.17852752 -0.054504234 0.032152504 0.035218224 -0.04716855 -0.050944887

fc.weight f4 [2, 128]
00000000: 4a4b 133e 53aa 103e d460 1bbe 83a4 c53c
00000010: 05b9 35bd 3aaa b13b 8141 413c 4da2 e23d
00000020: e45d 08be b963 b83d 0eec a9be 3034 96bd
00000030: f269 a7be 9dd6 e33d f359 18be d493 8f3d
00000040: 18ec 893d 654f 923d db5e 7f3c 9f3c 55be
00000050: 22f0 72be 1598 4d3c 1339 713c 2be9 a2bc
00000060: a2fc 553c ce6b 0c3e 4ebb 553e 2b85 2fbd
00000070: 550e 0bbd 5a6a 48be b733 6c3c d423 fabd
00000080: 9c9a 14be eb95 273e 5c38 ea3c 88e4 803e
00000090: b832 a43e dab0 6d3e 6f6f 89bd 9342 1c3e
000000a0: 4f75 3a3e ad6f 28bc 3c6f 41be 24a9 ab3e
000000b0: 8342 05be 5d0d 9ebe d1b5 8fbe 6837 203e
000000c0: d1a9 50be ef70 10be 7eda 633d dcd8 cd3d
000000d0: ba67 4b3d 6ab3 dabd e026 2b3c 74ca 69bd
000000e0: 6535 25be 5ded ca3d d767 f5bd 2de6 4bbd
000000f0: 39ca b13d 2c82 d63a d094 af3e 13d0 2e3e
00000100: 293f 26bd 1b02 0f3d 9d0b 8f3e 742e 29bd
00000110: e870 6b3e 593c 0a3e b3ea 283e ee45 253e
00000120: 3f44 febd cb70 51bd 1b3a 2ebe 1bca 163e
00000130: fd01 9c3e 6478 353e dcf1 a9bd cb99 ca3c
00000140: 931c 9b3e 608e 4bbe 2d90 22bc 83b3 3ebe
00000150: 44fd 82be d4c3 a03e eda6 5c3d 273e 4c3e
00000160: 5393 d0bd 6302 a6bc f521 15be 11be 263d
00000170: 8231 4d3e 89d4 e53d 2335 963d 31db 553b
00000180: 25bb 843e 2972 f6bd 1c9f 0dbe c42e 2b3d
00000190: ff00 23be 82f2 c8bd 0b36 3c3e c20e 82be
000001a0: 089c 09be c979 b43d e72a 6bbe b997 923d
000001b0: b98f a4be b603 bb3a 647d 9a3e f77c 9a3c
000001c0: fc3e 32bd eadc 31bd eb6b 9d3c 7341 b33e
000001d0: af30 43be c07f 4a3d 40b8 1c3e 5812 babe
000001e0: f920 533e 0b01 29be d180 a0be e6a5 a73e
000001f0: de54 313e 046f 9b3e 8d2c 76be 492e e4bd
00000200: e8d3 aebd ac68 2bbe 29c0 823d cc70 c43c
00000210: 01b8 1a3e c13b b6bc 65e8 f93c 4f22 79bc
00000220: cafd 7c3e 7f85 bbbd 53d7 a23e 9ba3 49bd
00000230: 9eee 353e 0b91 d0bc dde3 e43d 42f3 333c
00000240: 8864 0dbe e4d0 d6bd 9ff4 cf3d fd80 d43d
00000250: 8820 2a3e 4f00 5f3c bc8d f5bd dca9 a53d
00000260: 8150 a5bb b145 2abe d172 89be 3a8e ed3d
00000270: 3972 893b ca31 523e 5292 f83b f585 d33d
00000280: be00 6b3e 68cc a3bd 6afc 00bc ce1c 05be
00000290: 8342 7fbe 6e9a 2bbe 31bb ee3d ea94 37be
000002a0: c577 04bd 4cd9 b33b ad38 033e 118c a0be
000002b0: 7d23 3b3e 52cf 803e 2c0e ad3e 24f3 94bd
000002c0: 60e7 8d3e cdaf 103e 6c15 573d f509 22bd
000002d0: ce2b 24be 67cb c63d 6a0a eb3c 8dd8 a33d
000002e0: 6f4d fa3d 6938 29bd a2d3 f03d 0210 2d3d
000002f0: 05ff 0cbe 6300 ce3c 7aeb 91be 0e0d 89be
00000300: e713 b3bc 8bbd 8bbd d9f3 8dbe f25c fa3d
00000310: e1ea 1fbe fb6e b7bd 1729 84be 78bf 0fbe
00000320: 8805 423e 8e18 c73d bde3 063e 33c0 0abe
00000330: f6b0 c1be 6fcd 9ebe ba4a 883d 11eb 92bc
00000340: f7e4 0dbe 0440 383e f3f7 d8bd be13 1f3e
00000350: bc3e 0e3e e6b0 4ebe 9c54 65bd 0618 11be
00000360: ce0a ee3d 48a4 a73c 41ca 313e 81da 88bd
00000370: d323 16be 6d24 36be 1840 b3bd 4c0f 39bc
00000380: 85b9 88be a740 453e df9b 023e 6e92 ffbd
00000390: 66c1 303e e533 503d eff5 49be 1fa7 763e
000003a0: 6917 f03d f7c5 60bd b260 a33e 9db2 283d
000003b0: 2d59 7f3e f037 18be eccb 41be de30 503d
000003c0: 784d 063c 98b8 33bc 57c4 02be c7ef c1be
000003d0: 0a26 5c3e 5b21 e3bd 7c72 7ebe 6d52 a33e
000003e0: e79b 26be 8fde 7e3e b10e db3e 6e9e acbe
000003f0: 9044 52be 9a05 9bbe c8fd b33e a64b 7d3d
0.14384189 0.14127474 -0.15173656 0.024126297 -0.0443659 0.005421904 0.0117954025 0.11066113
-0.13317066 0.090033956 -0.33187908 -0.07334173 -0.32698017 0.111249186 -0.14878063 0.07010618
0.067344844 0.071440496 0.01558658 -0.20823906 -0.23724416 0.012548466 0.01472308 -0.019886574
0.013060721 0.13712999 0.20872232 -0.04285161 -0.033949215 -0.1957182 0.014416627 -0.12213865
-0.14512104 0.16365783 0.028591327 0.25174356 0.32069945 0.23211995 -0.067107074 0.15259771
0.18208812 -0.010280532 -0.18890089 0.33527482 -0.13013653 -0.3086957 -0.28068402 0.15646136
-0.2037728 -0.14105581 0.055628292 0.10051128 0.04965947 -0.10678752 0.01044628 -0.05707784
-0.1613365 0.09908555 -0.119826965 -0.04978006 0.08681149 0.0016365699 0.34293222 0.17071562
-0.040587578 0.034914117 0.27938548 -0.041304067 0.22992289 0.13499583 0.1649578 0.16139957
-0.12415361 -0.05113296 -0.17014353 0.14725535 0.30470267 0.17721707 -0.08298084 0.024731537
0.30295238 -0.1987853 -0.0099220695 -0.18623166 -0.2558385 0.31399405 0.05387013 0.19945584
-0.1018435 -0.02026481 -0.14563735 0.040708605 0.20038417 0.112221785 0.07334354 0.003263187
0.2592403 -0.12033493 -0.13830227 0.041792646 -0.15918349 -0.0981188 0.18379991 -0.25401884
-0.13438427 0.08812291 -0.22965585 0.07157845 -0.32140902 0.0014268074 0.3017379 0.018858416
-0.043517098 -0.04342357 0.019216498 0.3501087 -0.1906154 0.04943824 0.15304661 -0.3634212
0.20618047 -0.16504304 -0.3134828 0.32743758 0.1731753 0.30358136 -0.24040432 -0.11141641
-0.08536512 -0.16739148 0.06384308 0.023979567 0.15109254 -0.02224529 0.030506322 -0.015205934
0.24706188 -0.09156322 0.31804904 -0.049228292 0.17766806 -0.025459787 0.11176274 0.01098329
-0.13807881 -0.104890615 0.1015408 0.10376165 0.16613972 0.013610913 -0.11989924 0.08089039
-0.005044997 -0.16628148 -0.2684541 0.11599393 0.0041945246 0.20526806 0.007585802 0.10328285
0.22949502 -0.07997972 -0.00787268 -0.1299927 -0.24927716 -0.16758129 0.11656798 -0.179279
-0.032340784 0.0054885503 0.12814589 -0.31356862 0.18275256 0.25158173 0.33799875 -0.07272938
0.27715588 0.14129563 0.052510664 -0.039560277 -0.16032335 0.09706765 0.02869149 0.08000288
0.122218005 -0.041313563 0.11759116 0.042251594 -0.13769157 0.025146669 -0.28499967 -0.26767772
-0.021860076 -0.06823262 -0.27725103 0.12224759 -0.15616943 -0.08956715 -0.258126 -0.14037883
0.18947423 0.0972148 0.13172813 -0.1354988 -0.37830323 -0.31016108 0.06654878 -0.017934354
-0.13856874 0.1799317 -0.105941676 0.15534875 0.13891119 -0.20184669 -0.055988893 -0.1416932
0.116231546 0.020464078 0.1736231 -0.06682301 -0.14662103 -0.17787333 -0.08752459 -0.011295151
-0.2670404 0.19262944 0.12754773 -0.12479101 0.17261276 0.05083074 -0.19722722 0.24087189
0.11723215 -0.054876294 0.3190971 0.041185964 0.24936362 -0.14865088 -0.18925446 0.050827853
0.008197181 -0.010969304 -0.1277021 -0.37878248 0.21498886 -0.110903464 -0.2484836 0.31898823
-0.1627041 0.24889587 0.42784646 -0.33714622 -0.20533967 -0.3027771 0.35154557 0.061839722

fc.bias f4 [2]
00000000: 960e c93d 4545 49be
0.09817235 -0.1965533
