Models/cnn_lstm_model_stream_Nstream_0,84.pth (torch, 408328 bytes, 8 tensors)

conv1.weight f4 [64, 8, 3]
000000 59 60 9b be e6 f9 53 be 11 a3 89 bd 10 e0 84 be
       -0.30346945 -0.20700797 -0.067205556 -0.25952196
000010 db fe cb 3d 7c 70 8f be 6b 46 58 be f1 46 30 bd
       0.09960719 -0.28015506 -0.21120612 -0.043036405
000020 ea 1a 9b 3d 14 2d 08 3e 2e 1a 8c bd e4 4a 85 3e
       0.07573493 0.13298446 -0.06840931 0.260337
000030 64 88 62 be e9 99 f8 bd b5 9d bc 3d e2 42 83 3e
       -0.22122341 -0.12138731 0.09209768 0.25636965
000040 7d 61 88 3e b6 d8 48 be 3c bd 93 3c 03 58 f3 3d
       0.26636878 -0.19613919 0.01803457 0.11882021
000050 04 06 83 bd 0d f6 3e 3e 60 7e 8f 3c 3b 2f 40 3e
       -0.06397632 0.18648548 0.017516315 0.18768017
000060 58 f2 94 3d 32 b7 85 3e 08 9c 4e 3e 04 bf 57 be
       0.07272786 0.2611633 0.20176709 -0.2106896
000070 b8 41 84 be 83 52 2b 3e bc e7 89 3d 90 d8 9f be
       -0.2583139 0.16730694 0.06733653 -0.31219912
000080 da d8 a7 3d 60 1b d8 3c 72 e4 02 bd d9 8f 53 be
       0.08195658 0.02638024 -0.031956144 -0.20660342
000090 62 a3 46 3e 12 fb bf 3c f4 22 1e 3e a0 29 65 be
       0.19398263 0.02343515 0.15443021 -0.2237916
0000a0 4e 2c 18 be bf 32 b7 be 89 f1 3b 3c 8f 95 26 be
       -0.14860651 -0.35780904 0.011471161 -0.1626799
0000b0 59 12 d7 3d 2a fc a7 3c af ad 54 3d eb 1f 61 bc
       0.105015464 0.020505983 0.05192345 -0.01374052
0000c0 00 16 4a be d0 42 43 be cc db ff bd c8 ca 67 3e
       -0.19734955 -0.19068456 -0.12493095 0.22635949
0000d0 eb 34 d4 3a 96 18 d1 3d ff a4 53 be c6 14 8e be
       0.0016190087 0.102097675 -0.2066841 -0.27750224
0000e0 d2 cc aa 3d d5 27 82 3d 51 a3 80 bd d7 5c 5c be
       0.083398476 0.063552536 -0.0628115 -0.2151979
0000f0 a7 28 3d 3e 65 5c 93 3c 7e 65 b9 bd d6 58 47 be
       0.18472539 0.017988393 -0.09052561 -0.19467482
000100 d4 a1 d1 bd c4 70 73 3d 75 e1 85 3d b4 1e c7 3d
       -0.102359444 0.059433714 0.06537143 0.09722653
000110 5c f1 1b 3c fb 09 80 3c 4a d9 57 be 09 5a 48 bd
       0.009517994 0.015629759 -0.21078983 -0.04891399
000120 f3 fb 50 3e fb a3 88 3e 62 4b 7f 3d 54 72 c2 3e
       0.20408611 0.26687607 0.06232775 0.3797785
000130 22 a1 8d 3e f7 96 d6 bd 2b 47 86 3e e0 70 05 3d
       0.27661997 -0.10478013 0.26226172 0.03257835
000140 e3 ae ae 3e b7 2d 06 3c cd 07 64 3e cf 3e 48 be
       0.34117803 0.00818961 0.22268601 -0.1955521
000150 97 d5 65 be b9 07 7f bb 3d 12 cf ba dd 54 ca 3c
       -0.2244476 -0.0038914515 -0.0015798282 0.02469867
000160 57 1e 81 3e 30 29 86 bc 8b a9 65 3c 67 b1 b7 3d
       0.2521846 -0.016377062 0.014017473 0.08969384
000170 e3 e6 d7 3d 18 87 76 3e 0e a3 bc bd cf af 3b 3d
       0.10542085 0.24074972 -0.09210788 0.04582196
000180 27 1e 1c bc b1 55 b2 3e 50 d6 6b 3e ab 13 67 3e
       -0.009528673 0.34831002 0.23030972 0.22566096
000190 ab 65 cd bd ed 29 95 be 31 17 41 3b cc 82 fd bc
       -0.10029157 -0.2913355 0.0029463286 -0.030946158
0001a0 4d 7e 88 be 52 d0 94 bd 28 0d 1a 3d d9 01 27 be
       -0.2665886 -0.072662964 0.037610203 -0.16309299
0001b0 a5 9a 5a 3e cc 1e db 3c 1c 47 34 3e 63 f4 a2 be
       0.21348055 0.026748084 0.17605251 -0.31827077
0001c0 40 87 f3 bd 6f f5 16 bd b3 0a c9 bc 25 c1 65 bc
       -0.11891031 -0.036855157 -0.024541235 -0.0140231
0001d0 25 3d 69 bc f1 82 a5 bc f4 89 89 bd 1f f2 20 3e
       -0.014235769 -0.02020404 -0.067157656 0.15717362
0001e0 86 bc b4 3d 29 cc 4c 3e f8 ac 06 3e 52 a7 16 be
       0.088250205 0.19999756 0.1315192 -0.14712265
0001f0 21 ea 29 3c f4 4b 47 be 61 bd 02 be 21 f6 1b be
       0.010370762 -0.19462568 -0.12767555 -0.1523061
000200 13 b4 c9 be b0 19 54 be e1 5d 2f be 3b 39 88 be
       -0.39395198 -0.20712924 -0.17125656 -0.26606163
000210 c0 15 0f 3d 36 b1 0b bb 22 06 af 3d a0 25 29 3e
       0.03493285 -0.0021315343 0.085460916 0.16518259
000220 27 c2 55 3e 3a 33 a2 3d a1 24 37 3e c7 5c 0b 3c
       0.20874844 0.07919927 0.17885067 0.008506007
000230 5c c1 6e 3e f8 66 0c 3e 22 ee f3 3d 12 c4 6e bd
       0.23315948 0.13711154 0.119106546 -0.058292456
000240 b4 4b cd 3d c1 f4 d6 3d 08 c3 e5 bd c7 d4 d1 3c
       0.10024205 0.10495902 -0.1121884 0.025614155
000250 02 c0 0f 3e ac bc 80 be 72 35 0e 3e c6 af 00 be
       0.14038089 -0.25143945 0.13887575 -0.12567052
000260 29 e8 b4 bd 12 bd d4 3e 50 80 a0 3e 0f 3c c3 3d
       -0.088333435 0.415505 0.31347895 0.0953294
000270 fe 9e 24 3e a8 b7 6d 3e 43 91 7e bd 0d 14 9a 3d
       0.16076276 0.2321459 -0.06215025 0.07523356
000280 73 49 b9 3d 0f be 0a 3e 5f ce 31 3e 8a 2a cf bc
       0.090472125 0.13549064 0.1736388 -0.025288839
000290 ce 08 b8 bc d1 1e 4c 3e 10 42 83 3e 63 ba b7 3e
       -0.022465136 0.1993363 0.2563634 0.3588439
0002a0 57 ee 3c bd e3 72 6e be f7 b1 94 be 3f 47 1d be
       -0.046125736 -0.23286013 -0.29042026 -0.1535921
0002b0 7b 44 a1 be 0a 76 46 3c 02 a8 48 bd e7 b0 9d bd
       -0.3149756 0.012113104 -0.04898835 -0.07699757
0002c0 9c 42 e4 bd b3 1d 86 bd b6 80 2a be 9f 4a d1 bd
       -0.11145517 -0.065486334 -0.16650662 -0.10219311
0002d0 b2 56 8e 3e c6 fc 30 3e 4c d4 ab 3d 12 bd 4b be
       0.27800518 0.17283925 0.08390102 -0.19896343
0002e0 28 c7 d7 bd 94 1d 36 bd 3c a8 70 bd e0 a1 2f be
       -0.10536033 -0.0444618 -0.05875419 -0.17151594
0002f0 4f 9f 9d bc aa b9 07 3d 4e 1c 56 be fb 88 70 be
       -0.019241003 0.033136047 -0.20909235 -0.23489754
000300 ec f6 4e 3d 43 08 2f 3e 9a 26 b5 bd 41 1b 0d be
       0.05052845 0.17092995 -0.08845253 -0.13779928
000310 20 a0 73 be 39 70 32 bd 4d 2e 44 3e 39 72 9d 3c
       -0.23791552 -0.043564055 0.19158287 0.019219505
000320 13 89 f2 bd 5a 55 ca bd 60 33 1c 3d 99 5c 60 3d
       -0.11842551 -0.09879561 0.038134933 0.054775808
000330 2e b9 9d bd e2 34 1b 3e e0 36 30 be c9 9b 2f be
       -0.07701336 0.15156892 -0.17208433 -0.17149271
000340 11 ee 03 be 11 2a 1b 3e 9c ca 93 bd 79 23 f6 3d
       -0.12883784 0.15152766 -0.07216379 0.120184846
000350 be 2f 90 3d 68 51 48 3d 9d c2 6e 3d c0 e7 df bc
       0.07040356 0.04890576 0.058291066 -0.027332187
000360 4f 6c 91 3e 34 f5 7e be 76 fd 1c be 81 cf 98 3d
       0.28402945 -0.24898225 -0.15331063 0.07461453
000370 cf 0f 92 bd 61 6a 83 3c 51 17 d4 be 94 fb 8b be
       -0.071319215 0.016041936 -0.4142404 -0.27340376
000380 4f 96 9d be 15 06 99 bd 3b 91 31 be 54 99 b6 bd
       -0.3077874 -0.07471863 -0.17340557 -0.08915964
000390 2c 33 18 3e d3 c5 c4 bd c4 a7 8f 3c eb 58 c2 3d
       0.1486327 -0.096080445 0.017536052 0.09489616
0003a0 60 b6 b1 3d b5 3c 1c bb 26 66 40 3e 6c c1 91 3e
       0.086773634 -0.0023839895 0.18788967 0.28467882
0003b0 87 2b 74 3e f6 34 0e 3e 52 8b de 3d 60 b8 c1 3d
       0.2384473 0.1388739 0.10866417 0.09458995
0003c0 15 26 d5 3d 01 58 94 3e df e5 99 3b 53 c9 5e 3e
       0.10407654 0.28973392 0.004696592 0.21756487
0003d0 4a 61 b4 bd 71 ac a1 bd 7b 99 56 be bc 53 9a be
       -0.08807619 -0.07894219 -0.20956986 -0.3014201
0003e0 db f6 1d 3e 45 9d 6c be cf ce 3e bd 66 9c c9 3c
       0.15426199 -0.23106869 -0.046583947 0.02461071
0003f0 ed fc ed 3d 59 89 3d 3e 40 ff ba 3d 28 f5 77 be
       0.116205074 0.18509425 0.09130716 -0.24214613

conv1.bias f4 [64]
000000 4c 0a 3e 3e be 0f 51 be 87 d0 2f bd 28 ed 45 be
       0.18558615 -0.20416161 -0.042923477 -0.19328749
000010 23 e1 8c be 77 bd 2d be 33 e7 f3 bb 52 f7 2b bd
       -0.27515516 -0.16966806 -0.0074433326 -0.04198391
000020 f4 a2 92 bc 83 9b 67 be 28 0a 59 be 6c c7 12 bd
       -0.017899968 -0.22617917 -0.2119528 -0.035834715
000030 87 43 16 bd d1 47 9a 3d a0 6a 45 be b1 51 22 be
       -0.036685493 0.07533229 -0.19278955 -0.15851475
000040 3c f2 9b 3d 18 64 05 3e d3 5d b6 bc 35 75 89 be
       0.07614562 0.13026464 -0.022261536 -0.26847234
000050 f4 7b f1 3c bb c6 01 3e 41 cf 57 3d 62 a3 ea bd
       0.02947805 0.12673466 0.052687887 -0.11456944
000060 a1 1f 24 3d 94 1f 24 be 23 9d 90 3d c9 16 c9 bd
       0.040069226 -0.16027671 0.070612215 -0.09818799
000070 25 ed 1b be e4 ef 8f bd 93 43 19 be 4e 83 66 be
       -0.15227182 -0.070281774 -0.14967184 -0.22511026
000080 23 4c 45 be 8d ce b0 3c 18 08 8c bb 53 a6 24 3e
       -0.19267325 0.021582866 -0.004273426 0.16079073
000090 3b c6 d1 bd 9f 0b a1 bc 56 83 3a be 8e 76 d2 3d
       -0.102428876 -0.019658862 -0.18214163 0.10276519
0000a0 94 5e 28 3d de 7a dd 3d b9 50 08 be fc 02 69 bd
       0.04110582 0.10814451 -0.13312043 -0.05688761
0000b0 fe 84 0c 3d d8 3c 00 3c 61 62 e8 bd 04 9b a3 3d
       0.03430652 0.007827006 -0.11346889 0.07988551
0000c0 e7 24 84 bd e0 2e 80 bd 96 07 22 3d 3a 02 ff bd
       -0.06452351 -0.06258941 0.039558016 -0.124515966
0000d0 57 bf 27 be 63 78 d3 3c 7d 80 a3 bd 4f 6f 37 be
       -0.16381584 0.02581424 -0.079834916 -0.17913555
0000e0 36 86 b6 bd b4 1c 20 bd 40 7b 65 3d 96 bb 9a 3d
       -0.089123175 -0.039089873 0.056025743 0.075553104
0000f0 5d b3 a5 bd f1 1b de bc 48 9e b9 3c f5 85 a9 3d
       -0.080908515 -0.027112933 0.022658482 0.082775034

lstm.weight_ih_l0 f4 [512, 64]
000000 00 73 00 be 1e fd 2b 3e 9a 6a 1b be f3 ab 24 3e
       -0.12543869 0.16795775 -0.15177384 0.16081218
000010 9c 13 47 3e 18 2e 10 3b 13 53 39 be 75 65 72 be
       0.19441074 0.002200013 -0.18098097 -0.23671515
000020 4d 5e 1e 3d 45 dd 61 be e6 fd c5 3c 82 26 28 bd
       0.03866415 -0.22057064 0.02416892 -0.04105235
000030 ff 88 4d be 35 70 13 3d 64 f2 44 bc 08 10 42 3d
       -0.20071791 0.03599568 -0.012020681 0.04737857
000040 04 95 a5 3d 33 0c 51 be cd c4 c0 3c d1 14 6e bd
       0.08085063 -0.2041481 0.023531342 -0.05812532
000050 70 6e b3 bd f1 24 b9 bd d0 e8 83 bd cd a7 07 3e
       -0.08761299 -0.09040249 -0.0644089 0.13247605
000060 43 86 95 3c 76 e3 7d be ee fa a2 bd 2e c8 89 3e
       0.018252498 -0.247938 -0.07958017 0.26910537
000070 20 b3 89 be 01 70 d5 3c ac bd 28 3d 2c dc c0 bc
       -0.26894474 0.026054384 0.04119651 -0.023542486
000080 25 b4 c4 bd b6 47 ac 3c fa 50 05 bd 63 e3 87 be
       -0.09604672 0.021030288 -0.03254793 -0.2654067
000090 19 31 d0 3d ba a4 94 3d 73 e5 08 3e f2 bf 97 3d
       0.10165615 0.072579816 0.13368778 0.074096575
0000a0 e6 e5 ad bd e5 00 78 bd 0c bc d6 bc 43 bd 91 be
       -0.08491115 -0.060547728 -0.026212715 -0.28464708
0000b0 36 31 c7 3d 5b d3 fc bc bf 22 eb bd f1 fa 27 be
       0.09726183 -0.0308625 -0.11481237 -0.1640432
0000c0 11 26 24 be 93 23 1f 3e ac ad 5c 3d 54 a0 aa 3d
       -0.16030146 0.15540914 0.053876564 0.083313614
0000d0 74 e6 22 3e bb ed 1f 3b ad 79 1a 3e 27 70 44 3e
       0.15908223 0.0024403173 0.15085478 0.19183408
0000e0 4a 8f f0 bd da 5d 56 be 82 d4 3e bd a0 6a b9 3d
       -0.1174608 -0.20934239 -0.046589382 0.0905354
0000f0 17 cc 46 3d 9e b9 69 bc 87 df 5e 3c a7 fe 13 be
       0.04853448 -0.014265446 0.013603098 -0.14452611
000100 da af 4c bc 9f 5b be bd 87 64 1f bd ac 91 96 3d
       -0.012493098 -0.09294819 -0.03891423 0.073520035
000110 55 66 1c be 6d bc 1c 3d c1 61 af 3e d6 07 6a be
       -0.15273412 0.038265634 0.34254268 -0.22854552
000120 c8 9f 5d 3d 7b e2 ea 3d 67 a2 5a bd 67 93 e8 bd
       0.054107457 0.11468979 -0.053377535 -0.1135624
000130 40 c2 8d 3c 8b d3 55 3c 14 ae cc 3d df e3 7d 3c
       0.01730454 0.013050924 0.0999414 0.015496223
000140 01 bb c6 3d 01 d1 0a be c5 c8 78 3e 31 c1 47 bd
       0.09703637 -0.13556291 0.24295337 -0.048768226
000150 f1 51 37 3e c4 26 2e be da 4d b8 bd 49 04 d2 bd
       0.17902352 -0.17006975 -0.08999224 -0.102547236
000160 59 27 cb bc 2c 39 40 3e 56 29 89 3c e7 81 9c 3e
       -0.024799036 0.1877181 0.016743343 0.30567858
000170 78 eb b1 bd b8 3e 1c be df f2 f1 bc 19 6e 68 be
       -0.0868749 -0.152583 -0.029534755 -0.22698249
000180 9f cc ef 3b 51 72 4a be cc 99 3b 3d 18 e5 91 be
       0.007318094 -0.19770171 0.04580097 -0.28495097
000190 d8 8e 40 3d c7 70 ce bd 04 94 01 be 31 42 94 bd
       0.047011226 -0.10080104 -0.1265412 -0.072391875
0001a0 a7 2d 2a 3e 0c 5e 85 3e 92 89 cd 3c 8b f7 b7 bd
       0.16618977 0.26048315 0.025090013 -0.08982762
0001b0 ee b6 f5 3c 96 e3 69 3c 81 e7 ec bd a0 01 69 be
       0.029994454 0.014275452 -0.11567593 -0.22754526
0001c0 48 03 26 be 79 1b b7 bd 0e ce 92 3b 35 2f d1 bb
       -0.16212189 -0.08940787 0.00448013 -0.0063838013
0001d0 01 6d 85 bd 6c 77 fa 3c 0d 32 ca 3d 29 2c 89 3d
       -0.065149315 0.030574523 0.09872828 0.06697876
0001e0 bb b9 e6 3d 06 b0 43 bd 28 5c 79 bd 8e 36 48 3d
       0.11265894 -0.04777529 -0.060878903 0.048880152
0001f0 6d 59 dd bd 25 43 18 bc 65 57 82 be a2 b1 08 3e
       -0.10808072 -0.009293352 -0.25457302 0.13349012
000200 33 a4 f3 bd 6a 8f 3a bd 98 40 4e be cd d6 ab bb
       -0.11896553 -0.045546927 -0.20141828 -0.005244112
000210 07 68 2d be 46 e5 8d bd 36 4a 24 3e 18 b8 0f be
       -0.16934215 -0.06928496 0.16043934 -0.1403507
000220 30 86 86 bd f8 5b 20 3e 8f 65 e9 3c 25 36 6f 3d
       -0.06568563 0.15660083 0.02849081 0.058401246
000230 e1 00 a6 bd f4 59 24 3d 22 5a f3 3d 23 ca ed bd
       -0.081056364 0.04012485 0.11882426 -0.1161082
000240 1f eb 53 bd 50 ff 05 be 9a 38 07 3e d2 6b 80 3d
       -0.0517379 -0.13085675 0.13205186 0.06270565
000250 82 c1 93 bd 56 33 34 be c0 be 78 3b 87 ad 6e 3c
       -0.07214643 -0.17597708 0.0037955493 0.014567739
000260 20 5a 59 3b 46 e5 8d 3d 75 65 81 3d 28 f5 29 3e
       0.003316529 0.06928496 0.063181795 0.16597426
000270 90 97 14 bd 93 60 bb ba 14 26 42 bd 98 4d 76 bd
       -0.036277354 -0.0014295749 -0.047399595 -0.060132593
000280 de 04 d7 bd 3a 7c eb bd 36 d0 44 3c 85 f9 3a bd
       -0.10498975 -0.11498304 0.012012532 -0.045648117
000290 b9 87 ab 3c 69 24 7a 3c 10 a2 54 3b 5f f6 61 bc
       0.020938741 0.01526747 0.003244523 -0.01379165
0002a0 5a 38 68 3e 6b c3 0b 3d 1f 2f 29 bd 47 d7 21 bd
       0.22677746 0.034121912 -0.041304704 -0.039511945
0002b0 9c b9 92 bc b3 ad d2 bd 84 d3 fa bd 6f 1f 95 bd
       -0.017910771 -0.10287037 -0.12247375 -0.07281386
0002c0 33 27 38 be 58 fd 73 3c 30 da 1a bd d8 3c 1f 3d
       -0.17983703 0.014891945 -0.037805736 0.038876384
0002d0 2b bb ed bd 39 03 b4 3d 6e 2b 5a bd 62 a5 b4 3c
       -0.11607965 0.08789677 -0.053264074 0.022051517
0002e0 91 4e 80 3d 97 43 78 bd e5 f3 ad 3d 13 e6 81 bd
       0.06264985 -0.060611334 0.08493785 -0.06342711
0002f0 0d 70 c1 3b 2b bc 92 3c a7 e9 c9 3c 53 e3 30 bc
       0.00590325 0.017911991 0.024647547 -0.010796386
000300 0b 45 02 3e dc fb 41 be 41 39 17 be c9 f3 88 bd
       0.1272165 -0.18943733 -0.14767934 -0.06687123
000310 87 8e 5e be 51 72 85 3d 49 9b ff 3d 87 73 f5 bc
       -0.21734057 0.06515945 0.1248079 -0.029962314
000320 95 77 74 3b 39 8b 7d 3d 27 17 21 bc 3c b9 f2 3c
       0.0037302722 0.06190035 -0.00983218 0.029629342
000330 6e b6 06 3d b4 04 60 bd c2 cd fe bc 62 1a 79 3d
       0.032888822 -0.054691985 -0.031103972 0.060816176
000340 d4 af 1a be 6a cc a9 bd b5 67 d7 bd 13 86 8a 3d
       -0.15106136 -0.08290942 -0.105178274 0.06763854
000350 66 ef ce 3d ae f9 33 be 33 5f 10 be 81 ae 8a bd
       0.101042554 -0.17575714 -0.14098816 -0.06771565
000360 c2 f9 01 be 51 73 18 be 99 25 50 bd 92 80 af bd
       -0.12692931 -0.1488774 -0.050817106 -0.08569445
000370 bf 61 94 3d 19 14 2e bc cd 44 9d bd 0f 64 3b be
       0.07245206 -0.010624909 -0.07679138 -0.18299888
000380 05 ff 33 be b3 8d 24 be 2a 3d 00 3c 4a e5 3e bd
       -0.17577751 -0.16069679 0.007827083 -0.046605386
000390 58 f4 5a bd b0 7f 4e be fc b7 de bb a3 f9 14 bd
       -0.05345568 -0.20165896 -0.006796835 -0.036370885
0003a0 96 39 27 3e 8c 8a a5 3b 16 2f d7 3c 4b 3f bf bd
       0.16330561 0.0050519165 0.02626757 -0.09338244
0003b0 79 23 8c bc fb 3e ab bd 50 73 6a be ab 97 69 be
       -0.017106758 -0.08361622 -0.2289555 -0.22811763
0003c0 e9 04 ca bd a2 a4 70 3d 23 3a 19 be 02 fb 01 3c
       -0.09864218 0.058750756 -0.14963584 0.00793338
0003d0 fc aa f6 bd a5 67 91 3d c5 c8 77 bd 70 ac b8 bd
       -0.120443314 0.07099847 -0.060494203 -0.09017265
0003e0 67 ab 28 3d 02 06 61 3c b6 68 86 bd b4 30 5c bd
       0.041179087 0.0137343425 -0.06562941 -0.053757384
0003f0 7c 74 50 be 96 b7 6b be 4c df 3c be f5 c0 46 3d
       -0.20356935 -0.23019251 -0.18444556 0.048523862

lstm.weight_hh_l0 f4 [512, 128]
000000 ad c7 56 bd e9 78 1b bd 90 33 ac 3d 78 c0 0d 3d
       -0.05243652 -0.037957106 0.08408272 0.03460738
000010 26 a5 09 3e 01 5a a4 bd da 3c 1f 3e 8c 77 a5 3d
       0.13441905 -0.080249794 0.15550557 0.080794424
000020 d3 9e ea bd 52 4a 06 be f4 f7 24 3d 3e 1e 4b 3d
       -0.114560746 -0.13114288 0.04027553 0.049589388
000030 6b 30 fc 3c a8 72 f6 3d 27 a6 8e bc f5 2b 01 3d
       0.030784806 0.12033588 -0.017413212 0.03153606
000040 ef a5 b5 3d ee 1a 92 3c ec 36 1a 3e 3a e3 34 3e
       0.0886954 0.017835107 0.15060014 0.17664805
000050 f9 bd 58 3d 01 89 d6 3c f1 51 e8 bd 41 d3 b5 3c
       0.052915547 0.026188375 -0.11343754 0.02219546
000060 f9 8d 93 3d 1d 51 a2 bc a1 12 1e bd 4e 84 0e 3e
       0.072048135 -0.019814068 -0.038591985 0.13917658
000070 90 3c 96 bc ba ac 7e 3c c3 7d cd 3d 5b 0c 4c 3c
       -0.018339425 0.015544111 0.10033753 0.012454118
000080 e2 8e df bd b5 81 e2 3c 10 47 be bd 52 46 c2 bc
       -0.109159246 0.02764974 -0.09290898 -0.023715172
000090 32 24 c4 3d 8e b4 9d 3c f3 72 9a 3c 5f bc 80 3c
       0.09577216 0.019251134 0.01885364 0.015714822
0000a0 f4 b3 b2 bc 0f 6e e3 bd 22 58 28 bc d9 62 ac bc
       -0.021814324 -0.111049764 -0.010274919 -0.021043228
0000b0 6f 10 5c be 81 d6 f1 bd af 7b b1 bd 99 8b 11 be
       -0.21490644 -0.118084915 -0.08666169 -0.14213409
0000c0 7d ce a3 bd 55 ea f3 3c 75 00 05 3e bc 75 d8 ba
       -0.07998369 0.029774824 0.12988456 -0.001651458
0000d0 de 57 c6 3c e7 b5 b7 3d 84 7d dd 3c 57 c4 72 bd
       0.02421182 0.08970242 0.02703739 -0.059269276
0000e0 bb 7a a8 bd a8 5b 1a 3e 83 64 9d bd a8 e6 a4 bd
       -0.08226534 0.15074027 -0.07685187 -0.08051807
0000f0 4e 5b 45 3b 32 de 95 bd 75 d1 d1 3c 38 88 bd bd
       0.0030114236 -0.07317771 0.025612572 -0.09254497
000100 80 3d 74 bd ba d2 fa bd 1c 99 cb bd 14 ae 00 3e
       -0.059628963 -0.12247224 -0.09941313 0.12566406
000110 b2 05 b9 bd 27 33 bc 3d 23 10 c0 bc 90 47 18 3d
       -0.090342894 0.09189444 -0.023445195 0.037177622
000120 7f 32 ad 3d 82 40 70 be e8 ed 15 3e d7 08 01 3c
       0.08456897 -0.23462108 0.14641535 0.007875643
000130 cb 67 b1 3d 3c 41 69 bd 18 a5 66 bd b9 fb e0 bd
       0.08662375 -0.056946978 -0.05630979 -0.10985512
000140 6b 4f 76 3d a6 f4 1a bd 3e 04 c6 3d cc 92 5a 3d
       0.060134333 -0.03783097 0.09668778 0.053362653
000150 dc cb e6 3c f7 9a 52 bd d9 34 81 3d 36 77 13 3e
       0.02817338 -0.051417317 0.06308908 0.14400944
000160 09 b1 30 bd ac 54 40 bd 04 a6 5f 3d 45 05 2c 3d
       -0.043137584 -0.04695575 0.054601684 0.041997213
000170 c6 c0 1e bd e8 98 2a 3d e0 a9 ee bc 4a 3a 97 bd
       -0.03875806 0.04164973 -0.029133737 -0.07384165
000180 c7 b6 50 be 02 e9 9f 3d 7a c6 85 3d 3a 25 58 3d
       -0.20382224 0.078081146 0.06531997 0.052769877
000190 63 02 54 be d8 4a 73 bd 97 ae ed 3c 2c 17 d7 3c
       -0.20704035 -0.05939755 0.029013915 0.026256166
0001a0 06 d6 3e 3d a5 56 f9 3d e1 06 74 bb 92 2c ad bd
       0.046590827 0.12174729 -0.0037235545 -0.08455767
0001b0 23 44 2f 3e ff 75 a6 bd 0c 0f 03 be d8 e2 32 3e
       0.17115836 -0.08127975 -0.12798709 0.17469347
0001c0 db 5a 5d 3d 87 0f 07 bd 97 e8 41 3c d4 fe f2 3d
       0.054041725 -0.032973792 0.011835239 0.11865011
0001d0 f1 79 93 3b 77 9b e2 3d 5c 51 ca 3d 7f 14 42 3d
       0.0045006205 0.11064809 0.09878799 0.047382828
0001e0 01 96 0c bd 2b dc ba 3d 5f fd bc bd 6f 10 03 3e
       -0.034322742 0.09124025 -0.09228014 0.12799238
0001f0 69 dc e9 bd 5f 41 0b 3d f4 b4 6f 3c c7 63 5d bc
       -0.11418993 0.03399789 0.014630545 -0.013512558
000200 f2 a7 7c be 3e 42 58 bd 1e d8 ca 3d bd 52 53 3d
       -0.24673441 -0.05279755 0.09904502 0.051592577
000210 dc 57 85 3c e2 24 4c bd 6d 2b 83 be 97 0e 1a 3d
       0.016277246 -0.04983986 -0.2561907 0.03761157
000220 92 6d 60 bc ca df 26 3e 15 5a 8b bd 31 f2 1d 3c
       -0.013697999 0.16296306 -0.06804291 0.009640262
000230 fa 41 50 3d 8e 48 73 be e0 d2 7b bd 2a 42 23 3e
       0.05084417 -0.23758146 -0.061480403 0.15943208
000240 cd ca 8d 3b 48 d2 40 be 6f c1 e1 3c 7a 0a f7 3d
       0.0043271543 -0.18830216 0.027558057 0.12062545
000250 dd b4 06 3d 81 8c 43 bd 85 35 8f bd 68 f4 b9 3d
       0.03288733 -0.047741417 -0.0699263 0.0907982
000260 d1 76 97 3d 4b 0d f0 bd 2b b5 1c 3e 10 8e 87 3e
       0.07395709 -0.117212854 0.15303485 0.26475573
000270 42 41 40 3e 6f 54 a1 3e 80 1b 2a be ea dc 05 3e
       0.18774894 0.3150973 -0.16612053 0.13072553
000280 df fe 68 3e 76 82 1d bd 09 7a 38 3e cf c9 df bc
       0.22753476 -0.038454495 0.18015303 -0.02731791
000290 58 99 10 bd 76 d3 7e bc 4c 07 58 bc 37 3b 56 be
       -0.03530249 -0.015553346 -0.013185333 -0.20921026
0002a0 c8 76 97 3e cf 44 e8 3d 5e 0e 12 3c 68 18 7d 3d
       0.2958281 0.11341249 0.008914558 0.061790854
0002b0 d8 e6 18 bc c1 c4 a6 bd 02 13 a4 3d 3a 1a 03 3e
       -0.009332381 -0.081429966 0.08011438 0.12802973
0002c0 cb 1c 89 bc 02 6e 90 bd ba b8 27 bb 16 45 dd 3c
       -0.016737362 -0.07052232 -0.0025592283 0.027010482
0002d0 b5 21 b9 3c c1 00 2b 3e 05 a6 57 bd 43 1d 11 3e
       0.02259908 0.16699506 -0.052648563 0.14171319
0002e0 b5 42 08 3e b2 2d 1c be a4 50 d1 3b 95 f8 d7 bc
       0.13306697 -0.15251806 0.006387787 -0.02636365
0002f0 7a 14 c4 bd 28 2f 36 3d cb 71 62 3d 5a 2f 83 3d
       -0.09574218 0.044478565 0.055284303 0.06405516
000300 15 f0 4d bd 3f 4a 40 bd 13 09 4b be 18 07 a1 bd
       -0.05027779 -0.046945807 -0.1982768 -0.07862681
000310 e9 5c 8e 3c e2 60 67 3d 25 25 5c bd 48 69 0c bb
       0.017378287 0.05648888 -0.05374636 -0.0021425057
000320 c0 b9 00 be ec 35 62 3e 13 f5 dc 3d 45 1a 12 3d
       -0.12570858 0.22090882 0.10788932 0.035669584
000330 9c c0 49 3e 28 f0 32 be 24 31 ba bd 12 97 e9 bc
       0.19702381 -0.17474425 -0.09091404 -0.028514419
000340 ba 8f 9e bd 60 76 2b 3a f5 26 00 bc 93 b3 a8 3d
       -0.077422574 0.00065407716 -0.007821788 0.08237376
000350 b9 8a 61 bd 29 23 0b be 88 94 f7 bd 32 b0 93 3c
       -0.055063937 -0.13587631 -0.12088877 0.018028352
000360 35 69 8a bd af cd 44 be 67 ef 09 3e 67 fd af 3d
       -0.06758348 -0.19219087 0.13470231 0.085932545
000370 8b 3a 53 bd e6 00 59 be 66 84 af bc 78 42 66 bd
       -0.051569503 -0.21191749 -0.021425437 -0.056215733
000380 da 39 08 bd f7 53 32 be d2 49 9d bd d9 e7 ca 3d
       -0.033258297 -0.17414843 -0.07680096 0.09907503
000390 f3 a4 9f bc da 5e cf 3c d4 68 c9 bd e6 af 87 3d
       -0.019487834 0.025313783 -0.098344475 0.06625347
0003a0 36 db cf 3d 87 af 16 3e 4e d6 40 3d 09 fb d0 3d
       0.10149233 0.14715396 0.047079377 0.10204131
0003b0 81 4d 48 3c 33 e7 d8 3b b4 88 3f bd cd 2c 19 3e
       0.01222551 0.006619358 -0.04676123 0.14958496
0003c0 b7 52 1a be 25 af 9e 3e 73 2f f5 bd 15 94 1f bc
       -0.15070616 0.30993 -0.11971941 -0.009739895
0003d0 23 7c e6 bd c0 52 ad bd 43 4e b1 3d 5c dd 3d 3e
       -0.11254146 -0.08463049 0.08657505 0.18541473
0003e0 56 6f 78 3d 3a 72 a6 bd 5b 4e 23 3c e4 c1 51 bd
       0.060653053 -0.08127256 0.009967412 -0.0512103
0003f0 c8 74 56 3c b6 54 65 be 30 22 9b bd cd 27 bd 3a
       0.013089366 -0.22395596 -0.0757488 0.0014431417

lstm.bias_ih_l0 f4 [512]
000000 51 77 a1 bd c8 2f a7 bd 66 2a 38 3c 8b 34 ff bd
       -0.07884086 -0.081634104 0.011240577 -0.12461194
000010 d4 3a 31 bd 38 9a 91 bc 66 dc 8b bb 64 7b 60 bd
       -0.043268993 -0.017773733 -0.004268217 -0.054805174
000020 81 9c 66 bd 7d cb 0c be 43 67 cd bd 7c f8 3c bb
       -0.056301598 -0.137495 -0.10029461 -0.0028834632
000030 68 56 64 bd c8 fa 07 be e1 ad 9b bd 02 a5 79 bd
       -0.055746466 -0.13279259 -0.07601524 -0.06094838
000040 68 cf 54 bd 19 8a 09 bc a0 b8 7d bd 92 9b ae bd
       -0.05195561 -0.008394741 -0.06194365 -0.085257664
000050 f9 dd b2 bd 9e e9 ae 3c 0e d6 f9 bd 16 57 59 3c
       -0.08733744 0.021351632 -0.12199031 0.013265392
000060 e9 5a 46 bc ba 6c c3 bd 54 1d 2d 3d e8 7e 47 bd
       -0.012106636 -0.09542222 0.042264298 -0.04870501
000070 cb 0c d3 3c 51 72 d8 bd 52 dd 00 be 78 33 f2 3c
       0.025762936 -0.10568679 -0.12584427 0.029565558
000080 1b 94 7c 3d 5c 98 a0 bd 98 db 18 be 0a e5 ce bd
       0.061664682 -0.0784156 -0.14927518 -0.101022795
000090 5c 8e 4d bd 04 5a 34 3c 92 fe 1c be 62 ea 70 bb
       -0.050184593 0.0110077895 -0.15331486 -0.0036760797
0000a0 e2 e9 a3 3c c5 5d 6c bd 22 26 0a 3d 57 e9 cb bd
       0.020008985 -0.057706613 0.033727773 -0.099566154
0000b0 f8 f2 79 bd a3 2e 80 bd de 5a 0f bd 31 ac d5 bd
       -0.06102273 -0.06258895 -0.034998767 -0.104332335
0000c0 bb 46 db bd 7d e0 ee ba be 70 d7 bc 3a 95 61 bc
       -0.1070685 -0.0018224862 -0.026298877 -0.013768489
0000d0 ce b8 71 bd f5 47 e0 bd e9 e9 d6 bd 15 a5 f9 bd
       -0.059014134 -0.10951225 -0.104938336 -0.1218969
0000e0 57 ba b1 bd 7c 4b 39 3b 33 fe 8a bd 03 41 f3 bc
       -0.0867812 0.0028273752 -0.06786766 -0.029694086
0000f0 ec d0 fa bd 4d 6f 52 bc b4 8a fa bd ac 4a a5 bd
       -0.1224688 -0.012843919 -0.12233487 -0.08070883
000100 1c fd e4 bd c7 09 df bd ee 3c 49 bd d6 39 a5 3c
       -0.11181089 -0.10890537 -0.049130373 0.02016918
000110 46 15 81 bb 7d 2c a3 bd 3a 16 4b bd 43 90 2f 3c
       -0.0039393036 -0.0796747 -0.049581744 0.010715547
000120 76 21 52 bc b1 98 eb bd 88 83 22 be fa b8 80 bd
       -0.0128253605 -0.11503733 -0.15870488 -0.062852815
000130 9b cf 9f bd b9 c6 62 be e4 da 11 be a0 b9 d5 bd
       -0.078032695 -0.22146119 -0.14243656 -0.10435796
000140 b9 03 bb bd 6b c1 8e 39 ce 66 ad bd 56 2e 09 be
       -0.091315694 0.00027228458 -0.08466874 -0.13396582
000150 66 bc 30 bd 09 ac 4c bb b7 7f 66 bd 29 dd f3 bb
       -0.04314842 -0.003123047 -0.056274142 -0.007442136
000160 e3 ce 3a 3d 01 ae 2b be 1e 83 2f be 83 fd 01 be
       0.04560746 -0.16765596 -0.17139861 -0.12694363
000170 e6 4d 54 ba ed 0f 39 bd 9f e3 82 bd 1c 60 f4 bd
       -0.0008098766 -0.045181204 -0.063910715 -0.11932394
000180 94 12 2d be 07 01 b2 bd fb 71 b9 bc 4d 2b 22 be
       -0.16901618 -0.08691602 -0.022637358 -0.1583683
000190 c8 09 96 3d 46 69 a3 bd 88 62 f8 bd 48 64 42 be
       0.073260844 -0.07979064 -0.12128168 -0.18983567
0001a0 55 49 07 3d 48 c1 f3 bd 3c 00 14 bc 46 60 07 be
       0.03302892 -0.119021 -0.009033259 -0.13220319
0001b0 d4 c7 7b bd 17 11 8b bd 00 a2 ea bc a0 9d 75 3d
       -0.061469868 -0.06790369 -0.0286417 0.059964776
0001c0 d6 c8 58 bd f5 5a 2c bd 77 55 05 3d 49 7d 10 be
       -0.052925907 -0.04207893 0.03255221 -0.14110292
0001d0 a0 67 15 be 44 ed 76 bc be 8f 3f bc 12 60 fc bd
       -0.14590311 -0.015071217 -0.011691986 -0.123230115
0001e0 b8 ba 07 be 8b 99 24 3c 1a ef 37 3b d8 74 81 bd
       -0.13254821 0.010046373 0.00280661 -0.06321114
0001f0 4e 86 60 bd 2c f1 6e 3d e2 2d bd bd 64 62 a2 bd
       -0.054815583 0.05833547 -0.09237267 -0.07928923
000200 66 f1 3e bd 7c 0e ef 3c f0 e9 e8 bd 98 bf a4 bd
       -0.046616934 0.029181711 -0.11372745 -0.08044356
000210 5a 10 f3 bd 7b 7b dc bb 98 62 9a bc 39 52 c7 bd
       -0.11868353 -0.006728587 -0.018845841 -0.097324796
000220 1b 6b 7f bc 33 0f 3e 3e 59 f5 92 bd 64 da bf bd
       -0.015589501 0.18560486 -0.071757026 -0.093678266
000230 7f a1 f3 bc 55 55 43 bd 43 4f b3 bd bd 16 69 3d
       -0.029740093 -0.0476888 -0.08755352 0.05690645
000240 8d 85 a6 bc ed 7b 34 bc 76 f8 73 bd dd 35 21 bd
       -0.020327354 -0.011015874 -0.059563123 -0.03935801
000250 0f 73 d6 bd ae ef 76 3c 04 84 88 bc 19 c1 03 3e
       -0.104711644 0.0150717925 -0.016664512 0.1286663
000260 ee 6a 6c 3c 73 62 e2 3c 54 b5 cc 3d b9 d5 81 3e
       0.014429791 0.027634835 0.09995523 0.2535837
000270 3b f4 c4 3c 2e 87 ed 3d bc 45 24 bd a7 6d 0f 3e
       0.02404224 0.11598049 -0.040105566 0.14006673
000280 5e f8 c0 bd 57 27 9b bd 66 2b 0a b9 3f 15 77 bd
       -0.09422372 -0.07575863 -0.00013176873 -0.060322996
000290 3a 53 22 be 77 24 62 bd 09 a3 f2 bc 45 7c 30 3e
       -0.15852061 -0.055210557 -0.029618757 0.17234905
0002a0 1b 9a a6 bd 83 81 7d bd 72 8b 68 bd 00 fc ce 3c
       -0.08134862 -0.06189109 -0.05677361 0.025266647
0002b0 43 93 e5 3c 8d e0 04 be 51 7e 8e bd 49 f1 d6 bd
       0.028024321 -0.12976284 -0.06957687 -0.1049524
0002c0 32 ce 3f bd 07 fb 08 bd 65 d4 40 be ea 69 5a bd
       -0.046827503 -0.033442523 -0.18831022 -0.053323664
0002d0 3a eb 07 3e df 5c 37 bc 64 92 2b bd 17 5b da bd
       0.13273326 -0.011191576 -0.041887656 -0.10661905
0002e0 9a 23 c5 bd c0 d6 c6 bc 94 78 fb 3c 2b b1 67 bb
       -0.09625931 -0.024272323 0.030697145 -0.0035353403
0002f0 f8 3d be bc cf be 67 bd d6 a6 0e 3e 8a 3e 36 be
       -0.023222908 -0.056578454 0.1393083 -0.17797294
000300 3f b0 18 3d 10 69 62 3c eb 2d 80 bd 04 e0 d2 3c
       0.037277456 0.013818994 -0.06258758 0.025741585
000310 a3 9b cb bc 69 85 8b bd 37 e3 36 3d 11 df 17 be
       -0.024854487 -0.06812555 0.044650283 -0.14831187
000320 28 a9 00 be ed 7e e5 bc d3 be b4 3d 62 ed 8e bc
       -0.12564528 -0.028014624 0.08825459 -0.017447177
000330 07 01 24 bd 0e bd 0b 3e 0d 3c 08 be dc f3 45 3c
       -0.040040042 0.13646337 -0.13304158 0.012082066
000340 a6 2e 0f bc af f9 f6 bc a1 16 be bd 51 c7 0c be
       -0.008739149 -0.030148355 -0.0928166 -0.13747908
000350 5d 92 ad bd f3 6e 84 3d 0c 49 8e 3c 13 e6 ef bc
       -0.08475182 0.064664744 0.017368816 -0.029284513
000360 4f 29 06 3d 96 34 d8 bd 67 eb 54 bd 4a 30 28 bd
       0.03275424 -0.10556905 -0.05198231 -0.041061677
000370 ad 7c e0 3c de b5 8d bb 38 66 8e bd 3b 0b 09 bd
       0.0274032 -0.004324659 -0.069530904 -0.033457976
000380 3b ca 4d 3d 52 3d 96 bd 5c 0a f3 bd 59 2e 5d bc
       0.05024169 -0.07335915 -0.1186721 -0.01349982
000390 9d 6e 03 bd 27 29 91 bc 55 7c d8 3d 72 ec 0a 3d
       -0.03208791 -0.017719818 0.105705895 0.033916898
0003a0 29 0f 8c bd 49 72 54 bd 98 db 0c be 68 7a ab 3d
       -0.06838829 -0.051866803 -0.13755643 0.083729565
0003b0 f2 0e 03 3e 72 88 5d 3e 20 00 67 bc 87 87 94 3d
       0.1279867 0.21634081 -0.014099151 0.07252412
0003c0 23 cc e2 bd d5 c8 21 be 95 4a 96 bd e3 51 81 bd
       -0.11074092 -0.15799268 -0.07338444 -0.06314447
0003d0 45 9c ef bb b0 dc f3 3d e0 83 87 bd b7 dc 3e bb
       -0.00731233 0.11907327 -0.0661695 -0.0029123256
0003e0 ca f0 94 bc e8 e0 66 bc 2f 96 17 be b2 3c f8 3d
       -0.018181223 -0.014091708 -0.14803384 0.12120952
0003f0 72 89 08 3e d0 2b 32 bd 45 0a a2 3d 33 c1 eb ba
       0.13333681 -0.043498814 0.07912115 -0.0017986655

lstm.bias_hh_l0 f4 [512]
000000 a8 73 fc bd 25 3c 89 bd 29 cb b1 bd 18 7f 8e bd
       -0.12326747 -0.06700925 -0.08681328 -0.06957835
000010 7b 9d 0c be be c2 ab bc 12 1e 12 3d 3c 4d 8d bd
       -0.13731949 -0.020966884 0.03567321 -0.06899497
000020 f9 d5 bd bc 15 49 e7 bd 2f cc de 3c 36 81 c1 bc
       -0.02317332 -0.11293236 0.027196972 -0.023621183
000030 65 c8 e7 bd 3a 6b 1e bd fe 26 ee bd 36 9d a7 bd
       -0.11317519 -0.038676478 -0.11628531 -0.081842825
000040 71 51 b4 bc fe a3 b1 bd c2 23 4a be 94 f8 c5 bd
       -0.02201149 -0.08673857 -0.19740203 -0.09666553
000050 5b c0 0c be 2a 89 61 3d 6c 86 05 be e7 9f be bd
       -0.13745253 0.05506245 -0.13039559 -0.09307843
000060 97 0c 5f bd d5 8a 34 bd 23 34 a9 3c c1 47 7f 3c
       -0.054455366 -0.044077713 0.020654744 0.015581072
000070 4d 6b 33 bd 5e d8 c2 bd 6e 6c 89 bd 64 02 ad bd
       -0.043803502 -0.09513925 -0.067101344 -0.084477216
000080 9a 3b 3a bd 86 a4 1d 3d 91 cf 22 be 70 f3 ce bd
       -0.045466997 0.03848698 -0.15899493 -0.10105026
000090 0a de ab bd a9 e5 04 bd c7 3e 2a bd b6 a3 ca bd
       -0.0839196 -0.032445583 -0.041563775 -0.09894507
0000a0 74 ad 8d 3c f2 6c f1 3b 6c de 53 bd 6f 30 b4 bd
       0.017294623 0.0073677236 -0.05172579 -0.087983005
0000b0 20 2d b7 bd 91 71 21 bd 6e 7b 17 be 3d 63 b3 bd
       -0.08944154 -0.039414946 -0.14793178 -0.087591626
0000c0 2a 16 18 3d af 52 e2 bd d4 e6 95 bd fc 95 34 bc
       0.037130512 -0.11050927 -0.073194176 -0.011022087
0000d0 fa be 87 bd db aa 87 bd 3d da 99 bd 67 e3 10 be
       -0.06628223 -0.06624385 -0.07512329 -0.14149247
0000e0 05 b0 44 be cf b6 a5 3b a5 d0 8b bd 56 61 9b bd
       -0.19207771 0.005057193 -0.06826905 -0.07586925
0000f0 a7 df b3 3c 49 86 c9 bc cd 4e b0 bc 88 65 24 3d
       0.021957232 -0.024600165 -0.02152195 0.04013589
000100 62 55 93 bd c3 56 2a bd 8a 4d 23 be 93 ba 53 3c
       -0.0719402 -0.04158665 -0.15947548 0.012922901
000110 4d 5b bf bd 11 9e d2 bd 41 6d 54 bb 65 d3 09 be
       -0.09343586 -0.10284055 -0.0032413753 -0.13459547
000120 6f 34 02 be 52 a7 00 bd 78 fa c9 bc 0b dc ac 3c
       -0.12715314 -0.03140957 -0.024655566 0.021101018
000130 f7 09 b6 3c 97 dc 19 be c2 22 06 be 9a 04 c3 bd
       0.022221548 -0.15025555 -0.13099197 -0.09522362
000140 bf a5 1f bc d6 8a 21 bd e8 3c 9a 39 6c 41 0c be
       -0.009744107 -0.039439045 0.00029418548 -0.13696831
000150 25 82 e4 bd 56 92 ff bd 13 81 d1 bd b6 72 9f bd
       -0.111576356 -0.12479083 -0.10229697 -0.07785551
000160 2d 6c 50 bd 22 5f e1 bd 46 01 f7 bd 42 5c f1 bd
       -0.050884414 -0.11004473 -0.1206079 -0.11785175
000170 f4 de db bd cb b3 6b bd 4c 86 18 be 66 e0 c5 bd
       -0.10735884 -0.05754451 -0.1489498 -0.09661941
000180 ac d9 f4 bd 7b 86 ba 3c 9b db 0a be da 9d 4b bd
       -0.1195558 0.022769203 -0.13560335 -0.049711086
000190 4a 8e 94 bd 68 e0 80 bd 6d 6b 1f bd 2c b0 ab bd
       -0.07253702 -0.06292802 -0.03892081 -0.083832115
0001a0 55 ef dc bd 04 fb 54 bd bd 5b fd bc 41 a3 44 be
       -0.107878365 -0.0519972 -0.030927533 -0.19202901
0001b0 b0 e5 13 be 1c a3 26 bb 8b 09 12 be 91 9e 12 3d
       -0.14443088 -0.002542681 -0.14261453 0.035795752
0001c0 67 83 17 be 9c e5 90 bd 14 80 dc 3c 7c ba 84 bd
       -0.1479622 -0.070750445 0.026916541 -0.064808816
0001d0 f6 2e f7 bd 63 eb 3f be 67 01 a9 bc 75 57 84 bd
       -0.12069504 -0.18742137 -0.020630552 -0.064619936
0001e0 c7 3c 73 bd b4 6e 87 bc 88 b3 89 3d 06 e9 1d 3d
       -0.059384134 -0.01653228 0.06723696 0.038552307
0001f0 5a 04 0e be f2 2b 13 bd 8e d8 aa bc 7d 90 90 bd
       -0.13868847 -0.03593058 -0.020855214 -0.07058809
000200 0e fd 77 3c a9 c1 26 3d 6e a6 0e 3d 55 08 2d bd
       0.0151360165 0.040712032 0.03482669 -0.042244274
000210 6f 8b 0f be 9c 18 21 bc 65 b8 05 3d 85 8d aa bc
       -0.14018033 -0.0098325275 0.032646555 -0.020819435
000220 52 b2 f4 bd ad d8 13 3e e2 34 9c 3d db 77 18 bd
       -0.119480744 0.14438124 0.07627274 -0.037223678
000230 56 69 97 bd 91 85 49 bc a4 96 0d b7 c2 8f 17 3e
       -0.07393138 -0.012299911 -8.439329e-06 0.14800933
000240 5f cc 6f 3d fb 32 38 bd 84 e8 15 bd 80 eb 18 be
       0.058544513 -0.044970494 -0.036598697 -0.14933586
000250 e9 0c 8b bd 22 cb 56 b9 59 78 b5 bd 05 82 f3 3d
       -0.06789572 -0.00020484303 -0.08860845 0.11890034
000260 13 12 04 3e 42 29 7f 3c b7 ae 58 3e 55 a0 88 3e
       0.1289752 0.0155738015 0.21160398 0.26684824
000270 79 6e 36 3d 5d e2 bf 3c f1 83 85 bd 7a 42 2a 3e
       0.04453895 0.023423368 -0.065193065 0.16626921
000280 d6 7c 51 3d 4b c5 15 bd ba ac 35 bc 31 bf 18 be
       0.051144443 -0.036565106 -0.0110885445 -0.14916684
000290 23 8d b1 bc b2 47 9a bd 1f 78 e8 bc f1 9a c6 3d
       -0.021673745 -0.07533206 -0.02837759 0.096975215
0002a0 a0 b2 9a bc 90 9e 43 3d 01 82 82 3d db 1e e4 3c
       -0.018884003 0.04775864 0.063724525 0.027846744
0002b0 01 5e 86 bc 3b 10 1e be 0f c4 11 3d 05 99 e7 bd
       -0.016402246 -0.15435879 0.035587367 -0.11308483
0002c0 c8 be 1b 3d 51 11 14 bd 4b 69 0e be d1 f4 48 bd
       0.03802374 -0.036149327 -0.13907354 -0.0490616
0002d0 21 94 3d 3e cb 1d 39 bd ef 54 99 3d b3 bc e5 bd
       0.18513538 -0.04519443 0.07486903 -0.11217632
0002e0 54 8d ba bd 76 a8 3f 3d 57 06 53 3c cc 65 94 bd
       -0.091089875 0.046791516 0.0128799295 -0.07245979
0002f0 59 7b bb bd 2d be 40 3d ed 8d b1 bb 36 12 0f be
       -0.09154386 0.047056366 -0.00541853 -0.1397179
000300 f5 f7 9c 3d 2c ec ab 3d c5 91 00 3d 8d d0 90 3d
       0.076644816 0.083946556 0.031389017 0.07071028
000310 1b 28 b3 3c 35 02 cc 3c 1f af 6f 3c ee cc 85 bd
       0.02186971 0.024903396 0.0146291545 -0.06533228
000320 0e fb ac bc 93 c8 9c bd 8d 52 3a 3d f4 d1 8e bd
       -0.021115806 -0.07655444 0.045488883 -0.06973639
000330 b9 2a 6e bd e2 63 2b 3e de bb 00 3c c9 7a 9e bb
       -0.058146212 0.16737321 0.007857291 -0.0048364145
000340 ab 59 37 bd e2 9a d0 bd 6d 33 97 bd 5f ef 0e be
       -0.04476325 -0.101857916 -0.073828556 -0.139585
000350 81 60 87 bd 7d 07 03 bd 02 0b ae bc cf 09 81 bc
       -0.066102035 -0.031989563 -0.021245483 -0.015751747
000360 37 87 2e 3d 80 42 8e 3b 9c 98 d5 3d 2c ed 11 bc
       0.04260942 0.0043414235 0.104294986 -0.008906644
000370 a8 1c 25 3c 53 8f c5 3d 5c 38 1d be 75 13 da bd
       0.010077633 0.096464776 -0.1535353 -0.106482424
000380 b1 23 12 3e d7 cc 70 3d 50 6c 0a bd d7 66 e0 3c
       0.14271428 0.0587891 -0.0337947 0.027392788
000390 08 d7 7a bd ce 63 4c bc 71 5d cd 3d 48 fd da 3d
       -0.061240226 -0.012474967 0.10027588 0.10692841
0003a0 69 1e 81 3c 59 3d ef bc b9 db d0 bd 6e 1a 56 3e
       0.015761571 -0.029204058 -0.10198159 0.2090852
0003b0 95 80 60 3e e2 9c a0 3d 9d 77 70 ba 38 21 65 3e
       0.2192405 0.07842423 -0.0009173097 0.22375953
0003c0 00 79 61 bd ab 1f 2b be fd 6a 09 be 0a 5d e4 bc
       -0.055047035 -0.16711299 -0.13419719 -0.027876396
0003d0 4c 30 7c 3d 75 36 89 bb 2f ed f7 bc 31 2c 79 bd
       0.061569497 -0.0041874 -0.030264465 -0.06083316
0003e0 f6 1e b4 bc 24 df f3 3c 52 d3 89 bd dd be ec 3d
       -0.02198742 0.029769488 -0.06729759 0.11559842
0003f0 d3 ca 6d 3d 40 9a 98 bd a2 e8 94 3b 1a 0c 13 3e
       0.058054756 -0.07451296 0.0045443336 0.14360085

fc.weight f4 [2, 128]
000000 35 30 31 3e dd 45 40 be fa f8 81 be a1 96 06 3e
       0.17303546 -0.1877665 -0.25385267 0.13143398
000010 20 f0 2e bd 36 c9 90 3e 08 d9 47 be 38 81 83 3e
       -0.04270947 0.28278512 -0.19516385 0.25684524
000020 2f d5 7e 3e 2b ed 58 3e 4b 9d e4 bd cf 63 02 3e
       0.2488601 0.21184222 -0.11162814 0.12733386
000030 52 d5 34 3e ce f2 70 be 24 8f fc bd 44 27 87 3e
       0.176595 -0.23530123 -0.123319894 0.26397145
000040 3d e6 d5 3d d4 14 82 be ba cb b0 3b 60 a4 3b 3e
       0.10444305 -0.25406516 0.00539538 0.18324423
000050 b2 41 04 3e 4f 7b 68 be b0 04 9d 3c f1 80 6b 3e
       0.12915686 -0.22703288 0.019167274 0.22998406
000060 3f 6e 3d 3e c7 10 2f be e7 6a a8 3c cf bc 15 bc
       0.18499087 -0.17096244 0.020558788 -0.009139254
000070 c2 a9 80 3e 89 df 2c 3e 8c b4 3e be 8c 6f 3b 3e
       0.25129515 0.16882147 -0.1862356 0.1830427
000080 da 54 d8 3c 43 6b 63 bd 90 3e 22 3e 5f 63 03 be
       0.026407648 -0.055522215 0.15844178 -0.12830876
000090 4c d6 30 bd 1b f7 fa 3d 66 ce 30 3e 35 a1 62 be
       -0.04317312 0.12254163 0.17266235 -0.22131808
0000a0 20 b6 98 3e 61 d7 6c 3e ec bb 1e 3e 91 e8 5f 3d
       0.2982645 0.23129036 0.15501374 0.054665152
0000b0 f5 94 75 3e b1 85 43 3e 19 ab 82 3e de 21 2d 3e
       0.23982604 0.19093968 0.25521162 0.1690745
0000c0 09 34 2f be 18 61 78 be bb a6 ba be b9 75 8f 3e
       -0.17109694 -0.24255788 -0.3645533 0.28019503
0000d0 be 17 a4 bd 84 cd 42 3e 25 aa de 3c 20 2e 05 3e
       -0.08012341 0.1902371 0.02718074 0.13005877
0000e0 ff bc 0b be 3e 28 08 be a2 7b 7f be 66 5c ae 3d
       -0.13646315 -0.13296601 -0.24949506 0.08513717
0000f0 ae 72 4e bd 8b fe 31 3d 1c bf 91 3d 65 de 83 3e
       -0.050402336 0.04345564 0.07116529 0.2575561
000100 cf 17 8e bc 35 fb 42 3e 6a 51 2d 3e 9b 45 a2 be
       -0.017345337 0.1904114 0.16925588 -0.3169373
000110 5d c2 a9 3e c4 d3 6f 3c ea ca 04 bd 87 59 8d be
       0.331561 0.014637891 -0.032420076 -0.27607366
000120 8f 5c f6 3d fa 46 53 3e d9 66 43 be 31 74 94 be
       0.12029373 0.20632544 -0.19082202 -0.28994897
000130 5d 47 17 3e 08 f9 65 be 12 c2 4e be ad 47 17 3e
       0.14773317 -0.22458279 -0.2019122 0.14773436
000140 42 53 17 be e8 bc 27 be e5 bc 5b be 0c 94 87 3c
       -0.14777854 -0.16380656 -0.21458776 0.016550086
000150 7e 09 20 bd e0 b6 fe bb 32 12 49 bd 89 74 93 3d
       -0.039071552 -0.0077732652 -0.049089618 0.07199962
000160 44 87 80 be f3 cd 06 be 60 f8 5f 3e 8c d9 28 be
       -0.251032 -0.13164501 0.21872091 -0.16489238
000170 4d 30 ee 3d 38 53 1f be b0 f0 40 3e be e2 07 3d
       0.116303064 -0.15559089 0.18841815 0.033175223
000180 5c bc e4 3d a9 8b 56 be e3 23 05 be 31 c7 1f be
       0.11168739 -0.20951714 -0.13001971 -0.15603329
000190 af a3 9b be 6b 08 bb bd cc d8 ef 3c b3 b0 18 3e
       -0.30398318 -0.09132465 0.029278181 0.14911155
0001a0 ce 6d 2f 3e 83 cc 16 3e 63 35 a4 3e ba 4a 8a 3e
       0.17131731 0.14726453 0.3207198 0.27010137
0001b0 70 0f a8 3d 1e cf 89 3e 12 0f bf bd 45 87 49 bb
       0.082060695 0.2691583 -0.09329046 -0.0030750793
0001c0 17 7a 9e bd bf 89 b0 3e 87 b2 80 3e a0 cb c5 3c
       -0.077381305 0.34480092 0.25136206 0.024144948
0001d0 40 72 88 3e fb 41 45 be 41 cb ec 3d b9 b9 4f 3e
       0.26649666 -0.19263451 0.11562205 0.20285691
0001e0 23 af ba bc 4f 5c 9c be bb b4 3a 3e 36 c1 e3 bd
       -0.02278859 -0.30539176 0.18233006 -0.111208364
0001f0 82 08 b0 3e ad a0 8c be 6c 50 10 be 47 dd 83 3d
       0.3438149 -0.27466336 -0.14093179 0.0643869
000200 44 85 a6 be 12 7c 4f 3e b2 0b 93 3e e9 41 c0 bd
       -0.3252355 0.20262173 0.2871986 -0.09387571
000210 13 ef 03 3e 5d bc 55 be 7e 61 7f 3e e4 fc 59 be
       0.12884168 -0.20872636 0.24939534 -0.21287876
000220 3d 45 7b be 38 26 17 be 6a 10 bc bc 59 b6 74 be
       -0.24538131 -0.14760673 -0.022957046 -0.23897685
000230 f6 e4 6e be c5 e6 34 3e a6 f4 73 3d d6 ef 69 be
       -0.23329529 0.17666157 0.059559487 -0.22845396
000240 1b f5 ef bd 27 6d ee 3d 08 2e c6 bd 2c d1 26 be
       -0.11716672 0.11641913 -0.096767485 -0.1629073
000250 0b a7 9d bc 33 8f 2e 3e 0f 34 56 bd 5a 08 3b be
       -0.019244691 0.17046814 -0.05229574 -0.18264905
000260 b4 09 ec bd 21 29 40 3e 73 dd f3 bc 64 71 17 bc
       -0.11525288 0.1876569 -0.029768681 -0.009243343
000270 22 75 27 be 01 b3 77 be 89 67 98 3e 9a b8 72 be
       -0.16353276 -0.24189378 0.2976649 -0.23703232
000280 87 84 3c be 61 db b2 3d 02 c5 88 be 8e aa 17 3e
       -0.1840993 0.087332495 -0.26712805 0.14811155
000290 04 bb 34 3e 84 cc 9f bd f4 0a 6b bd ac ce 58 3e
       0.17649466 -0.0780268 -0.057383493 0.21172589
0002a0 d0 29 24 be cd 75 a1 be e4 2f 2e be 3c 12 3b bd
       -0.16031575 -0.31535187 -0.17010456 -0.045671687
0002b0 53 54 6e be 15 90 66 be 55 98 97 be c4 cb 08 be
       -0.23274355 -0.225159 -0.29608408 -0.1335898
0002c0 38 ce 4b 3e 59 e1 9d 3e 83 8b 91 3e ed 64 93 be
       0.19902885 0.3083599 0.28426751 -0.28787938
0002d0 d6 fa 45 3e 42 22 a4 bd dc 95 ac bc ac 6c 15 bd
       0.19333968 -0.08014347 -0.021067552 -0.03648059
0002e0 10 a4 bd 3d 8d 45 07 3d 44 f0 4b 3e 08 ba 2b bd
       0.09259808 0.033025313 0.19915873 -0.04192546
0002f0 b8 7e 03 3e 2b db ad bd 49 7b 8b bd c3 0b a2 be
       0.12841308 -0.084890686 -0.06810624 -0.31649598
000300 79 e5 75 3d 8e cb 89 bd a2 1e 34 be d9 c0 a9 3e
       0.060033295 -0.06728278 -0.1758981 0.33154944
000310 99 9d 44 be a4 79 de bd 3c 29 6f bc 85 c8 45 3e
       -0.19200744 -0.10863045 -0.014597233 0.19314773
000320 17 cc 03 be 30 d2 a2 be 57 1f 74 3e 83 dd 76 3e
       -0.12870823 -0.31800985 0.2384008 0.24107938
000330 1b 46 ea bd cc 46 31 3e 76 46 00 3e 8a db 3a be
       -0.11439153 0.17312163 0.12526879 -0.1824781
000340 05 d0 85 3e 91 05 25 3e f2 7f d2 3d 2c 7f 3b be
       0.2613527 0.16115405 0.1027831 -0.18310231
000350 0c 6c aa 3d 4f 86 57 3d 8c 46 50 bd d2 46 15 be
       0.083213896 0.05261832 -0.05084853 -0.14577797
000360 36 16 08 3e b7 e9 15 3e b7 4d 88 be 41 5c 50 3e
       0.13289723 0.14639936 -0.26621792 0.20347692
000370 11 2a 12 be 31 8d 52 3e 22 55 8a bd d6 c4 0b be
       -0.1427386 0.20561673 -0.06754519 -0.13649306
000380 63 dd d2 bd 5d 83 a0 3e 8e a0 41 3e b6 c6 2e 3e
       -0.102961324 0.31350222 0.18908903 0.1706799
000390 8f 74 8b 3e f8 78 04 3e 82 c9 8c bd 1a b5 20 be
       0.27237365 0.12936771 -0.06874372 -0.15694085
0003a0 85 62 2a be 4b 69 3c be a7 55 a4 be bf ba 3f be
       -0.16639145 -0.18399541 -0.32096598 -0.18723582
0003b0 54 dd 84 bd 15 a1 95 be b0 23 27 3e aa d8 98 bd
       -0.064875275 -0.29224458 0.16322207 -0.074632004
0003c0 42 21 ac 3d 40 6f a4 be 57 aa 22 be 4f fe 16 3d
       0.08404781 -0.32116127 -0.15885292 0.03686362
0003d0 e7 de 3c be 32 5f 8e 3e 25 d1 6b be e2 6b 11 be
       -0.18444405 0.27807003 -0.23029001 -0.1420131
0003e0 ad d6 0d be 95 a1 9d 3e 1f 42 60 be 04 c0 e2 3d
       -0.13851424 0.3078734 -0.21900223 0.1107178
0003f0 aa 7f 66 be 8e 48 8b 3e 34 17 fb 3d cc 96 a2 bd
       -0.22509637 0.27203792 0.12260285 -0.079389185

fc.bias f4 [2]
000000 c8 bf 74 3e 0e 73 a4 bd
       0.23901284 -0.080297574
